Modelsnew/fbsde_discretized_feedforward__2022-04-07-09-19-22.pt (torch, 696373 bytes, 800 tensors)

weight f4 [50, 4]
000000 a8 1c f7 bd 00 9e 49 3c b0 33 a3 3d 44 86 3a 3e
       -0.120660126 0.012305737 0.07968843 0.18215281
000010 a8 02 46 3e 8c ab 2f 3e 84 59 d9 3e a8 87 bb 3e
       0.19336951 0.17155284 0.42451108 0.36626935
000020 7c 0c b8 3e cc 64 61 be 88 c1 8b 3d 28 21 1f 3e
       0.35947025 -0.22011107 0.068240225 0.15539992
000030 f0 17 e6 3d d0 45 8a be 28 f2 ee 3e 80 3a 19 3d
       0.112350345 -0.27006388 0.46669126 0.037409306
000040 40 0f 30 3c 98 0b 8d be f0 7e 3a 3d 98 f9 c1 bd
       0.010745823 -0.27547908 0.045531213 -0.09471434
000050 32 16 a0 be c0 33 ed 3c 0c 7c 8c be cc 8b 28 be
       -0.31266934 0.02895534 -0.2743839 -0.16459578
000060 8c 53 50 be a2 5a c8 3e a0 db f9 3c 10 15 98 3d
       -0.2034437 0.39131647 0.030500233 0.07425892
000070 00 28 c1 3a 90 9f 4a be 48 cc 92 3d bc 37 e4 be
       0.0014736652 -0.19787431 0.0716787 -0.44573772
000080 2c 6d 9b be 28 a3 42 be 14 77 84 3e 38 b9 92 3d
       -0.3035673 -0.19007552 0.258721 0.07164234
000090 1c 74 08 be 04 76 a9 be 00 0a 1b bd c0 27 69 3e
       -0.13325542 -0.3309785 -0.037851334 0.2276907
0000a0 e4 c9 1f be 80 47 a2 3b 22 89 be 3e 34 98 a9 be
       -0.15604359 0.004952371 0.37214 -0.33123934
0000b0 a0 8d c9 3c 9c 57 73 be 44 62 b8 be a8 d5 eb 3d
       0.024603665 -0.23763889 -0.3601247 0.11515361
0000c0 bc af 20 be 72 04 f8 be 5e ae df 3e f2 d0 e3 be
       -0.15692037 -0.48440892 0.4368772 -0.4449535
0000d0 cc 3a 87 3e 60 dc e1 bc 30 4c a8 bd 10 d7 16 be
       0.26412046 -0.027570903 -0.082176566 -0.14730477
0000e0 0c 8f 1f be 38 85 98 bd 1c 84 8a 3e b0 e7 74 bd
       -0.15581912 -0.074472845 0.27053916 -0.059791267
0000f0 66 a8 ca 3e 18 39 5e be 88 4c a5 3d be 39 ed 3e
       0.39581603 -0.21701467 0.08071238 0.46333116
000100 f4 f4 cf be e4 91 2d 3e 7c 01 54 3e ac fd be 3e
       -0.40616572 0.16950184 0.20703691 0.3730291
000110 2c 04 6e 3e 9a 73 ad be 8e be 9b 3e 2c 00 d8 be
       0.23243779 -0.3387726 0.3041882 -0.4218763
000120 4c 1c 39 3e 20 a6 df 3c 14 72 e7 3e 54 11 6a 3e
       0.180772 0.027300894 0.45204222 0.22858173
000130 78 bb 68 3e 4c a8 e4 be 60 53 97 3e 1e 1d 8c be
       0.22727764 -0.4465965 0.29555798 -0.27365965
000140 b6 e5 d6 3e 96 e2 9c 3e 00 a6 34 bb 92 53 95 be
       0.4197213 0.3064162 -0.0027564764 -0.29165322
000150 a0 f7 e4 bd f0 38 f8 3d d8 97 2e be ac 1c c3 be
       -0.11180043 0.12120235 -0.17050111 -0.38107812
000160 de 8f b6 be 18 cb 75 3e 48 32 7e 3e 6e 06 88 3e
       -0.35656637 0.24003255 0.24823868 0.26567405
000170 2a 41 80 be 2c 46 08 be 70 56 f9 be 98 bb 4e 3e
       -0.25049716 -0.13308018 -0.4869876 0.20188749
000180 38 73 ca 3d 1e c9 fb be 52 ee 8b 3e 9c 8c 11 3e
       0.098852575 -0.49176878 0.2733026 0.14213794
000190 78 ba eb bd 56 26 b5 3e 18 c3 69 3e 8e 58 f2 3e
       -0.115101755 0.3538081 0.22828329 0.47333187
0001a0 a4 36 67 be a0 bd a3 be a8 8f 8b 3e f4 14 8f 3e
       -0.22579437 -0.3198061 0.2725804 0.27945673
0001b0 9c d0 10 3e da 1e c5 be ae 0b e5 be f6 1e a1 3e
       0.14142078 -0.385001 -0.44735473 0.31468934
0001c0 1c 1c 83 3e 26 37 e3 3e b8 e5 99 3e 00 8a 9a ba
       0.25607383 0.44378012 0.30058074 -0.0011790395
0001d0 f8 13 aa bd 70 16 2e bd f2 f8 8c be a8 a2 bd 3d
       -0.0830459 -0.042501867 -0.2753368 0.0925954
0001e0 4c b4 6e 3e 74 5d dd be 7c 97 a8 3e 48 64 6a 3e
       0.23310965 -0.43235362 0.32928073 0.22889817
0001f0 ce ea db be 64 95 eb 3e de 0e b1 be 70 52 f4 3e
       -0.4295258 0.46012414 -0.34581655 0.47719145
000200 6a ec dc be 94 58 98 be 7c 8b 4c 3e 9c bd af 3e
       -0.4314912 -0.2975508 0.19975084 0.34324348
000210 f4 f2 82 3e f0 fa 1f be 48 18 a1 3e 00 79 e0 3c
       0.25575984 -0.15623069 0.31463838 0.027401447
000220 e4 a6 2a 3e b8 a9 c4 bd 08 71 2d be 40 9f 23 bc
       0.16665226 -0.09602684 -0.16937649 -0.009986699
000230 00 70 a6 3d 08 ac c8 be 66 e7 8f 3e e8 63 bb be
       0.08126831 -0.3919375 0.2810623 -0.3659966
000240 84 12 fd be 70 bd 9c be e8 97 4c 3e 00 ad eb bc
       -0.4942819 -0.3061328 0.19979823 -0.028769016
000250 1a a7 8c be 5c bb 9f 3e d8 11 ac 3e ec d8 28 3e
       -0.27471238 0.3119763 0.33607364 0.16488999
000260 9e c3 b3 be d4 15 9a be 34 50 0b 3e ce 12 82 3e
       -0.35110182 -0.3009478 0.13604814 0.25404972
000270 50 2b 2f bd 60 0b b7 3c 54 6e 6f be 4e c5 e4 be
       -0.042765915 0.022344291 -0.2338193 -0.44681782
000280 20 b1 22 be c0 ca 05 be 8c 5e a5 3e a8 c8 c7 be
       -0.1588788 -0.13065624 0.32298696 -0.39020276
000290 c0 fd fb bc 28 bb a1 3e c6 c0 b7 be b4 34 95 3e
       -0.030760646 0.315881 -0.35889262 0.29141772
0002a0 00 dd 5d 3c 58 7a 6e be 00 9d 7a bc 94 5a 6d 3e
       0.01354146 -0.23288858 -0.015296221 0.23179084
0002b0 30 05 1d 3d 20 69 7c 3e c6 eb a7 3e 10 ca 1c 3e
       0.038335025 0.24649477 0.32797068 0.15311456
0002c0 a8 b3 1a be 60 f2 ae 3d a0 55 23 3d c0 4a 73 3d
       -0.15107596 0.08542323 0.03987658 0.05939746
0002d0 c8 c6 38 3e 86 2c f8 3e ac 65 3e be f2 41 df be
       0.18044579 0.4847147 -0.18593472 -0.43605
0002e0 50 00 b0 3d f0 fd 93 3e ce f6 d8 3e b4 aa 29 be
       0.085938096 0.28904676 0.42375797 -0.16569024
0002f0 08 89 fe be d6 71 b3 3e cc c2 cb be 94 56 75 be
       -0.49713922 0.35047787 -0.39797056 -0.23958808
000300 48 8c 2a 3e c6 d9 e1 be 04 ec 02 3e 28 20 92 bd
       0.16655076 -0.4411146 0.12785345 -0.071350396
000310 a2 ca c5 3e b8 cf 93 3d a0 4e 7d be 98 f1 28 3e
       0.3863116 0.072173536 -0.24737024 0.1649841

bias f4 [50]
000000 d0 53 8e bd 84 a2 91 be f5 1b 17 3f c1 f6 26 be
       -0.0694958 -0.28444302 0.59027034 -0.16305067
000010 1a 38 e8 3e 00 0d 5a 3c 70 26 dc 3d 88 e7 8d 3e
       0.45355302 0.0133087635 0.10749519 0.27715707
000020 26 85 32 3e 60 26 bc 3d 40 0f 6d 3e 45 6a a1 bd
       0.17433605 0.09187007 0.23150349 -0.078815974
000030 c0 df a3 bc b9 ed dc be 7c 26 71 3e 04 7f 87 be
       -0.020004153 -0.43150118 0.23549837 -0.26464093
000040 bc 1e 61 3e 1e 04 7d 3f 90 bb 06 be 04 e8 57 be
       0.2198438 0.9883441 -0.13157487 -0.210846
000050 e8 ef 35 be c2 21 39 bf 96 8f a3 3e b5 6c 87 bf
       -0.17767298 -0.72317135 0.31945485 -1.058005
000060 88 37 77 be b0 85 b8 3e 78 31 32 3e ca 0a 82 be
       -0.24142277 0.36039495 0.17401683 -0.25398856
000070 90 e3 3e 3d 00 ad 41 3b e6 87 46 be a0 b8 b6 3c
       0.04660374 0.002955258 -0.19387779 0.022304833
000080 20 6a 45 3e 68 3e 94 3d 55 75 8a bf 38 d0 08 3e
       0.19278765 0.072384655 -1.0817057 0.13360679
000090 aa 52 7b 3f de bc a3 3e e2 68 9c bf 04 5b 92 be
       0.9817301 0.31980032 -1.2219508 -0.28585064
0000a0 ac cf 20 3e ec a8 e1 be 09 b2 7a bf e0 9f c6 bd
       0.1570422 -0.4407419 -0.9792791 -0.096984625
0000b0 e0 1a d2 bd 4c 54 8d 3e 87 c9 76 3e fe 62 d0 3e
       -0.10259032 0.27603376 0.24100314 0.40700525
0000c0 22 54 70 bf 54 16 69 3e
       -0.93878376 0.22762424

weight f4 [9, 50]
000000 4b 76 57 3c 96 4d 8e bd a7 40 54 be 3b b0 2c 3f
       0.013150762 -0.06948392 -0.20727788 0.67456406
000010 86 e8 20 3d 51 9b 83 bd 9f 90 d6 bb 9d af 6c bd
       0.03928425 -0.06426109 -0.006548002 -0.057784665
000020 96 0e 1f bf 82 7d 0a be a2 00 f2 bd aa 3f a0 be
       -0.6213163 -0.1352444 -0.11816527 -0.31298572
000030 ce 6b 85 3c 59 a5 1c bf 4e 4a f3 bd 7b 1a 8e 3d
       0.016286757 -0.611898 -0.11879407 0.069386445
000040 01 61 7a bd f1 90 6b bc 6d 5a f1 ba 77 45 03 be
       -0.061127666 -0.014377818 -0.001841379 -0.12819467
000050 88 f5 2f bd 75 75 26 3f 2e 6e 0c be b6 cf 06 bf
       -0.042958766 0.65022975 -0.13713905 -0.5266069
000060 9e 2b 0e be ea 3b 87 3d 51 b2 c2 3d 3d 5d 1d 3f
       -0.13883826 0.066032246 0.095066674 0.61470395
000070 11 50 dc 3d 30 30 a6 3d 9a 5f 0c bf 89 99 d5 3d
       0.10757459 0.0811466 -0.54833376 0.10429675
000080 bb 93 86 3c 80 2d 85 3d c5 9e 29 bf 18 ce e4 bd
       0.016427865 0.06502819 -0.6625789 -0.11172122
000090 c6 84 02 3f ea 0b 83 3d a5 2d 04 3f 1e 14 6c 3d
       0.50983846 0.06398757 0.5163215 0.057636373
0000a0 96 a3 b3 3d f2 0a 2e bf e7 e1 35 bf 63 73 05 3d
       0.08771436 -0.6798545 -0.71047825 0.032580744
0000b0 60 7c 8a 3d b2 95 07 3e 5e 89 2b 3f 58 38 90 bd
       0.06762004 0.13240698 0.6700648 -0.07041997
0000c0 2a 98 27 bf b9 49 3c bf ab 82 dd 3d a3 5e 4e bd
       -0.6546656 -0.7354999 0.108159386 -0.05038322
0000d0 49 a2 fa be ac ee 96 be e2 c6 8c bd 56 7f e9 3d
       -0.4895194 -0.29478967 -0.068738714 0.114012405
0000e0 25 e5 5b bd 69 ec 0a 3e bd 4c f2 3e 7f 91 8f bd
       -0.053685326 0.13566746 0.47324172 -0.07010173
0000f0 37 5a ba bd 60 88 35 bf 68 22 bd 3d 08 bc fb 3e
       -0.09099238 -0.70911217 0.09235078 0.49166894
000100 40 4f 23 bd 5e bb 79 3d 0a eb 01 3e ba d4 db be
       -0.0398705 0.060969703 0.12687317 -0.42935735
000110 36 75 e6 3d d2 1f cb 3d b2 b9 f9 bd 0f b2 03 bf
       0.11252825 0.099181786 -0.12193622 -0.5144357
000120 63 30 75 3c 03 76 fb 3e ec 8c f3 bd 26 c5 98 bd
       0.01496515 0.49113473 -0.11892113 -0.07459478
000130 27 b7 62 3d 6e ec bb be 5a 61 6c 3b c7 2e 2a 3d
       0.05535045 -0.3670382 0.0036068768 0.041548517
000140 fc b3 fc 3e 0b 46 be b9 0a 76 71 3d d6 f9 06 be
       0.49356067 -0.0003629181 0.05895046 -0.13181242
000150 a8 80 38 3f 93 0d 83 bd 57 63 cd be 55 6f 04 be
       0.72071314 -0.063990735 -0.40114853 -0.12933095
000160 d2 89 d9 be 5f e9 f8 3d 70 9f b5 bd 3b e1 0a 3f
       -0.4248796 0.12153887 -0.08868301 0.54249924
000170 46 07 10 3f 0c 63 a5 bc 5d a0 cc bd 5f e7 d0 bc
       0.562611 -0.02018883 -0.09991524 -0.025500951
000180 40 2b a4 be fb ed 07 bd 7f f2 f3 3e bd 5f 0f 3f
       -0.32064247 -0.03318594 0.47645947 0.5600546
000190 64 27 f5 bd 06 91 9e ba 86 81 ff 3d ed 7f 28 bf
       -0.11970404 -0.0012097664 0.124758765 -0.658202
0001a0 3e 85 88 bd e4 f1 19 bd ef aa 03 be 88 06 ad bd
       -0.06666039 -0.0375842 -0.12858175 -0.08448511
0001b0 cf 62 0e bf 64 b7 10 3e 41 c3 68 3d 50 03 81 3e
       -0.5561952 0.14132458 0.056826834 0.2519784
0001c0 df 52 ad 3d 83 6a 1e bf 84 f0 89 bd 70 f8 69 3d
       0.08463072 -0.61881274 -0.06735328 0.057121694
0001d0 21 80 82 3d 5c 71 7d 3e 5a 8b 0d 3e 10 b0 cc 3d
       0.06372095 0.24750274 0.1382269 0.09994519
0001e0 df ba b8 bd 72 25 29 bf 7f 26 03 be fb d5 30 bf
       -0.09020018 -0.6607276 -0.12807654 -0.6907651
0001f0 56 5e 62 3d c4 8b 03 be e7 6d 0b 3e 53 5c e7 be
       0.055265747 -0.12846285 0.13616143 -0.45187625
000200 d4 0e 85 3d 04 98 a6 bb cb 44 26 bf 92 bc 81 bd
       0.06496969 -0.0050840396 -0.6494872 -0.06334795
000210 a9 06 72 bd 14 88 02 be 12 07 2c bf 9c d0 ea bd
       -0.059088383 -0.12747222 -0.6719829 -0.1146557
000220 71 7c e8 be 91 0e 8b 3d 3d ce 10 bf 5e 90 81 bc
       -0.4540744 0.06789888 -0.56564695 -0.01581591
000230 f5 a4 99 3b 9b 7c 13 bf b7 57 09 bf e8 17 f1 3d
       0.004688854 -0.5761201 -0.5364947 0.11772138
000240 36 05 85 3d 2c 76 86 bd e8 f3 00 bf 57 12 8c bd
       0.064951345 -0.06565508 -0.5037217 -0.068394355
000250 72 92 f3 be a3 87 ee be 5f 17 80 bc 3f 18 0f be
       -0.47572666 -0.46587858 -0.015636144 -0.13974093
000260 7c 0b 34 3d 6d 14 19 3f 9e 4d bd 3d 85 75 a4 3d
       0.043956265 0.5979679 0.0924332 0.080302276
000270 6f 38 f0 bd 9b 7b 5d 3d cb 0c 22 bf d5 81 98 bd
       -0.11729514 0.054072957 -0.6330077 -0.074466385
000280 0c 9f 96 3d 60 68 95 be 75 1d a7 bd d7 39 3b bf
       0.073545545 -0.29181194 -0.08159915 -0.7313513
000290 fd c6 cf bd 17 3e ba 3c 7f 05 11 3d a8 3d 11 bd
       -0.10145376 0.022734685 0.035405632 -0.03545919
0002a0 f8 ed 83 3c 6e fd d5 bd 2a bc d4 bd 81 1e 2f 3f
       0.016104683 -0.104487285 -0.10387452 0.6840592
0002b0 03 2c 15 bd a9 5e 1e bf 9a 25 16 bd 51 60 0d be
       -0.036418926 -0.6186319 -0.036656953 -0.13806273
0002c0 5b 3a 8c bd 12 37 06 3f b4 62 e4 bd 75 65 d2 bd
       -0.06847068 0.5242778 -0.111516386 -0.10273258
0002d0 e8 9b f0 be 74 01 9d 3d 86 79 05 3c 97 98 a6 bd
       -0.46993947 0.07666293 0.008146649 -0.08134573
0002e0 93 75 02 bf dd 8c c2 3d c2 ff 0a 3f 26 13 88 bd
       -0.50960654 0.09499524 0.54296505 -0.06644277
0002f0 fe 76 f5 3e 5a 7a 10 3e 52 42 e9 ba fb 34 2c bf
       0.47942346 0.14109173 -0.0017796254 -0.6726834
000300 87 1e 31 bf 06 f4 a3 3b bf bb d8 3d c8 67 a8 bd
       -0.69187206 0.005003455 0.10582685 -0.0822292
000310 6c 87 22 3f 66 98 d7 bd f9 52 1c bf 45 89 2f bf
       0.6348789 -0.105271146 -0.61064106 -0.6856883
000320 6a 5e 06 3d 0c 92 20 bd 16 6e 0d bf e9 fa e7 be
       0.032804884 -0.03920178 -0.552461 -0.45308617
000330 44 a5 27 3d 52 99 f6 bd 7d 13 85 3d 8f 10 15 3d
       0.040929094 -0.12040962 0.06497858 0.036392745
000340 56 98 12 3f 0a b1 4f 3d 2b 86 be 3d b4 6a f8 be
       0.57263696 0.050705947 0.09302934 -0.48518908
000350 b0 90 86 3c aa 86 2d 3f 49 65 cb 3d de 11 d2 3d
       0.016426414 0.67783606 0.09931428 0.10257314
000360 12 8d 81 bd cb 1a 10 bf 7f 2f bb 3b a9 db 0f be
       -0.06325735 -0.5629088 0.005712449 -0.14048637
000370 1d 65 db bd df a4 ab be 0d 58 8f 3d 5d fe 21 3f
       -0.10712645 -0.33524224 0.06999216 0.6327875
000380 00 9a 2b 3a 76 cc 58 3d de cc c4 bc a3 05 a0 be
       0.000654608 0.052929364 -0.02402347 -0.312543
000390 1c d7 af 3d ba d9 19 3d 07 b4 24 3f 46 e2 08 3e
       0.08585951 0.037561156 0.643372 0.13367566
0003a0 5a 0a 96 3d 46 6e e3 bd 56 56 08 3f 78 1c 8c bd
       0.07326193 -0.11105017 0.5325674 -0.068413675
0003b0 79 15 b0 be b6 5d d5 bd 1d 5b 0a bf 16 1d 47 3d
       -0.34391382 -0.104182646 -0.5404528 0.048611723
0003c0 f1 21 8d bd a2 f6 36 3f fa 05 f6 3e 28 ae 69 bc
       -0.068912394 0.7147008 0.48051435 -0.0142627135
0003d0 6d 67 9e 3d ac 5f 96 bd 89 73 d1 be 65 c3 2a bd
       0.07734571 -0.07342467 -0.4090846 -0.04169025
0003e0 f7 5d 0e 3f 66 f8 f1 3e ba 3c 9d bc 1c 4a 09 3d
       0.5561213 0.47259825 -0.019193996 0.03351794
0003f0 9f 3c 0b 3e 99 56 dd be 87 bf bc 3d c5 62 c8 3d
       0.13597344 -0.4323013 0.092162184 0.09784464

bias f4 [9]
000000 25 9a 45 39 a0 f5 3d b9 d3 b8 88 b8 b4 6e 1a b9
       0.00018844807 -0.00018115947 -6.5194115e-05 -0.00014727825
000010 f7 8a 10 39 68 06 4f 38 9a 61 0e b8 39 98 2b 38
       0.00013784679 4.9358612e-05 -3.3946337e-05 4.0911345e-05
000020 ab 87 84 37
       1.5798802e-05

weight f4 [50]
000000 00 00 80 3f 00 00 80 3f 65 87 56 3f 3a b4 0c 3f
       1.0 1.0 0.83800346 0.54962504
000010 00 00 80 3f 00 00 80 3f 00 00 80 3f 00 00 80 3f
       1.0 1.0 1.0 1.0
000020 ba 6f cd 3e 00 00 80 3f 00 00 80 3f 3d 77 9c 3f
       0.40124303 1.0 1.0 1.2223889
000030 00 00 80 3f cf 59 cd 3e 00 00 80 3f 00 00 80 3f
       1.0 0.4010758 1.0 1.0
000040 00 00 80 3f ad 55 b5 3f 00 00 80 3f 00 00 80 3f
       1.0 1.4166771 1.0 1.0
000050 00 00 80 3f b5 f2 2a 3f 00 00 80 3f 38 b0 cc 3e
       1.0 0.6677659 1.0 0.39978194
000060 00 00 80 3f 00 00 80 3f 00 00 80 3f 42 59 2c 3f
       1.0 1.0 1.0 0.67323697
000070 00 00 80 3f 00 00 80 3f ea db cc 3e 00 00 80 3f
       1.0 1.0 0.4001153 1.0
000080 00 00 80 3f 00 00 80 3f 93 08 cd 3e 00 00 80 3f
       1.0 1.0 0.40045604 1.0
000090 ba 1f 7e 3f 00 00 80 3f f1 1b 3d 3f 00 00 80 3f
       0.9926716 1.0 0.7387076 1.0
0000a0 00 00 80 3f be 48 cd 3e 76 f3 ce 3e 00 00 80 3f
       1.0 0.4009456 0.4042012 1.0
0000b0 00 00 80 3f 00 00 80 3f 72 2b 76 3f 00 00 80 3f
       1.0 1.0 0.9616004 1.0
0000c0 a5 fc cc 3e 73 98 cd 3e
       0.40036502 0.40155372

bias f4 [50]
000000 00 00 00 00 00 00 00 00 e7 7e d0 be 1e 5e 2b bf
       0.0 0.0 -0.4072182 -0.66940486
000010 00 00 00 00 00 00 00 00 00 00 00 00 00 00 00 00
       0.0 0.0 0.0 0.0
000020 b0 bd 19 bf 00 00 00 00 00 00 00 00 3a 1b a8 be
       -0.60055065 0.0 0.0 -0.32833272
000030 00 00 00 00 af bd 19 bf 00 00 00 00 00 00 00 00
       0.0 -0.6005506 0.0 0.0
000040 00 00 00 00 9c 43 be be 00 00 00 00 00 00 00 00
       0.0 -0.37160957 0.0 0.0
000050 00 00 00 00 c2 ee 2b bf 00 00 00 00 af bd 19 bf
       0.0 -0.6716119 0.0 -0.6005506
000060 00 00 00 00 00 00 00 00 00 00 00 00 71 aa 2a bf
       0.0 0.0 0.0 -0.6666632
000070 00 00 00 00 00 00 00 00 ae bd 19 bf 00 00 00 00
       0.0 0.0 -0.60055053 0.0
000080 00 00 00 00 00 00 00 00 ad bd 19 bf 00 00 00 00
       0.0 0.0 -0.6005505 0.0
000090 12 90 23 bf 00 00 00 00 bf 6b 22 bf 00 00 00 00
       -0.6389171 0.0 -0.6344566 0.0
0000a0 00 00 00 00 ac bd 19 bf ae bd 19 bf 00 00 00 00
       0.0 -0.6005504 -0.60055053 0.0
0000b0 00 00 00 00 00 00 00 00 50 9f 08 bf 00 00 00 00
       0.0 0.0 -0.5336809 0.0
0000c0 ae bd 19 bf b1 bd 19 bf
       -0.60055053 -0.6005507

running_mean f4 [50]
000000 cc 53 8e bd 7c a2 91 be f1 1b 17 3f bc f6 26 be
       -0.06949577 -0.28444278 0.5902701 -0.16305059
000010 1a 38 e8 3e fc 0c 5a 3c 6c 26 dc 3d 84 e7 8d 3e
       0.45355302 0.01330876 0.10749516 0.27715695
000020 21 85 32 3e 5c 26 bc 3d 3c 0f 6d 3e 4a 6a a1 bd
       0.17433597 0.09187004 0.23150343 -0.07881601
000030 bc df a3 bc bb ed dc be 7a 26 71 3e fc 7e 87 be
       -0.020004146 -0.43150124 0.23549834 -0.2646407
000040 ba 1e 61 3e 1b 04 7d 3f 8c bb 06 be fd e7 57 be
       0.21984378 0.9883439 -0.13157481 -0.2108459
000050 e0 ef 35 be bc 21 39 bf 92 8f a3 3e b2 6c 87 bf
       -0.17767286 -0.723171 0.31945473 -1.0580046
000060 7c 37 77 be ac 85 b8 3e 76 31 32 3e c4 0a 82 be
       -0.2414226 0.36039484 0.1740168 -0.2539884
000070 8c e3 3e 3d fc ac 41 3b e0 87 46 be 9c b8 b6 3c
       0.046603724 0.002955257 -0.1938777 0.022304825
000080 1c 6a 45 3e 64 3e 94 3d 52 75 8a bf 34 d0 08 3e
       0.19278759 0.072384626 -1.0817053 0.13360673
000090 a8 52 7b 3f da bc a3 3e dc 68 9c bf fe 5a 92 be
       0.98173 0.3198002 -1.22195 -0.28585047
0000a0 aa cf 20 3e ea a8 e1 be 08 b2 7a bf dc 9f c6 bd
       0.15704218 -0.44074184 -0.97927904 -0.096984595
0000b0 dc 1a d2 bd 4a 54 8d 3e 80 c9 76 3e fa 62 d0 3e
       -0.10259029 0.2760337 0.24100304 0.40700513
0000c0 1c 54 70 bf 4c 16 69 3e
       -0.9387834 0.22762412

running_var f4 [50]
000000 04 00 00 00 95 90 10 28 04 00 00 00 04 00 00 00
       6e-45 8.024957e-15 6e-45 6e-45
000010 cd c8 c8 28 04 00 00 00 04 00 00 00 04 00 00 00
       2.2291544e-14 6e-45 6e-45 6e-45
000020 85 80 80 25 04 00 00 00 04 00 00 00 04 00 00 00
       2.229155e-16 6e-45 6e-45 6e-45
000030 04 00 00 00 95 90 10 29 95 90 10 27 95 90 10 28
       6e-45 3.2099828e-14 2.0062393e-15 8.024957e-15
000040 95 90 10 27 85 80 80 27 04 00 00 00 95 90 10 27
       2.0062393e-15 3.566648e-15 6e-45 2.0062393e-15
000050 95 90 10 27 85 80 80 27 04 00 00 00 85 80 80 29
       2.0062393e-15 3.566648e-15 6e-45 5.7066365e-14
000060 c9 c4 44 28 04 00 00 00 95 90 10 27 85 80 80 26
       1.0922857e-14 6e-45 2.0062393e-15 8.91662e-16
000070 04 00 00 00 04 00 00 00 85 80 80 26 04 00 00 00
       6e-45 6e-45 8.91662e-16 6e-45
000080 04 00 00 00 04 00 00 00 85 80 80 28 04 00 00 00
       6e-45 6e-45 1.4266591e-14 6e-45
000090 85 80 80 28 85 80 80 26 85 80 80 28 85 80 80 27
       1.4266591e-14 8.91662e-16 1.4266591e-14 3.566648e-15
0000a0 85 80 80 26 95 90 10 28 95 90 10 29 04 00 00 00
       8.91662e-16 8.024957e-15 3.2099828e-14 6e-45
0000b0 04 00 00 00 85 80 80 27 95 90 10 27 85 80 80 26
       6e-45 3.566648e-15 2.0062393e-15 8.91662e-16
0000c0 85 80 80 27 95 90 10 27
       3.566648e-15 2.0062393e-15

weight f4 [50, 4]
000000 bc ef f7 be c0 5e 53 3f 3e cf b8 3e 2e 6e 13 bf
       -0.4842509 0.8256645 0.36095613 -0.57589996
000010 0f d7 b3 3d ce e2 bd bf 74 2c d0 3e ea d9 44 3e
       0.087812535 -1.483484 0.40658915 0.19223753
000020 39 d9 7e 3e e6 87 18 3f c5 73 ae 3e b7 0e 21 3f
       0.24887551 0.59582365 0.340727 0.6291308
000030 56 4e c2 be e9 7b 2f 3f 44 6a 66 bf a8 8e 2c be
       -0.3795039 0.68548447 -0.900059 -0.16851294
000040 ce 54 a8 bf 9c 42 17 3f fd 88 2e 3e 4a e1 c8 3d
       -1.315088 0.5908601 0.17044444 0.098085955
000050 39 8a 3c 3f 74 b8 8a 3e 6a 27 3c bf 31 ee b9 bd
       0.7364841 0.27093852 -0.7349764 -0.090786345
000060 be a1 45 bf 2b 9b 4d 3d b2 69 43 3f 23 6d 4a 3d
       -0.77199924 0.050196808 0.76333153 0.049420487
000070 ec 6a da be e5 c1 5f bf 68 27 89 bf cd e6 ee 3e
       -0.426597 -0.87405235 -1.0715151 0.46660462
000080 60 c8 f7 be d9 f0 7c 3f 0c 36 42 bf 3f b1 91 3e
       -0.48395061 0.98805004 -0.7586372 0.2845554
000090 c9 9e ac 3f a7 11 8e be 07 f9 12 be 57 c2 16 bf
       1.3485957 -0.27747843 -0.14352809 -0.5889029
0000a0 91 02 80 3e a2 50 05 3f 8a 28 67 bf c7 aa 3c 3e
       0.25001958 0.5207616 -0.9029623 0.18424521
0000b0 0c 48 56 bf 9f dd 7c bf 4a d4 9f 3e 05 5c 57 3f
       -0.83703685 -0.98775667 0.3121665 0.84124786
0000c0 83 0e 61 3f 65 b9 ef 3e 5b 33 6c bf 56 f2 7b 3f
       0.8791277 0.46821132 -0.9226586 0.9841665
0000d0 ca 2e bb bf 51 e5 50 b9 c5 a2 81 bd 61 3f 2e 3e
       -1.4623654 -0.00019921853 -0.06329874 0.17016365
0000e0 22 fd b9 bf 5d 8b 05 bf 7f 2e 1b 3f 92 f1 a8 3d
       -1.4530375 -0.52165776 0.6061782 0.08249201
0000f0 11 13 5b bf 6b b2 df bd 01 f8 48 3f db 5e 56 be
       -0.8557597 -0.109227024 0.78503424 -0.20934622
000100 bf a2 29 bf 8d 8a 97 bf f1 92 72 3e 36 df ec 3e
       -0.66263956 -1.1839157 0.23688866 0.46264046
000110 b3 f4 ba 3e ea 7c 46 bf ff 92 f7 bd 2c 39 ad 3d
       0.36514816 -0.77534354 -0.12088584 0.0845817
000120 dc 06 70 3f 0a 40 d7 3f ca 89 0a bf 7b 79 38 3f
       0.93760467 1.6816418 -0.541165 0.72060364
000130 c9 5a c3 3e 63 d4 2a bf c3 df ce bf 87 9a aa be
       0.381552 -0.66730326 -1.6162037 -0.3332102
000140 00 9b 61 be 84 f3 76 be 60 69 b0 3f dc 1e c1 3e
       -0.22031784 -0.24116331 1.3782158 0.37718856
000150 f3 43 8e bf c6 19 98 be af bf d5 be 88 5d 57 bf
       -1.1114486 -0.29707164 -0.41747805 -0.8412709
000160 15 b9 e7 3e 21 5b 17 3f 47 a8 09 3f 20 77 37 3f
       0.45258394 0.59123427 0.53772396 0.71666145
000170 33 27 a7 be 72 9c 9c 3f f6 d4 c0 be 23 62 a4 be
       -0.32647094 1.2235243 -0.37662476 -0.32106122
000180 bb 38 80 3e b3 29 ae bf c3 bb 04 bf 86 44 87 bd
       0.25043282 -1.3606476 -0.51849 -0.06604867
000190 cb 28 55 bf 36 e7 8a 3f 17 f5 07 be 7d 6b 20 3f
       -0.8326537 1.085181 -0.13277088 0.62664014
0001a0 ee 7c 85 bf 0e e5 0f be 15 81 15 bf 25 e4 7b 3f
       -1.042875 -0.14052221 -0.5840009 0.98394996
0001b0 84 ca ae be bb 5c 74 bf 8f 2a 36 3c 66 a1 d4 be
       -0.34138882 -0.95453995 0.011118545 -0.41529387
0001c0 72 44 8d 3e 39 53 38 bf 39 d9 23 be e9 52 a8 3c
       0.27591282 -0.7200199 -0.16000833 0.020547347
0001d0 3e 58 63 bf 39 58 0d 3e 2e 3d d1 be 7b d7 b4 be
       -0.8880652 0.13803186 -0.4086699 -0.3532065
0001e0 71 4d c0 3e 4a 81 79 3f b8 21 10 bf 00 f8 8e 3e
       0.37559083 0.97462904 -0.5630145 0.27923584
0001f0 6f 4a 97 be e6 66 c2 be 6c b5 a6 3f 16 7f ad 3e
       -0.29548976 -0.3796913 1.3024116 0.3388602
000200 cf a7 2e be 12 88 b3 3c df ea 7d 3f e4 cf 5e 3f
       -0.17056201 0.02191547 0.9918651 0.87035966
000210 db 78 38 bf 64 45 aa 3d 4d 16 75 3f e7 50 06 bf
       -0.7205941 0.083140165 0.95737153 -0.524672
000220 86 93 54 bf a5 7d 72 bf c4 10 f1 bd 67 ad fa 3c
       -0.830376 -0.9472297 -0.11770776 0.030600263
000230 1a c5 f1 be 6a f3 b5 3f f2 b9 36 bd 20 7d a9 be
       -0.4722069 1.4214909 -0.044610925 -0.33103275
000240 44 be 75 3f 4b b9 16 be f9 32 0e 3e 8b ed a2 be
       0.9599345 -0.14719121 0.13886632 -0.31821856
000250 08 cd a4 bf 0c 43 ee 3e cd 6f 0c 3f c2 5e e0 bd
       -1.287507 0.46535528 0.54858094 -0.109555736
000260 17 0b fa 3d e6 c0 e8 3e 51 a7 a3 bf 87 52 8e be
       0.122091465 0.4545967 -1.2785436 -0.27797338
000270 73 a9 79 bf 13 3d aa 3e c9 63 57 3f de b1 5d bf
       -0.97524184 0.3324972 0.84136635 -0.8659953
000280 67 d0 ab bf 7c 2d 21 bf 3b 3d 85 3e 91 61 0a bf
       -1.3422974 -0.6296003 0.26023278 -0.54055125
000290 b8 f2 8d be 18 b4 58 3f 71 73 eb 3e 0d 44 bf bc
       -0.27724242 0.846498 0.45986512 -0.023347879
0002a0 a2 5a 8b bf 31 f2 00 3f 40 67 d7 bd 5c 5c 47 3e
       -1.0887034 0.50369555 -0.1051774 0.19468826
0002b0 62 35 09 3f f2 0b fb 3e 65 09 11 bd af c9 d6 3e
       0.5359708 0.4903255 -0.03540935 0.41950747
0002c0 33 89 e1 3e ce ab 94 be 0e a4 3e bf 4a ff 2a bf
       0.44049987 -0.29037327 -0.7446908 -0.6679579
0002d0 f8 8f d0 3e 03 2d c6 bf dd 31 07 3f b0 d6 19 3e
       0.4073484 -1.5482486 0.5281046 0.15023303
0002e0 1c 23 2b be 7a 83 4c 3f 00 05 d7 be 08 b3 11 3f
       -0.16712612 0.7988812 -0.41996002 0.56913805
0002f0 64 c1 29 bf cf 3f 47 3f d3 86 28 3e f7 9b 38 be
       -0.66310716 0.7783174 0.16457681 -0.18028246
000300 0a 79 cd be 07 f0 fc be ec be b5 be 5f ff 46 bf
       -0.40131408 -0.49401876 -0.35497224 -0.77733415
000310 0d 2e ec be f6 2a 61 bf 8a 46 d6 3e 69 e4 0a be
       -0.46128884 -0.8795618 0.41850692 -0.13563694

bias f4 [50]
000000 dc af ef 3b 70 e7 b2 be b2 ef 05 3f 19 16 f0 be
       0.0073146652 -0.34942198 0.5231887 -0.4689186
000010 9d 75 df be f7 e4 39 3f 47 ed 1a bf 43 ca b1 bd
       -0.4364442 0.72615 -0.60518306 -0.086811565
000020 dc 7c b9 3d f7 a9 5d bf 5e 99 93 3e 2d 4d c2 3d
       0.09057018 -0.8658747 0.28827947 0.09487376
000030 ad 5c 41 3f 56 e0 2b 3f 41 41 cb 3e c4 8d df be
       0.75532037 0.67139184 0.39698222 -0.43662846
000040 9c 2e 99 3f f4 8e fa be 3c d6 67 3f bf e3 01 3e
       1.1967349 -0.4893719 0.9056127 0.12684534
000050 ab 7d a4 3f 63 85 a8 bf b4 ea 8d 3e e3 a6 41 be
       1.2850851 -1.3165706 0.27718127 -0.18911318
000060 51 56 3a bf b0 5c ae 3e 5c 6e 9a 3f 09 87 46 bf
       -0.7278796 0.3405509 1.2064929 -0.775498
000070 5c c4 bc 3f 59 42 61 bf 45 46 4a 3f 32 bd 0c bf
       1.4747424 -0.87991863 0.7901347 -0.5497619
000080 22 4e c8 bd 1c 75 88 bf 5c 89 b1 bd 80 da 86 be
       -0.09780528 -1.0660739 -0.08668777 -0.26338577
000090 56 93 cb 3d d7 26 66 bf dd 68 b1 3e 04 ac ef bc
       0.099402115 -0.89903015 0.34650317 -0.029256828
0000a0 70 87 0b be b1 b0 b9 be e5 df 43 3e f1 16 5d be
       -0.13625884 -0.36267617 0.19128378 -0.21590783
0000b0 a0 cd 0f 3f 20 c3 0c 3f 2e 86 90 3f 88 c2 1c bf
       0.56173134 0.5498524 1.1290948 -0.6123433
0000c0 67 1f 20 3f 0c 7b aa be
       0.62547916 -0.33297002

weight f4 [9, 50]
000000 dd 83 91 be 43 4a d5 be 8d 40 69 be c1 19 91 be
       -0.28420916 -0.4165822 -0.2277853 -0.2833996
000010 f9 84 9d bc 1f e4 5d bd ab f7 af be 96 57 34 3e
       -0.019228445 -0.05417263 -0.34368643 0.17611536
000020 c4 a6 b5 be 04 17 1f be 15 11 eb bd 7b 72 73 be
       -0.35478795 -0.15536124 -0.114778675 -0.2377414
000030 c4 fa b9 be 51 e7 0f 3e 4c 8b b7 bc 32 7a f8 bd
       -0.3632413 0.14053084 -0.02240529 -0.12132682
000040 d6 00 86 3d bd 75 04 3e 6c 9d 12 bf 67 78 51 bd
       0.06543128 0.12935539 -0.57271457 -0.051140215
000050 37 72 18 be 06 94 44 be b8 71 86 be 69 5e e0 be
       -0.1488732 -0.19197091 -0.26258636 -0.4382203
000060 33 cc 5a be 14 f7 4c 3e e3 0d 4b be 85 d5 5b 3c
       -0.21366958 0.20016128 -0.19829516 0.013417606
000070 a9 c0 50 3e 07 a8 70 be 81 9f a7 be 7d c8 68 bd
       0.20385994 -0.23501597 -0.3273888 -0.056831826
000080 c8 83 f2 be 82 17 4e 3e 99 b8 ba be 78 00 d0 be
       -0.47366166 0.20126155 -0.36468962 -0.40625358
000090 27 41 44 3e 6e 98 3e 3e f5 21 28 be 6a 45 7b 3c
       0.19165479 0.18612835 -0.16419204 0.015336374
0000a0 60 ea 00 3e cf b0 ac be 98 db bf be f1 c5 0c bf
       0.12589407 -0.33728644 -0.37472224 -0.54989535
0000b0 83 28 92 3e 48 0e be be 9e 06 a3 be 37 3a bb bc
       0.28546533 -0.3712027 -0.31840986 -0.022854907
0000c0 ec 9f 61 3e 0d c6 c8 be 90 7f 78 3e 8d cf 24 be
       0.22033662 -0.392136 0.24267411 -0.160948
0000d0 ce 7d 50 be 6f 09 82 3d a9 29 0c 3f 05 ed af be
       -0.2036049 0.063494556 0.5475107 -0.3436052
0000e0 78 b8 47 3e 85 22 d7 be f2 c6 25 be 23 24 01 be
       0.19503963 -0.42018524 -0.16189173 -0.12611441
0000f0 c8 8f 30 3e da 0e 89 3d c5 28 39 3d cb cb 22 be
       0.17242348 0.06692286 0.045204896 -0.15898053
000100 7e 7a 49 3e dd 4f 3d 3e 80 e2 8c 3d 4e 88 8d be
       0.19675633 0.18487497 0.06879139 -0.27643055
000110 3a 80 81 3e 95 f8 e7 bd 2c a3 42 bd 7d e6 37 bd
       0.25293142 -0.1132671 -0.047518894 -0.044897545
000120 48 b2 1a be a9 99 8b 3b 0f 46 4c 3c 34 a6 25 3e
       -0.15107071 0.004260261 0.012467875 0.16176683
000130 16 46 75 bd 02 e3 4d be 2c ba ac be 59 2c 1f be
       -0.059881292 -0.20106128 -0.33735788 -0.15544261
000140 2a 3f af 3e 9f 1b 18 be 7d 40 85 3e ad fa c4 bd
       0.34227878 -0.14854287 0.26025763 -0.09618125
000150 57 ee 86 bd da 03 aa 3e 34 8d e9 bd 2d bf db bc
       -0.065884285 0.33206064 -0.114038855 -0.026824558
000160 74 dc 4a be cc c9 36 3e b1 7e e6 bd f7 61 d1 3d
       -0.19810659 0.17850417 -0.11254633 0.102237634
000170 cd 90 81 3e 15 05 14 3f 05 2c bf be eb 61 2e be
       0.25305787 0.57820255 -0.37338272 -0.1702954
000180 04 18 b3 3c 92 8f 1d 3e 4c 4c f0 be 0f a8 c1 3d
       0.021862037 0.15386799 -0.4693321 0.09455883
000190 13 dc 34 be 37 70 88 3d f6 32 c6 be 3f e9 d5 3c
       -0.17662077 0.06662028 -0.38710755 0.026112197
0001a0 27 c6 b1 3e 95 2d 69 bb f5 50 0d be 97 b4 53 3e
       0.3472149 -0.0035580148 -0.13800414 0.20674358
0001b0 ff fb 17 3e ed d1 15 3e 66 7b 2d be c7 db f2 3d
       0.14842223 0.14630862 -0.16941604 0.118583255
0001c0 73 b9 4a bd 8b b4 6b 3e f2 dd ad 3e ee 8c 10 3e
       -0.049493264 0.2301809 0.33958393 0.1411626
0001d0 b2 ac 12 be 2e 79 17 3e 55 35 23 3d b6 fe 03 3e
       -0.1432369 0.1479232 0.039845783 0.12890133
0001e0 73 7f 5f 3d 39 17 d3 bd 51 4d ef be 0e 94 05 be
       0.054564904 -0.10307164 -0.46738675 -0.1304476
0001f0 cb d4 8a 3d 34 c9 0e be da 1f 8b 3e ac 98 42 3e
       0.06778868 -0.1394394 0.27172738 0.19003552
000200 ae b8 57 3d 9a 63 ce 3b e4 56 04 3d 71 4f 42 3d
       0.05266636 0.0062984945 0.032309428 0.047439042
000210 d5 40 e7 bd 38 8d b3 bc 54 7b 39 bd 79 ea 10 3d
       -0.112916626 -0.021917924 -0.04528363 0.03537986
000220 bd e8 01 bd 72 b9 0e be ab 99 23 bd 74 1d 45 bd
       -0.031716097 -0.1393793 -0.03994147 -0.04812379
000230 29 6b 33 bc ac 8a 12 bf cf 5a 87 3e 23 2e c8 be
       -0.010950842 -0.57242846 0.2643647 -0.390977
000240 e2 ec 2e 3f fe 0b 2e 3d a4 8d 4e bb ac ec 49 3e
       0.68330204 0.042491905 -0.003151753 0.1971919
000250 0f 85 36 3e 96 14 0d bc ca a6 95 be b4 44 97 be
       0.17824195 -0.008610865 -0.29228812 -0.29544604
000260 a0 ec 20 be cd d3 c7 be 00 27 1c be ea f9 82 bd
       -0.15715265 -0.3902878 -0.15249252 -0.063953236
000270 36 34 5d be a9 2f 38 3e 9e 37 8d be 7b 85 8d bc
       -0.21601948 0.17986931 -0.27581495 -0.017275563
000280 b3 f6 84 be a7 02 30 be e8 57 66 be c1 4d 8f 3e
       -0.25969467 -0.17188512 -0.22494471 0.2798901
000290 1a 63 af 3d 4e d9 ae bd 33 35 b5 bc 48 07 9f 3e
       0.08563824 -0.08537541 -0.022120094 0.31060243
0002a0 6d 1a 1b bf db ac 83 be dd 5a 66 3c 35 e1 0f be
       -0.605872 -0.25717816 0.014059749 -0.14050753
0002b0 db 75 81 bd b5 00 9c be 6b 61 4e be 26 04 17 3d
       -0.06321307 -0.3046929 -0.2015435 0.03686919
0002c0 d8 56 af bd 80 9c d7 3d 32 d3 d8 3c 1f 98 d8 bd
       -0.08561486 0.10527897 0.026467893 -0.1057589
0002d0 c5 61 b4 be b8 a3 1b bd 7a 5c 07 bf 99 c2 5d 3d
       -0.35230842 -0.03799793 -0.52875483 0.05414066
0002e0 4f 6c b1 be 1b 58 11 bf 09 d4 a7 3e 7f 61 15 3e
       -0.34652945 -0.56775063 0.32778957 0.14587973
0002f0 6a e9 7e be 98 cb 4a be b2 cc 1c 3e e5 4c 8d be
       -0.24893728 -0.19804227 0.1531246 -0.27597728
000300 17 2b a2 be 6e c2 b4 be 07 c2 c2 3e b5 1b b2 be
       -0.316735 -0.35304588 0.38038656 -0.34786764
000310 55 94 c0 be a2 9d 9e 3c b3 c1 08 3e b4 8c 28 be
       -0.37613168 0.019362275 0.1335514 -0.16459924
000320 ae 00 0c 3e 2e 43 84 3c 98 31 58 be 73 ad e1 3c
       0.13672134 0.016145315 -0.21112669 0.027548527
000330 91 98 aa 3e 97 82 9e be 07 50 eb 3d f8 5a 36 be
       0.33319524 -0.30959007 0.114898734 -0.1780814
000340 92 b9 7e be df e4 37 bd 70 3e 33 3e 93 8a 91 3d
       -0.24875477 -0.044896003 0.17504287 0.07106509
000350 05 6c b9 3d 17 0a d1 bc 98 0e 7c 3e d6 a0 12 3e
       0.09053806 -0.025517507 0.24614942 0.14319167
000360 9f d0 55 bd aa eb 8b be 27 3f b7 3e 2e 46 cd bb
       -0.05220091 -0.27328235 0.3579037 -0.0062644696
000370 b3 93 88 3a 54 b3 22 3e f9 62 98 be bb 85 e7 3d
       0.0010419994 0.15888721 -0.2976301 0.11304804
000380 f7 9b 30 3e 44 83 96 3d 62 0e 37 3e 24 29 52 be
       0.17246996 0.07349256 0.1787658 -0.20523506
000390 8f 8d 7c be e6 14 58 be fc 27 57 3e 29 02 ab be
       -0.24663375 -0.21101722 0.21011347 -0.33400086
0003a0 49 62 27 3e b6 93 42 be f8 d4 03 3d 9a 29 4c 3e
       0.16346087 -0.1900166 0.032185525 0.19937745
0003b0 d5 6c 83 be 49 d4 4b be 7c 35 10 3b fc d3 02 3e
       -0.2566897 -0.19905199 0.0022004535 0.12776178
0003c0 4f c7 17 3e 8c d9 a4 3e bf a7 88 3e 19 e0 0c 3f
       0.14822124 0.32197225 0.2669048 0.55029446
0003d0 b7 ee 12 bf 92 52 29 be 51 17 53 bd d1 19 1e 3e
       -0.573955 -0.16535404 -0.051535908 0.15439536
0003e0 b0 d1 e4 be 8c 1a a4 3d 63 f8 71 be 8d 62 19 be
       -0.4469123 0.08012876 -0.23629908 -0.14979
0003f0 91 8f a1 bd 67 da 09 3e 86 fd 26 3e fa 33 34 be
       -0.07888711 0.1346222 0.16307649 -0.17597952

bias f4 [9]
000000 b6 b9 4b 39 9d 1e 43 b9 e4 3b 8a b8 0a 92 19 b9
       0.00019428771 -0.00018608054 -6.591508e-05 -0.00014645621
000010 00 4a 10 39 cd 4b 41 38 38 b1 35 b8 08 f1 4c 38
       0.00013760477 4.608538e-05 -4.331881e-05 4.8861868e-05
000020 2a b1 af 37
       2.0944124e-05

weight f4 [50]
000000 6f 2f 07 be 19 02 84 bd 41 63 39 be c6 07 32 bd
       -0.13201688 -0.064457126 -0.18104269 -0.043464445
000010 25 bb 2d 3e eb d9 5d be 39 d3 01 3e 41 4c 35 3e
       0.16965921 -0.2166516 0.12678231 0.1770487
000020 e3 1e 49 3e ce 52 ee be 23 52 8a be 0e ca c1 bd
       0.19640689 -0.4654755 -0.2701579 -0.09462367
000030 aa 9f 3c be 9c d0 9a 3d c8 a3 9c bd aa 27 c4 bd
       -0.18420282 0.0755932 -0.07648426 -0.09577878
000040 fa af 22 be 79 ed ad bd 55 55 4e be a4 b9 2b bc
       -0.15887442 -0.0849256 -0.20149739 -0.010481272
000050 77 8e 02 be 88 ab 07 be a2 2e 78 bd 92 4a ba 3a
       -0.12749659 -0.13249028 -0.060591348 0.0014212898
000060 fd c2 f4 bd f1 a2 f3 3e 81 bd af 3d f0 3c ad bd
       -0.119512536 0.47585252 0.08581067 -0.084588885
000070 e2 98 63 bd a3 92 be 3d 1a 0f 9c be 81 01 5a be
       -0.055565722 0.093053125 -0.30480272 -0.21289636
000080 86 cf 0c bd 76 09 df 3d e1 fd 96 bc da 5e 48 be
       -0.034377597 0.108904764 -0.018431606 -0.19567433
000090 86 d4 2c 3e 8d f8 3d be 80 42 15 3e f1 e0 ff 3d
       0.16877946 -0.18551846 0.14576149 0.12494076
0000a0 31 e0 21 be b7 ee 3a 3e f4 13 fb 3d 8a 42 dd 3d
       -0.15808178 0.18255125 0.12259665 0.10803707
0000b0 00 25 39 3e a7 c6 0c bd 07 35 3c 3d 0c 8c fc bd
       0.1808052 -0.034369137 0.04594901 -0.12331399
0000c0 b3 31 09 3e 01 20 21 be
       0.13397865 -0.15734865

bias f4 [50]
000000 b2 e2 51 bf 90 a1 8b bf 1f 89 84 bf 73 02 8b bf
       -0.81986535 -1.090868 -1.0354346 -1.0860122
000010 82 21 7e bf 0d cc 8e bf c8 50 53 bf 8f 32 83 bf
       -0.9926988 -1.1156021 -0.8254514 -1.0249804
000020 97 9a 8c bf 35 be 19 c0 dc 3c af bf 24 98 2a bf
       -1.0984677 -2.4022343 -1.3690448 -0.666384
000030 f1 10 99 bf 0b fb 29 bf c8 eb 74 bf 52 e3 3e bf
       -1.1958295 -0.66398686 -0.95672274 -0.74565613
000040 7c e5 93 bf 8b 6f 1f bf 86 12 87 bf 1b 46 3f bf
       -1.1554408 -0.62279576 -1.0552528 -0.7471635
000050 ec c8 6a bf c1 86 b0 bf 6a a1 8e bf 93 02 aa bf
       -0.9171283 -1.3791124 -1.114301 -1.3282036
000060 57 af 4c bf 0d ec 34 c0 9f 55 20 bf d4 08 5d bf
       -0.7995505 -2.8269074 -0.6263065 -0.86341596
000070 ac ea 2e bf 55 c3 1f bf 43 49 c1 bf a9 9a 93 bf
       -0.6832683 -0.6240743 -1.5100483 -1.1531574
000080 cd 0e 8e bf bd c3 49 bf b3 f1 20 bf 3b ed 86 bf
       -1.1098267 -0.788143 -0.62868804 -1.0541147
000090 6a e9 6d bf d6 7d 82 bf 85 a8 ad bf 22 10 54 bf
       -0.92934287 -1.0194652 -1.3567053 -0.82837117
0000a0 09 6d 73 bf eb c6 44 c0 5a 61 4a bf 40 82 2c bf
       -0.9508825 -3.074641 -0.79054797 -0.67386246
0000b0 b5 8d 85 bf 7e 73 72 bf c2 db 83 bf 71 de 83 bf
       -1.043387 -0.9470748 -1.030144 -1.0302259
0000c0 bf 5a 61 bf 0f c2 62 bf
       -0.8802909 -0.8857736

running_mean f4 [50]
000000 b0 e6 1e bd 52 90 b9 be 29 58 16 3f 8a e1 e8 be
       -0.03879422 -0.3624292 0.5872827 -0.45484573
000010 01 bb d0 be 1b 4d 3a 3f 5f 1a 1b bf bd 01 fe bc
       -0.40767673 0.72773904 -0.60587114 -0.031006688
000020 2a fb 1c 3e 14 7f 70 bf 9c 79 a8 3e 45 3a 29 3e
       0.15330186 -0.93943906 0.3290528 0.16526134
000030 8f a0 5e 3f 72 10 34 3f 2d 97 cc 3e 38 46 ee be
       0.8696374 0.70337594 0.39959088 -0.46537948
000040 7e e6 9c 3f 22 53 fd be 8c bf 80 3f c1 92 dd 3d
       1.2257841 -0.49477488 1.0058455 0.10819007
000050 5d e8 a5 3f 40 99 b1 bf a0 5f b0 3e fc 15 44 be
       1.2961537 -1.3874893 0.34447956 -0.19149011
000060 d1 e5 3f bf 73 b8 dc 3e a8 57 a9 3f 95 59 54 bf
       -0.74960047 0.43109474 1.3229876 -0.8294919
000070 a7 91 bb 3f 86 b1 65 bf aa 28 57 3f 48 ee 0a bf
       1.4653825 -0.89724004 0.84046423 -0.5426984
000080 28 6b da bc c2 55 90 bf ba 54 b6 bd 9b 4a 89 be
       -0.026662424 -1.1276171 -0.08902879 -0.26814732
000090 97 97 5b 3d 37 6f 66 bf 12 27 b2 3e 96 5c ee bd
       0.053611364 -0.9001345 0.34795433 -0.11638753
0000a0 00 25 45 be a2 bf b6 be 7d aa 6c 3e 3e 85 2e be
       -0.19252396 -0.3569308 0.23111911 -0.17043015
0000b0 22 ba ff 3e 0a c1 06 3f a4 a3 9a 3f 58 4b 1d bf
       0.49946696 0.52638304 1.2081189 -0.6144309
0000c0 44 c7 0c 3f 12 5c ba be
       0.54991555 -0.3639837

running_var f4 [50]
000000 1e 73 89 3f da 70 1b 40 33 40 0b 3f 27 8c b2 3f
       1.0738256 2.428763 0.54394835 1.3949021
000010 cf f6 03 40 6a 7f 98 3f 5d b1 9b 3f d5 3c 07 40
       2.061939 1.1913884 1.2163502 2.113088
000020 6a 06 e1 3f b4 8f ee 3f 47 9a 96 3f 6a 87 e8 3f
       1.7580082 1.8637605 1.1765832 1.8166325
000030 5b 68 f3 3f 65 cb 03 40 09 98 31 40 9f 13 b3 3f
       1.9016222 2.0592892 2.7749045 1.3990363
000040 8f 02 fa 3f a7 73 43 3f 60 fd 83 40 c9 b6 53 40
       1.9532031 0.76348346 4.1246796 3.3080313
000050 47 f2 02 40 0a f8 b6 3f b8 b0 57 3f 2c ad e1 3f
       2.0460374 1.4294446 0.84254026 1.7630973
000060 92 c1 10 40 84 5a ef 3f 6b 02 af 3f c2 ce 87 3f
       2.2618146 1.8699498 1.3672613 1.0609972
000070 ad e5 22 3f 5c 14 6a 3f 8c e6 b9 3f de 67 fc 3f
       0.6363171 0.91437316 1.4523482 1.9719198
000080 9d c2 84 3f f9 1d bf 3f e4 0c cf 3f 3e 46 12 40
       1.0371891 1.4931022 1.6175809 2.2855372
000090 ba 75 6a 3f f3 70 0b 40 ea de f0 3f ec 58 e8 3f
       0.91585886 2.1787689 1.8818028 1.8152137
0000a0 ea bd 10 40 04 4a 85 3f d2 5a b2 3f eb ad 08 3f
       2.2615914 1.0413213 1.3933966 0.5339038
0000b0 99 2f 5d 3f 52 8b 37 40 51 2a 59 3f 2c e8 89 3f
       0.86400753 2.8678784 0.84830195 1.0773978
0000c0 a9 d8 07 3f 16 81 99 3f
       0.5306497 1.1992519

weight f4 [50, 4]
000000 bb c7 0e 3e 7d 2c 04 3f da cd 4c 3f d0 f0 07 3e
       0.13943379 0.51630384 0.80001605 0.13275456
000010 b9 42 84 bd 6f 0d e0 3e 4d 4d 60 3f 78 70 fe bc
       -0.06458039 0.4376025 0.8761795 -0.031059489
000020 30 ad ed bc c1 8c fc 3e c8 5d 90 bf 7c ff 23 3f
       -0.029013246 0.49326137 -1.127862 0.64061713
000030 2c a2 15 3f 9d d5 10 3f eb 9b 90 3f ae 03 a0 3e
       0.5845058 0.5657595 1.1297582 0.31252807
000040 2f 5f f8 3e 45 83 84 bf 92 ed 25 be 13 8d 73 bf
       0.4851012 -1.035256 -0.16203907 -0.9513714
000050 e1 ab e3 bd dd b0 f7 3d a4 57 d0 bf 26 ff c8 3e
       -0.11116768 0.12094281 -1.6276746 0.39257163
000060 42 d5 89 bc 4b cc 21 3f 17 b5 80 3f eb 64 aa 3e
       -0.016825322 0.6320235 1.0055264 0.3328012
000070 76 70 e0 be d0 59 39 3f 66 ba 8b bf 62 44 92 bd
       -0.438358 0.7240267 -1.0916259 -0.07141949
000080 6e d2 6d 3e 44 ae 64 3b da 4e b6 bf 51 7a 3d 3f
       0.23224804 0.003489391 -1.4242814 0.74014765
000090 da 80 e9 3e 6f 47 89 bf f7 1c 21 3f ea 3f ad 3f
       0.45606118 -1.0724925 0.6293482 1.353513
0000a0 97 02 de be 6b 5d c7 bb 89 c8 ba bf e3 92 15 3f
       -0.4336135 -0.0060841343 -1.4592448 0.58427256
0000b0 41 a7 89 3e 48 f1 82 3f 30 44 9e 3e 77 37 d7 be
       0.26885417 1.0229883 0.30911398 -0.42034504
0000c0 d7 b4 af 3f 1a 1e f1 3e c5 f0 b0 bc 6b 48 9d be
       1.3727063 0.47093278 -0.021599183 -0.30719313
0000d0 21 4c d1 3e 40 22 d6 bd a6 f6 81 bf 85 4b b8 3e
       0.40878394 -0.104557514 -1.0153396 0.35995117
0000e0 89 54 a9 3d 1a 0b 4e 3f 2d 4e 33 bf 16 7e a1 bd
       0.08268077 0.8048569 -0.7004116 -0.07885377
0000f0 fe 14 1b 3d fa 64 35 bf 98 7a 7a 3f df ce 93 3b
       0.037861817 -0.70857203 0.97843313 0.004510745
000100 1c 22 b2 bd 02 34 33 3f ad eb ed be d9 77 e2 3d
       -0.08697912 0.7000123 -0.4646887 0.110580154
000110 0f 36 a7 bd df 1a 21 bf 29 7c 5b bf fe 53 1b 3f
       -0.08164608 -0.6293163 -0.8573633 0.60675037
000120 39 e2 85 3f 18 e0 b9 3e 95 8e 25 3f a4 1d 5e be
       1.0459663 0.36303782 0.6467069 -0.21690995
000130 16 71 e7 3d 6f da 2a bf 55 3c 63 bf 1f 18 03 bc
       0.11300866 -0.66739553 -0.88763934 -0.008001356
000140 c7 19 fc bd 3b 13 9b 3f 41 91 18 bf 5e 10 6b be
       -0.12309604 1.2115244 -0.5959664 -0.22955462
000150 21 21 10 bf 89 35 8c 3c 06 14 1c bf e2 81 44 3e
       -0.5630055 0.017115371 -0.60968053 0.19190171
000160 3b 51 d7 3e 00 3b 07 3f db 7a a5 3f 98 a3 4f bf
       0.4205416 0.528244 1.2928118 -0.81109
000170 fd 57 d7 3e 1a 5b ce 3e 9b 89 a4 bf 22 64 6d 3f
       0.42059317 0.4030388 -1.2854494 0.92730916
000180 f7 5c 42 3f d9 14 c6 be 67 9b 2d bf 56 df 88 3e
       0.75923103 -0.3868778 -0.6781525 0.26732892
000190 c0 2d ec 3e 3a b4 2e 3f 4a e1 49 bf 3b 15 9c 3e
       0.46128654 0.68243754 -0.7885939 0.30484948
0001a0 ec 4b f0 3e 2a 1f 4d 3e cc ba a1 bf ba c1 af 3e
       0.46932924 0.2003142 -1.2635131 0.3432749
0001b0 b5 fd 2d bf 76 a0 0e 3f 98 f9 96 bd 95 82 60 bf
       -0.6796525 0.55713594 -0.07371825 -0.8769925
0001c0 0f 3e 4b 3e 2a ac 34 3f d0 c8 4e bf 41 48 ee 3e
       0.19847892 0.705752 -0.80775166 0.465395
0001d0 09 dd a8 be 97 21 b0 3d 81 0c 6d bf 61 88 c3 3e
       -0.32981136 0.08600157 -0.92597204 0.38189986
0001e0 b1 07 b5 be ee 19 11 be a0 0a b3 bf 34 db 90 bf
       -0.3535743 -0.14170048 -1.3987617 -1.1316895
0001f0 17 e1 14 3f 10 eb b0 3f ae 66 b2 3e ce 7b 95 be
       0.5815596 1.3821735 0.34843963 -0.29196018
000200 d0 16 a6 be ed 2d 07 3c 33 71 a7 3f 97 b9 b5 be
       -0.3243928 0.008250696 1.3081421 -0.35493156
000210 b5 8a 7b 3e fc 59 ab 3e 18 10 54 bf 04 1a a8 3e
       0.24564631 0.3346709 -0.8283706 0.32832348
000220 16 60 01 bf e9 e2 1f bf 93 10 e8 be 58 55 e4 3d
       -0.5053724 -0.6245561 -0.45325145 0.111490905
000230 b7 c3 16 3f 58 ad 7d 3e b2 eb 89 bf b9 c8 e6 3d
       0.5889239 0.24773157 -1.0775054 0.112687536
000240 be 85 57 3f 75 fb 9f 3e 23 d5 99 3f c6 7e 47 be
       0.8418845 0.31246534 1.2018169 -0.19481954
000250 4a 08 a7 3e b5 67 bc 3f 5b 8c 83 be 61 2a 91 3e
       0.32623512 1.4719149 -0.2569302 0.28352645
000260 c0 2e 6c 3f 17 1c ec bd 8f 5b 51 3f 55 c2 f3 bd
       0.92258835 -0.11528795 0.8178033 -0.119023
000270 ef 60 9b bd 78 63 98 3e 35 ea b8 bf cd 38 45 bf
       -0.07586848 0.2976339 -1.4446474 -0.77039796
000280 a7 9f 81 bf 27 a5 8a bf 0d 7e c5 be 75 ad 61 bd
       -1.0126847 -1.083165 -0.38572732 -0.055097062
000290 76 1f 0b 3f 16 46 7b 3f 7c 49 97 bf 6b 04 8e 3f
       0.5434488 0.9815382 -1.1819301 1.1095098
0002a0 d9 77 56 3f f1 bd 06 3f 90 70 3b 3f 0a 96 9e 3c
       0.83776623 0.5263358 0.7321863 0.019358654
0002b0 23 38 07 3f ab b0 78 bf 12 1b 4f bd c3 67 2b 3e
       0.5282003 -0.97144574 -0.050562926 0.167388
0002c0 b3 46 1c 3f 92 e1 71 3f c4 c4 76 3d a9 d2 84 bc
       0.6104538 0.9448482 0.060246244 -0.016213732
0002d0 c6 63 04 bf ce 3d e9 3e 1e 88 09 bf 58 df 77 3f
       -0.5171474 0.45554966 -0.53723323 0.9682517
0002e0 fa df 3f 3f 20 89 6b bf 65 89 23 bf 5d 45 96 3e
       0.74951136 -0.9200611 -0.6388152 0.29349795
0002f0 0b 0d ae be 94 33 c2 3f f6 7d 27 3d 4b e4 38 bf
       -0.33994326 1.517199 0.04089161 -0.7222335
000300 e8 5d c8 3e 1e 35 16 3f 08 db 80 bf d1 f1 2e bf
       0.39134145 0.586748 -1.0066843 -0.6833773
000310 c7 b9 93 be 3e 38 89 3f 96 17 57 3c c6 45 cd be
       -0.28852674 1.0720289 0.013128182 -0.40092295

bias f4 [50]
000000 31 a5 9b be d8 eb 9e be 6c 9d a4 3d fd 93 f5 3e
       -0.3039947 -0.3103931 0.08037838 0.4796447
000010 a2 d1 ce bd 7a 3c 77 be 94 c3 44 3f 57 f8 76 be
       -0.10098578 -0.24144164 0.7686093 -0.24118172
000020 77 fd 92 3e b1 36 50 3f 64 d9 2d 3f 9b bf bd 3d
       0.28709003 0.8133345 0.67909837 0.092650615
000030 59 5e 6d be 7a e7 25 3f fb d4 53 3e 43 85 2f bf
       -0.23180522 0.6480633 0.20686714 -0.68562716
000040 09 1c b0 bd 42 ad 1b 3f 4d 09 d9 be fa 4a 02 3e
       -0.08599097 0.60811245 -0.42389908 0.12723914
000050 9e cd 2c be c2 07 0f 3e d7 ae fe bd be 53 61 3f
       -0.16875312 0.13967803 -0.12435692 0.88018405
000060 ba 7f ab bd c8 9c f4 be 3a 1d 8c 3c 5f 2e b9 3e
       -0.08373971 -0.47775865 0.01710378 0.3616819
000070 68 a7 77 3f 40 b7 2f 3f 8a fa 5e bf 22 15 c3 be
       0.96739817 0.6863899 -0.8710104 -0.3810206
000080 f4 10 92 be c4 61 b6 3c fb f6 fa 3e f9 e8 f3 be
       -0.2852856 0.022263415 0.49016556 -0.47638682
000090 ee 8f 13 be 00 27 06 3e 7e 1f be 3e 05 a0 80 bf
       -0.14410374 0.13100815 0.37133402 -1.0048834
0000a0 d0 75 82 be 78 fa c7 3e 56 e7 05 be 1b 23 43 3e
       -0.2548051 0.3905828 -0.13076529 0.1905636
0000b0 55 74 3a bf 4d eb 55 3f f3 66 3b 3f df ec 62 bf
       -0.7283376 0.83562165 0.73203963 -0.88642687
0000c0 28 ca 75 3f 81 d4 d1 be
       0.9601159 -0.4098244
