Models/deep_hedging_discretized_feedforward__2022-04-05-19-57-45.pt (torch, 573753 bytes, 800 tensors)

weight f4 [50, 4]
00000000: a2d9 d03e 705f 393d 746d 833e d075 0c3d
00000010: 403d 8cbc e06c 903d 30d1 80be 686e fc3e
00000020: c828 0ebe 3045 a2be 3217 853e 445c 5cbe
00000030: d6db d03e 28d2 c93e 86a7 b73e 2cd3 7a3e
00000040: d00f 403d e6b4 85be 0030 373e d8d0 9dbd
00000050: 29d1 02be 52f2 db3e 8f3e 2e3e e059 eb3e
00000060: 7cad 00be 3c0e 9f3e 0c5a 4f3e ba8c 9ebe
00000070: 14b9 9abe 7957 26be a82a a8be 3f7b 013e
00000080: a4f0 ebbe 0675 b03e d2f0 833e 1461 31be
00000090: 8fd1 733e 8bf8 78be 55c9 6abe e9a6 623e
000000a0: 0056 2f3c 4098 21bc 86dd fd3e 205f 87be
000000b0: 9158 9e3d 1474 2cbe 982b d83e 845c 98be
000000c0: a7eb 403e be59 09bd b899 cf3e e685 dd3e
000000d0: a0bf 7dbe 44f0 c8be 64ce 3ebe 30c9 a7bd
000000e0: 6c73 c03e 095c f93d 415c 8b3d 8e95 72bd
000000f0: c8fd 17be f48a 6b3e 3e8c f03e 4c4e 64be
00000100: c03d 16bc 2030 e9be 1c71 d73e 6031 1fbd
00000110: 94d1 f63e 6a02 91be 3e87 cc3e c671 bdbe
00000120: 9c24 dabe 1a30 aa3e 60e2 8b3c 8076 15be
00000130: 1a03 88be a008 82be f00c a83d ca04 df3e
00000140: a01c 40be 00f8 293a 1e5b 923e 602f 24be
00000150: 1692 c83e 386c a8be 0436 03be 2c81 563e
00000160: dcfe 50be 80f4 8abe 646d 403e 5e2e d3be
00000170: 801b d2be 4e31 ce3e ecce e23e 8cc7 88be
00000180: 22f3 a0be c8c9 a7bd f042 703d 0a6d dd3e
00000190: 78b0 c5be b000 abbe 809d 603d 985f 74be
000001a0: 2408 e5be a4c9 e63e d2e0 f23e 9844 b63e
000001b0: b3d5 5b3e 487e 4d3e a648 c1be 207f ff3d
000001c0: 726f bb3e 0270 8c3e 922a ffbe b818 6d3e
000001d0: 76a0 f13e 5675 b13e 8023 103d c0ec 2dbd
000001e0: 8ae6 b03e 6c72 7a3e 18ab a8bd a844 413e
000001f0: a0a0 58be 1076 60be 6454 223e 261d 83be
00000200: bb8d 02be 2c87 c63e 59b6 853d 5c53 f63e
00000210: 50b2 683d d8f1 debe 8077 073c 9024 37bd
00000220: f849 c1bd 9057 99bd c4e8 99be b40a 853e
00000230: 32d4 80be 60fe 28be 781f cbbe 909a ecbe
00000240: 2ad7 f23e 40b7 bdbe b8f7 b73d 8a53 f83e
00000250: 83cd 503e ace0 873e f124 73be af42 a03d
00000260: 04df 1c3e be1c efbe f02d f83d ce85 90be
00000270: 20af 5d3d 7abd 8f3e c20c a33e 5853 d5bd
00000280: 940f 293e cf22 ec3d f01d 713e cd64 25be
00000290: 177f 193e 2216 b6be efc2 48be f9f0 113e
000002a0: 80eb 193c 3611 d03e e8c0 c5be 1cbe 9ebe
000002b0: 9020 5f3e 8a30 a23e ba5e b4be f645 efbe
000002c0: 2fe4 c43d 80f8 19bc 17bb a7bd 88b9 dbbe
000002d0: 0761 b5bd e4b4 d3be 4c97 95be 7773 0ebe
000002e0: a470 2abe 42fd 8c3e 566d a03e 1081 513d
000002f0: 68ce e93e 0c7b edbe 3af1 f63e 565e abbe
00000300: 3075 92bd 5866 ea3d bc8b 593e ae24 903e
00000310: fff2 8b3d be28 163d ac44 debe f8da bfbe
0.4079104 0.045257032 0.25669444 0.034292042 -0.01711905 0.07052016 -0.25159597 0.49302983
-0.13882744 -0.3169341 0.2599426 -0.21519572 0.40792722 0.3941815 0.35869998 0.24494618
0.04689008 -0.26114577 0.17889404 -0.077058494 -0.12775101 0.42958313 0.17016052 0.45967007
-0.12566179 0.31065547 0.20249194 -0.3096674 -0.30219328 -0.16244306 -0.32845044 0.12644671
-0.46082032 0.34464282 0.2576967 -0.17322189 0.23810409 -0.24313562 -0.22928365 0.22133984
0.010701656 -0.009862959 0.4958307 -0.26439762 0.077317365 -0.16841155 0.4222076 -0.29758084
0.18839894 -0.03353285 0.40546966 0.4326622 -0.2478013 -0.39245808 -0.1863342 -0.0819267
0.3758806 0.121757574 0.068047054 -0.059224658 -0.14842904 0.23002225 0.46981996 -0.22295493
-0.009169996 -0.4554453 0.42078483 -0.038865447 0.4820677 -0.28322154 0.39946932 -0.37000865
-0.42606056 0.33239824 0.017075717 -0.14595985 -0.26564866 -0.25397205 0.08205593 0.4355834
-0.1876092 0.0006483793 0.28585142 -0.16033697 0.39173955 -0.32895064 -0.12813574 0.20947713
-0.20409721 -0.27139664 0.18791729 -0.41246313 -0.41036606 0.40271991 0.44298494 -0.26714742
-0.31435496 -0.081927836 0.058657587 0.43247253 -0.38611197 -0.33398962 0.054837704 -0.23864591
-0.44732773 0.45075715 0.4743715 0.35599208 0.21468239 0.20067704 -0.3775074 0.12475419
0.36608464 0.27429205 -0.49837166 0.2315396 0.47192734 0.34659833 0.035190105 -0.04246211
0.34550887 0.24457711 -0.082357585 0.18873847 -0.21155024 -0.21920037 0.15852505 -0.25608176
-0.12749378 0.38775003 0.06528921 0.48110473 0.056810677 -0.43543887 0.008268237 -0.044712603
-0.094379365 -0.07487404 -0.300604 0.25984728 -0.25161892 -0.16503286 -0.39672446 -0.46211672
0.47429782 -0.3705387 0.089827955 0.48501235 0.20390896 0.265386 -0.23744561 0.07825219
0.15319449 -0.46701616 0.12118137 -0.28227085 0.05412209 0.28074247 0.3184567 -0.10416287
0.16509849 0.11530077 0.23546576 -0.16151734 0.14989887 -0.3556376 -0.19605611 0.1425208
0.0093945265 0.4063813 -0.38623738 -0.31004417 0.21789765 0.31677657 -0.3522852 -0.46733063
0.09613835 -0.009397626 -0.081899814 -0.42914987 -0.08856397 -0.41348946 -0.29216993 -0.13911234
-0.16644531 0.2753697 0.31333417 0.051148474 0.45665288 -0.4638294 0.48230916 -0.3347041
-0.07151258 0.11445302 0.2124471 0.28152984 0.06833457 0.03665995 -0.43411767 -0.37471747

bias f4 [50]
00000000: 405f 183d 108e e13d 20af bc3c 80ec 24bc
00000010: 1a72 e03e d35b 4abe 1c0b c53e 329b e7be
00000020: dc66 a43e aaf3 9dbe c09e 633c ad43 693e
00000030: df67 723e bc6f 2bbe f632 edbe 4e26 fe3e
00000040: a010 82be 26d5 84be 8277 fa3e de22 bebe
00000050: 4017 533e f6cd 96be acb6 e8be d812 3dbe
00000060: a074 a2bc b0d0 e63d a845 723e a6ec 9a3e
00000070: c492 7bbe 78dc d73d 1ab5 c63e 0a29 cc3e
00000080: 0d11 2dbe d091 64be d81a d6be 40db 423e
00000090: 6c94 6f3e 79ef 06be 203f dfbd 04df 243e
000000a0: fb8f 673e 1c3b edbe 8093 db3d 1e76 d5be
000000b0: 1448 e9be 5855 a9be 544f 9f3e be6c eb3e
000000c0: 2a6d c33e ea7d 863e
0.037200212 0.110134244 0.023032725 -0.010066152 0.43837053 -0.1976159 0.38485038 -0.45235592
0.32109725 -0.30849963 0.013892829 0.22779723 0.23672436 -0.16741842 -0.46327943 0.496386
-0.2540331 -0.2594387 0.48919302 -0.37135977 0.20614338 -0.2945401 -0.45451868 -0.1846422
-0.019831002 0.11270273 0.23659384 0.30258673 -0.24567705 0.10540098 0.38810045 0.3987506
-0.16901036 -0.22321248 -0.41817355 0.1902895 0.23396462 -0.13177289 -0.10900712 0.16100699
0.22613518 -0.4633416 0.10721493 -0.4169168 -0.45562804 -0.33072925 0.3111521 0.459814
0.38169223 0.2626794

weight f4 [3, 50]
00000000: 6a4b b8bd 8312 353d dff2 e63d c5fe dcbd
00000010: 48f5 b3bc 9901 e5bd 0da3 abbb 9a01 a93d
00000020: 042b 0bbe 43ca 5ebd 5f11 963d 411e b4bc
00000030: efbe cf3d 4f5d 473d cd1f 6c3c 476e 9fbc
00000040: 75de 0bbd a99a f0bc ccf7 4ebc cc1f 9cbd
00000050: b1f5 24bd 01d5 a43d 6958 ca3d f252 d43c
00000060: d297 b13c 7835 f8bd 5452 ec3c d416 033e
00000070: d581 7abd 563e 10bd d88e 0c3e 34f9 ae3c
00000080: 6ac7 e23d 4d22 1dbd 6a80 02be 7b77 483c
00000090: 6df1 dfbd 377b 79bd a632 493d cbe5 05be
000000a0: c8b6 883d 04f4 043e f9b1 073e f289 fbbd
000000b0: 3d82 0fbe fa3a 68bd c3dc 353c 60bd 72bd
000000c0: 677b cb3d 51f8 033e 35f3 183d 1d2e adbc
000000d0: 4458 04be 1047 af3d e99c a8bc c344 c63d
000000e0: 3c2c 5d3d 5f81 5f3c 49a9 d6bd f4ef a63d
000000f0: 7dfb dd3c 97de e23d 158f da3d 516d 98bd
00000100: 9917 f2bd b796 08be 318c 43bd f40f 45bd
00000110: 18c3 163c e540 993d d948 25bc 74ff c2bd
00000120: 46d2 f0bd e21c e63d c50c efbc 85c5 713d
00000130: 843d 70bd 9a8e 5ebd 8770 033e 3b4c 1b3c
00000140: 1f63 1dbd 52d7 a4bc 0646 00be cf45 fb3d
00000150: 16d1 d3bd 7e17 db3d 200e a43d 3d59 acbc
00000160: f821 a23c 8368 e0bd 1860 af3d fd50 bb3d
00000170: a9cf 58bd dd72 ff3c 9d2b ab3d 4d81 2fbd
00000180: 5382 283c bb81 d53d 4477 8a3c 7996 acbc
00000190: 9bde 813d 7db8 2abd 7b9c 9cbd 4977 93bd
000001a0: cde0 87bd d2db d13d 99b0 8e3d 92c8 a2bc
000001b0: a56b d33d 970d 673d 1ae3 e93d 7afe e7bd
000001c0: 1bd9 0bbe 2806 47bd 0d69 603d bfd7 59bd
000001d0: 202d f73d 4022 0ebd 3b7b ee3d 1c43 903d
000001e0: 0f8e 823d 6aa6 7b3d 672d 47bc 7ee6 cabd
000001f0: 1183 2a3d 7303 093d a8ac 0b3e 5b8e 7a3c
00000200: 78e6 f1bc f86c 40bd 2643 f83d 2cb3 afbd
00000210: 666b 3f3d f161 d13d 730e 87bc ba79 463d
00000220: b373 b73c 180a 003d f620 e13d c241 07be
00000230: 9cc9 0b3c a49f 9e3d 9bb1 f1bd 1393 103e
00000240: c009 10bd 3c59 a6bd 7790 bebc 0f17 aebd
00000250: 5d65 81bd 427d 4cbd
-0.08998759 0.044207107 0.11276793 -0.10790781 -0.021967545 -0.11181945 -0.005237943 0.082522586
-0.13590628 -0.05439211 0.07327532 -0.021987082 0.101438396 0.04867297 0.014411879 -0.019461764
-0.0341477 -0.029370623 -0.012632322 -0.07623252 -0.040273372 0.0804844 0.09880144 0.025918458
0.021678839 -0.12119573 0.02884785 0.12801677 -0.061158974 -0.0352157 0.13726366 0.021359064
0.110731915 -0.03836279 -0.12744299 0.012235518 -0.1093472 -0.060908522 0.049120568 -0.1307594
0.06675488 0.1298371 0.13251485 -0.1228217 -0.14014526 -0.05669687 0.011099997 -0.059262633
0.099356465 0.12887694 0.037341315 -0.021140153 -0.12924296 0.08558476 -0.020582633 0.09681084
0.053997263 0.013641684 -0.10481507 0.08151236 0.027097458 0.11077612 0.10671822 -0.074427254
-0.11820907 -0.13338743 -0.04774112 -0.048110917 0.009201787 0.07483081 -0.010088169 -0.0952138
-0.117588565 0.11235978 -0.029180894 0.05902626 -0.058652416 -0.054335214 0.12835895 0.009478624
-0.038424607 -0.020122204 -0.12526712 0.12269174 -0.10342614 0.1069784 0.08010507 -0.021038646
0.019791588 -0.10957434 0.0856325 0.09146307 -0.052932415 0.0311827 0.08357928 -0.04284792
0.010284978 0.10425135 0.016902573 -0.021067845 0.06341287 -0.041679848 -0.07647034 -0.07200486
-0.06634674 0.102470055 0.06967277 -0.01987103 0.10323266 0.056409445 0.11420269 -0.113278344
-0.13657038 -0.048589855 0.054787684 -0.053184267 0.12069154 -0.034700632 0.11644598 0.0704405
0.06374752 0.061438 -0.012156821 -0.09907244 0.0416289 0.033450555 0.13640082 0.015292729
-0.029528841 -0.04697892 0.121221825 -0.08579096 0.046733283 0.10223759 -0.016486382 0.04845593
0.022394037 0.031259626 0.10992615 -0.13208678 0.008531954 0.07745293 -0.11801454 0.14118604
-0.03516555 -0.08122489 -0.023262246 -0.08500492 -0.06318162 -0.049924143

bias f4 [3]
00000000: a4cd f83c 8947 8fbc b758 cc3c
0.030371495 -0.017490165 0.024944646

weight f4 [50]
00000000: 0000 803f 0000 803f 0000 803f 0000 803f
00000010: 0000 803f a470 7d3f 0000 803f a470 7d3f
00000020: 0000 803f a470 7d3f 0000 803f ae47 813f
00000030: ae47 813f 0000 803f a470 7d3f 0000 803f
00000040: 0000 803f 0000 803f 0000 803f 0000 803f
00000050: 0000 803f 0000 803f 0000 803f 0000 803f
00000060: 0000 803f 0000 803f 0000 803f a470 7d3f
00000070: 0000 803f 0000 803f 0000 803f 0000 803f
00000080: a470 7d3f 0000 803f 0000 803f 0000 803f
00000090: 0000 803f a470 7d3f 0000 803f 0000 803f
000000a0: a470 7d3f a470 7d3f 0000 803f 0000 803f
000000b0: ae47 813f ae47 813f 0000 803f a470 7d3f
000000c0: 0000 803f a470 7d3f
1.0 1.0 1.0 1.0 1.0 0.99 1.0 0.99
1.0 0.99 1.0 1.01 1.01 1.0 0.99 1.0
1.0 1.0 1.0 1.0 1.0 1.0 1.0 1.0
1.0 1.0 1.0 0.99 1.0 1.0 1.0 1.0
0.99 1.0 1.0 1.0 1.0 0.99 1.0 1.0
0.99 0.99 1.0 1.0 1.01 1.01 1.0 0.99
1.0 0.99

bias f4 [50]
00000000: 0000 0000 0000 0000 0000 0000 0000 0000
00000010: 0000 0000 0bd7 233c 0000 0000 0ad7 23bc
00000020: 0000 0000 0bd7 23bc 0000 0000 0ad7 23bc
00000030: 0ad7 233c 0000 0000 0ad7 23bc 0000 0000
00000040: 0000 0000 0000 0000 0000 0000 0000 0000
00000050: 0000 0000 0000 0000 0000 0000 0000 0000
00000060: 0000 0000 0000 0000 0000 0000 0ad7 23bc
00000070: 0000 0000 0000 0000 0000 0000 0000 0000
00000080: 0ad7 23bc 0000 0000 0000 0000 0000 0000
00000090: 0000 0000 0ad7 23bc 0000 0000 0000 0000
000000a0: 0ad7 233c 0ad7 23bc 0000 0000 0000 0000
000000b0: 0bd7 23bc 09d7 233c 0000 0000 0ad7 23bc
000000c0: 0000 0000 0000 0000
0.0 0.0 0.0 0.0 0.0 0.010000001 0.0 -0.01
0.0 -0.010000001 0.0 -0.01 0.01 0.0 -0.01 0.0
0.0 0.0 0.0 0.0 0.0 0.0 0.0 0.0
0.0 0.0 0.0 -0.01 0.0 0.0 0.0 0.0
-0.01 0.0 0.0 0.0 0.0 -0.01 0.0 0.0
0.01 -0.01 0.0 0.0 -0.010000001 0.009999999 0.0 -0.01
0.0 0.0

running_mean f4 [50]
00000000: 9295 213c 0bee 753d 1aaa a5bc b22c dc3c
00000010: 9e3a 143d c274 d83c cb99 f63b 1a3f 07bd
00000020: 8dc1 543c a794 12bc e62a c8bc 6668 09bc
00000030: 2737 8c3d dbd5 debc 9a7d 50bd b371 e03c
00000040: 4261 f2bc 4271 76bd 06d0 043d 1a2c 963b
00000050: 801c 7b3b daff e2bb 7468 b4bd f5fd 3dbd
00000060: 8c5a 213d 3571 7abc 5560 6d3d b502 383d
00000070: 6602 123a ca53 1d3c 25a0 753d 400f 533c
00000080: eaec fe3c 0e70 debc b7f5 89bc 036f f0bc
00000090: 48d4 973d 90ad feba 3426 1fbd 0a2f df3b
000000a0: a7e9 213c 7c33 0bbd 0007 a4bc d051 b2bd
000000b0: bf4b b8bd 7fdf 46bd 40c2 133d 4d6c 543c
000000c0: 73dc 873d 2e5f 16bc
0.0098623205 0.06004147 -0.020222712 0.026876781 0.036188714 0.026422862 0.007525658 -0.033019163
0.012985599 -0.008946574 -0.024434518 -0.008386707 0.06846457 -0.027201584 -0.050901033 0.027397966
-0.029587392 -0.060166605 0.03242495 0.004582894 0.0038316548 -0.0069274725 -0.08808985 -0.04638477
0.039392993 -0.01528578 0.057953198 0.044924457 0.00055698154 0.009602496 0.05996718 0.012882054
0.031118829 -0.027153041 -0.016840799 -0.02934981 0.07413536 -0.0019430388 -0.038854793 0.0068110274
0.009882367 -0.033984646 -0.02002287 -0.08707011 -0.089988224 -0.048552986 0.036073923 0.012965274
0.06633844 -0.009177966

running_var f4 [50]
00000000: 6666 663f 6666 663f 6666 663f 6666 663f
00000010: 6666 663f 6666 663f 6666 663f 6666 663f
00000020: 6666 663f 6666 663f 6666 663f 6666 663f
00000030: 6666 663f 6666 663f 6666 663f 6666 663f
00000040: 6666 663f 6666 663f 6666 663f 6666 663f
00000050: 6666 663f 6666 663f 6666 663f 6666 663f
00000060: 6666 663f 6666 663f 6666 663f 6666 663f
00000070: 6666 663f 6666 663f 6666 663f 6666 663f
00000080: 6666 663f 6666 663f 6666 663f 6666 663f
00000090: 6666 663f 6666 663f 6666 663f 6666 663f
000000a0: 6666 663f 6666 663f 6666 663f 6666 663f
000000b0: 6666 663f 6666 663f 6666 663f 6666 663f
000000c0: 6666 663f 6666 663f
0.9 0.9 0.9 0.9 0.9 0.9 0.9 0.9
0.9 0.9 0.9 0.9 0.9 0.9 0.9 0.9
0.9 0.9 0.9 0.9 0.9 0.9 0.9 0.9
0.9 0.9 0.9 0.9 0.9 0.9 0.9 0.9
0.9 0.9 0.9 0.9 0.9 0.9 0.9 0.9
0.9 0.9 0.9 0.9 0.9 0.9 0.9 0.9
0.9 0.9

weight f4 [50, 4]
00000000: 163c d6be 00e9 013c f8aa afbd ac9d 7b3e
00000010: 58b2 b8bd b4b6 ab3e 641c 773e 40c7 3ebd
00000020: b8af a83e c0ed 003c e088 6ebe a86b d6be
00000030: a825 d3bd 5810 19be 0448 763e 78ce c93e
00000040: f413 bcbe 22ea a63e 240d e6be 1bec c6bc
00000050: 04c9 ce3e 6c55 bcbb 80f6 50bc c0c3 a9bd
00000060: f4c4 ef3e 0349 50be 9f35 083e f46b c3be
00000070: b242 6d3d f41d 863e bc13 52be 7c25 aa3e
00000080: 12cc d73e 30a5 f3be 2cc6 d43e 6274 c7be
00000090: af17 94bd d440 d0be c4e7 a33e 2be8 62be
000000a0: a830 36be 3466 66be 9026 c5be 1873 cc3d
000000b0: 2006 c0bd ecd0 38be 886e e0be 5402 8e3e
000000c0: fc68 813e f495 9bbe 109d 893e 64a6 fabe
000000d0: 8e9b d13e 20d4 e13e 783d a13e 9f75 9f3d
000000e0: 1ab0 bbbe eed7 b43e 7ec9 f3be 9bb6 00bf
000000f0: 84bc 9c3e c03e 81be 3782 4f3e 56c4 d3be
00000100: 9198 1bbe 408f f3be 5faf 90bd 6e15 873e
00000110: 502f 81be e047 883e 1c89 06be 64ed d03e
00000120: 1ada c5be 1c7d c9be 9a94 eebe b06e 023d
00000130: 4481 e1be 12c0 da3e fd38 67be 4a9a 023c
00000140: 1d5a 70bd 1041 bd3e 313f 623e 8b2c 17be
00000150: 6015 f33e 1e1d a73e f08e 6fbe 3aae 80be
00000160: 64e0 8d3e 9e7c ef3e 848a dcbe 8c1f c5be
00000170: 70e2 f13e 7a5a f43e 2f56 f13d d114 90bd
00000180: 0b8f 543e 4c3c cebe 4e74 893e a3e6 283e
00000190: 568e a7be b4b9 4c3e 7e04 cf3e fcfd 003e
000001a0: a04e a13e f4f2 b2be 4523 2ebe ba58 823e
000001b0: 604a ca3c 56f3 bebe a8dd 0d3e d083 efbe
000001c0: d892 01bb eaa0 d8be fd54 6c3e 517b b2bd
000001d0: c743 a4bd f071 af3e 308d f9be 475d 9abd
000001e0: a69c fbbe 4ca9 09be fcf2 0e3e 0237 b53e
000001f0: 4ee3 8bbe 40a0 35bd d0a2 dd3d f07d 553d
00000200: e869 bebe 3ab8 d5be 0017 ae3e 34a8 dcbe
00000210: 5681 d1be 2b8d 2d3e 72fa 8d3e bff1 763e
00000220: 5a52 c6be 7641 1a3c 81ee 91bd ca6c b1be
00000230: 6291 fdbe f3cb 54be a2e6 bbbe a477 d1be
00000240: ec64 b8be ecae 82be 2889 d73e 3638 9dbe
00000250: f006 5bbe a074 b1be 78ce 62be 3c83 aebe
00000260: 5008 90ba df6f 9bbd dfa7 053e ee95 f13b
00000270: f159 dfbd 7957 e73d 8089 d43e 0d33 253e
00000280: d0d2 4d3d 58b9 353e f05c bebe e4b0 d8be
00000290: ca1c d33e b6a4 fb3e db1e 62be e4d0 ca3e
000002a0: 72e2 31bd b2c8 8d3e 8fd1 db3d 1ebf e23e
000002b0: 1e57 71bd 5d7d 063e 6134 8d3d c9e8 c9bd
000002c0: 34f6 cdbe c473 a93e 3c59 a23e f896 d9bd
000002d0: cc97 d3be 033f 073e 2828 cb3e 2e0b a83e
000002e0: 5823 fdbe 96d2 c13e b085 2e3d d055 6c3e
000002f0: 189e be3e 0092 b53d df13 a3bd 27c5 5dbe
00000300: 4831 eebd 48e7 e23e c85a c43d 74b1 453e
00000310: a45e 60be f00a 633e d0a1 c8bd 409e 1bbd
-0.41842717 0.007929087 -0.085775316 0.24571866 -0.09018391 0.3353783 0.24131924 -0.04657674
0.32946563 0.007869184 -0.23294401 -0.4187901 -0.10309917 -0.14947641 0.2405091 0.39415336
-0.36733973 0.32600504 -0.449319 -0.024282506 0.40387738 -0.005747488 -0.012754083 -0.082892895
0.4682995 -0.20340352 0.13301705 -0.381683 0.057924934 0.26194727 -0.2051534 0.33231723
0.4214788 -0.47586966 0.41557443 -0.3895598 -0.0723108 -0.4067446 0.3201276 -0.22158878
-0.17791998 -0.22499925 -0.38505983 0.0998289 -0.09376168 -0.18048447 -0.4383433 0.2773615
0.2527541 -0.30387843 0.26877642 -0.4895507 0.4093899 0.4410715 0.3149221 0.07786106
-0.36657792 0.3532099 -0.47614664 -0.50278634 0.30612576 -0.25243187 0.20264517 -0.4136073
-0.15194918 -0.4757023 -0.070646994 0.26383537 -0.2523141 0.26617336 -0.1313824 0.40806115
-0.3864296 -0.39353263 -0.4659775 0.03184384 -0.44043934 0.42724663 -0.22580333 0.007971356
-0.05867969 0.369637 0.22094418 -0.14763086 0.47477245 0.32639402 -0.2339437 -0.25132924
0.2771026 0.46774763 -0.4307443 -0.3850063 0.4724307 0.47725278 0.11784016 -0.070352204
0.20757692 -0.40280378 0.26846546 0.16494231 -0.3272578 0.19992715 0.40433115 0.12596887
0.315053 -0.34950984 -0.17005642 0.25458318 0.024693668 -0.37295026 0.13854086 -0.46780252
-0.0019771364 -0.42310268 0.23079295 -0.08714927 -0.0802074 0.34266615 -0.4874053 -0.075373225
-0.4914295 -0.13443488 0.13959879 0.3539353 -0.27321857 -0.04434228 0.1082207 0.052122056
-0.37190175 -0.41742116 0.34001923 -0.4309708 -0.40918988 0.16948383 0.27730137 0.24115656
-0.38734704 0.009415021 -0.07125569 -0.34653312 -0.4952498 -0.20780925 -0.36699396 -0.4091159
-0.36014497 -0.2552408 0.4209683 -0.30706948 -0.21389365 -0.3465929 -0.22149074 -0.340845
-0.0010988805 -0.07589697 0.13052319 0.0073726093 -0.10905827 0.11295981 0.41511154 0.16132756
0.050249875 0.17746484 -0.3718028 -0.42322457 0.41232902 0.49149102 -0.22082083 0.39612496
-0.043428846 0.2769218 0.107333295 0.44286436 -0.058920972 0.1313376 0.06894756 -0.09858853
-0.402269 0.33096135 0.31708705 -0.10624498 -0.4132675 0.13207631 0.39679074 0.3282103
-0.49441028 0.37855977 0.042607963 0.2307961 0.3722999 0.08865738 -0.079627745 -0.21657239
-0.116304934 0.4431708 0.09587628 0.19305974 -0.21911103 0.22172141 -0.09796488 -0.037992716

bias f4 [50]
00000000: 2007 de3d 0aa3 cbbe d8bd 72be 3806 ed3e
00000010: f39d 363d b0d2 dc3e 047a e5be 4a63 bebe
00000020: 23a6 17be b318 2fbe ac95 c83e aa45 a63e
00000030: 866b babe 6d4b 59be 87fe 193e 96fd c13e
00000040: 2cbf be3e 90d8 5d3e 8068 bdbe 8eef abbe
00000050: b28e b23e be21 fe3e 208e 9e3e de38 49bd
00000060: 25d1 133e 6ad2 bbbe 4a86 df3e 96f5 b3be
00000070: 00c4 013e cbba 393e 8ae0 ab3e 54a3 47be
00000080: 7885 c5be 36f2 f03e f03a cebe 9b42 76be
00000090: bbef db3c e0bb bebe ef6e 4d3e 07fa 7abe
000000a0: 06e1 d9be 78d1 c5be 6144 3bbe 8651 fabe
000000b0: 431b 293d adff 16be c064 00bd 834b 7cbe
000000c0: f203 edbe ee09 9a3e
0.10841203 -0.39772826 -0.23705232 0.46293807 0.044584226 0.43129492 -0.44819653 -0.37185127
-0.1480947 -0.17099266 0.3917669 0.32475024 -0.3641016 -0.21220179 0.150385 0.37888783
0.37255228 0.21664643 -0.3699379 -0.33581203 0.34874493 0.49635118 0.30967808 -0.0491265
0.14435251 -0.3668397 0.43657142 -0.35148305 0.12672424 0.18137662 0.33569747 -0.19495898
-0.3857839 0.47059792 -0.4027934 -0.24048845 0.02684771 -0.37252712 0.20061849 -0.2450944
-0.42554492 -0.38636374 -0.18287803 -0.48890322 0.041285764 -0.1474597 -0.031346083 -0.2463818
-0.46292073 0.300857

weight f4 [3, 50]
00000000: b27c 903d c568 363d 1f28 c1bc c219 013e
00000010: d49e 22bd ec3a 8dbb 0046 11bd b8c3 5e3d
00000020: 9050 9b3d 1742 f53d f108 08bc eaf7 49bd
00000030: 9c55 04bd 8b80 f7bd cbb1 d0bd 92a7 673c
00000040: 9be4 ce3d b630 833c fc2e 72bc 3f21 273d
00000050: 19c9 08bd e45d a9bd f7bc 0ebd a8c0 85bd
00000060: dcfb 6c3d 70d3 bc3d 52ec bb3d 3931 78bb
00000070: f80d d83c 7a3f debc 02e1 063e c0ce cb3d
00000080: b8e3 883a d0f3 00be 4259 15be bc90 993d
00000090: ae88 013e 8ddd d1bd d858 3ebc 3c1b e33d
000000a0: 177d e1bd ec87 a43d 0a55 43bd 45fe d33c
000000b0: 9c6f 98bd 6e50 51bd c7c6 e03d 2017 893d
000000c0: 1c63 ce3d dd54 3f3d e8d2 bf3d af0d 773c
000000d0: 0299 fabc 188f a1bd 17a4 f03d c6aa 0dbe
000000e0: b6bb 50bd d2fc e83d e2f8 c3bd 53c5 f7bc
000000f0: 5574 1c3d 4949 d43d face bb3d 7912 debc
00000100: 66a3 873d 78ff b63d b65c 1bbd d4a6 9fbd
00000110: 0c75 e03d 27eb 0f3e af3c ef3c c37a f83d
00000120: b76d f8bc ea47 e13d 95ed 3d3c ba1e 083e
00000130: 64da 02be dc21 a63c 0027 ccbd 16d7 57bc
00000140: 3b5b f43c e903 f33d 3b86 01bc d79d 0a3d
00000150: 9c8d f73d 81b1 0a3e 63cf d73d 8e17 013e
00000160: 1840 03be da78 ae3d 6215 763d 4d4a d6bc
00000170: ae22 af3c 1905 f8bc f31d b5bd 22a4 783d
00000180: 7ceb a33d ab84 7fbd bf9a 873d d0f5 263d
00000190: 01a8 f2bd 559d 963d be3e 3cbb 81f0 7b3d
000001a0: b902 f8bd b89d e63d ee7b 6f3d 3e41 003c
000001b0: 633f a73d b0a2 e13b f6f3 8e3c c0b0 033e
000001c0: dd63 cbbd 20b4 9b3d 6f24 4c3c 74a4 033e
000001d0: 3929 fc3c e119 b9bd 9e4d 1c3c 04a3 263d
000001e0: 24d0 1d3d 6971 033d 9f32 fcbd 95d4 b43c
000001f0: 6ee9 db3d 355b b03d 7d96 a53d 912d b4bd
00000200: e5ce 94bd 4f9e 92bd b303 90bb 6e3d 02be
00000210: 04f4 ac3c df40 9fbd d4bc 04bd a6c1 85bd
00000220: 9235 9fbc e235 093d 17d5 d43c 10d7 dd3d
00000230: b9cf 55bb b3ec febd f5af 823d 4421 383d
00000240: 30cb a0bd 2430 393d 0f14 3f3d f9e9 0bbe
00000250: 8966 9bbd d2d6 09be
0.07055034 0.04453351 -0.023578702 0.12607482 -0.03970225 -0.0043100026 -0.035467148 0.05438587
0.075837255 0.11975496 -0.008302913 -0.049308695 -0.032308206 -0.120850645 -0.10190161 0.014139073
0.10102197 0.016014438 -0.01478171 0.04080319 -0.033394907 -0.08269861 -0.03484818 -0.06530887
0.05785738 0.09220016 0.09175934 -0.0037871136 0.026373848 -0.027129877 0.13171771 0.09951544
0.0010443842 -0.12593007 -0.1458483 0.07498309 0.12649795 -0.102473356 -0.011617862 0.11089179
-0.11010187 0.080337375 -0.04768852 0.025878081 -0.07443163 -0.051102094 0.10975414 0.06693864
0.10077497 0.04671179 0.09366399 0.015078946 -0.030590538 -0.07888621 0.11750048 -0.13834676
-0.050960265 0.11376347 -0.09568955 -0.030245459 0.03819688 0.103655405 0.09170337 -0.027108418
0.06622963 0.089354455 -0.037930213 -0.07795492 0.10959825 0.14054547 0.02920374 0.1213279
-0.030325754 0.11000045 0.0115922885 0.13292971 -0.12778622 0.020279817 -0.09968376 -0.013173839
0.029828658 0.1186598 -0.007905538 0.033841934 0.12087557 0.13544275 0.10537603 0.12606642
-0.12817419 0.08519144 0.060078986 -0.026158476 0.021378841 -0.030275868 -0.08843603 0.060703404
0.080038995 -0.06238238 0.06621312 0.04076177 -0.118484505 0.073542275 -0.002872392 0.06150866
-0.12109894 0.11260551 0.058467798 0.007828055 0.08166387 0.006885849 0.017450314 0.12860394
-0.09931157 0.076027155 0.012459858 0.12855703 0.030781375 -0.09038139 0.00953999 0.040682808
0.038528576 0.03209058 -0.12314343 0.022074023 0.107378826 0.08611146 0.08085344 -0.087977536
-0.072660245 -0.07159101 -0.004394972 -0.12718746 0.02111245 -0.07776045 -0.032406643 -0.06531076
-0.019434724 0.033498652 0.025980515 0.108320355 -0.0032625033 -0.124474905 0.063812174 0.0449536
-0.07851255 0.045211926 0.04664999 -0.13663472 -0.075879164 -0.13460854

bias f4 [3]
00000000: 6eaf 02bd 8caa b63d 3672 573d
-0.031905584 0.08919248 0.052599154

weight f4 [50]
00000000: 0000 803f 0000 803f 0000 803f 0000 803f
00000010: a470 7d3f a470 7d3f a470 7d3f a470 7d3f
00000020: a470 7d3f ae47 813f 0000 803f 0000 803f
00000030: ae47 813f a470 7d3f ae47 813f a470 7d3f
00000040: ae47 813f 0000 803f 0000 803f ae47 813f
00000050: ae47 813f 0000 803f a470 7d3f a470 7d3f
00000060: a470 7d3f 0000 803f a470 7d3f 0000 803f
00000070: ae47 813f a470 7d3f 0000 803f 0000 803f
00000080: a470 7d3f a470 7d3f ae47 813f a470 7d3f
00000090: ae47 813f 0000 803f a470 7d3f a470 7d3f
000000a0: 0000 803f a470 7d3f ae47 813f ae47 813f
000000b0: a470 7d3f ae47 813f 0000 803f ae47 813f
000000c0: 0000 803f 0000 803f
1.0 1.0 1.0 1.0 0.99 0.99 0.99 0.99
0.99 1.01 1.0 1.0 1.01 0.99 1.01 0.99
1.01 1.0 1.0 1.01 1.01 1.0 0.99 0.99
0.99 1.0 0.99 1.0 1.01 0.99 1.0 1.0
0.99 0.99 1.01 0.99 1.01 1.0 0.99 0.99
1.0 0.99 1.01 1.01 0.99 1.01 1.0 1.01
1.0 1.0

bias f4 [50]
00000000: 0000 0000 0000 0000 0000 0000 0000 0000
00000010: 0bd7 23bc 0ad7 233c 0ad7 23bc 09d7 23bc
00000020: 09d7 233c 0ad7 233c 0000 0000 0000 0000
00000030: 0ad7 23bc 0ad7 23bc 09d7 233c 0ad7 23bc
00000040: 0ad7 233c 0000 0000 0000 0000 09d7 233c
00000050: 0ad7 233c 0000 0000 0ad7 23bc 0ad7 23bc
00000060: 0ad7 23bc 0000 0000 08d7 23bc 0000 0000
00000070: 0bd7 233c 09d7 23bc 0000 0000 0000 0000
00000080: 0ad7 23bc 0bd7 23bc 0ad7 233c 09d7 23bc
00000090: 0bd7 233c 0000 0000 09d7 23bc 09d7 23bc
000000a0: 0000 0000 0ad7 23bc 09d7 233c 09d7 233c
000000b0: 0ad7 23bc 0ad7 233c 0000 0000 0bd7 233c
000000c0: 0000 0000 0000 0000
0.0 0.0 0.0 0.0 -0.010000001 0.01 -0.01 -0.009999999
0.009999999 0.01 0.0 0.0 -0.01 -0.01 0.009999999 -0.01
0.01 0.0 0.0 0.009999999 0.01 0.0 -0.01 -0.01
-0.01 0.0 -0.009999998 0.0 0.010000001 -0.009999999 0.0 0.0
-0.01 -0.010000001 0.01 -0.009999999 0.010000001 0.0 -0.009999999 -0.009999999
0.0 -0.01 0.009999999 0.009999999 -0.01 0.01 0.0 0.010000001
0.0 0.0

running_mean f4 [50]
00000000: 9638 063d c210 35bd 9af0 82bd d99f ae3d
00000010: 883a 27bb f5a0 1c3d b423 a4bd 48e1 98bb
00000020: 2584 59bd 4219 2bbd 9a79 413d 98b7 703d
00000030: 7f62 a7bd 664d 01bc 4c05 12bd 3e95 69bb
00000040: ce4a 7e3d 4029 7a3d 2edb 18bd d6db 18bd
00000050: da24 973c 4d92 e03c 2708 81bb 679b 07bc
00000060: 86b8 033d 9b8b cebc 152e 903d c1fc a7bd
00000070: 5f79 9a3b a75c 1f3c b341 873d efa1 81bc
00000080: f2b6 abbd 0e42 923d 7f2b 9abd c9c8 8ebd
00000090: 4ede e4bc f548 96bd bd14 bc3c b350 27bc
000000a0: 1de8 adbd 1867 d73a 40d1 df3c 4a47 6dbd
000000b0: 2e6c 13bc 5aed 963c cb3c 8f3c fd79 3cbd
000000c0: 1b3b ddbc 7d82 cd3c
0.03276881 -0.044205435 -0.06393547 0.08526582 -0.0025517065 0.038239438 -0.08014622 -0.0046655275
-0.05310454 -0.041772135 0.04723511 0.05876884 -0.081730835 -0.007891988 -0.035649583 -0.0035641934
0.062083058 0.061074495 -0.0373184 -0.037319027 0.01845019 0.027413512 -0.0039377394 -0.008276797
0.032158397 -0.025213053 0.070400394 -0.08202506 0.0047141756 0.00972668 0.06604328 -0.015824286
-0.083845034 0.07141505 -0.075278275 -0.069718905 -0.027938034 -0.07338134 0.022959108 -0.010212111
-0.08491538 0.0016433923 0.027321458 -0.057929315 -0.00899796 0.018423725 0.017485043 -0.046014775
-0.027005723 0.025086636

running_var f4 [50]
00000000: 6666 663f 6666 663f 6666 663f 6666 663f
00000010: 6666 663f 6666 663f 6666 663f 6666 663f
00000020: 6666 663f 6666 663f 6666 663f 6666 663f
00000030: 6666 663f 6666 663f 6666 663f 6666 663f
00000040: 6666 663f 6666 663f 6666 663f 6666 663f
00000050: 6666 663f 6666 663f 6666 663f 6666 663f
00000060: 6666 663f 6666 663f 6666 663f 6666 663f
00000070: 6666 663f 6666 663f 6666 663f 6666 663f
00000080: 6666 663f 6666 663f 6666 663f 6666 663f
00000090: 6666 663f 6666 663f 6666 663f 6666 663f
000000a0: 6666 663f 6666 663f 6666 663f 6666 663f
000000b0: 6666 663f 6666 663f 6666 663f 6666 663f
000000c0: 6666 663f 6666 663f
0.9 0.9 0.9 0.9 0.9 0.9 0.9 0.9
0.9 0.9 0.9 0.9 0.9 0.9 0.9 0.9
0.9 0.9 0.9 0.9 0.9 0.9 0.9 0.9
0.9 0.9 0.9 0.9 0.9 0.9 0.9 0.9
0.9 0.9 0.9 0.9 0.9 0.9 0.9 0.9
0.9 0.9 0.9 0.9 0.9 0.9 0.9 0.9
0.9 0.9

weight f4 [50, 4]
00000000: 1f4f 933d daa4 d9be ab99 3c3e 4e67 e73e
00000010: 593c e53d 4e88 933e e8cf 8f3e 6dc5 24be
00000020: 3e78 adbe 0024 bd3e 8ca9 83be 96ef 9ebe
00000030: ae89 cbbe bbf5 18be 9c77 82be fc11 253e
00000040: 359a 3dbe 9272 f93e 8b4a 26bc cc8b af3e
00000050: 1821 b8bd 66c6 cd3e 307a 89bd f8da 61be
00000060: 7247 9dbe fc3d 753e 1cb9 6b3e 203f e63e
00000070: 90d6 97be 6440 53be 1492 b8be 12c4 b83e
00000080: 3358 2f3e 5c71 debe f77b 4a3e ef19 d4bd
00000090: d028 db3d c775 283e 043c e7be b0b8 d13e
000000a0: 808d 82be b610 ecbe 7ee5 21bd 49b9 2bbe
000000b0: 5c42 c7bc 9ece aabe b2ae 773d 2096 8d3c
000000c0: 3982 31be 020b c5be 4c62 be3e 101b babe
000000d0: 1a0e 913e ced5 f03e 80a8 363d 103f 76bd
000000e0: bf75 b73d d9fa d13d 7052 e93e e2ae 313d
000000f0: 1c08 453e e9ec 343e 6e23 9f3e a808 8b3e
00000100: 2215 96be 4c35 983e b871 bbbe 5a54 91be
00000110: e19c ecbd d800 403b 2c32 56bb 34b1 e03e
00000120: 1c20 88be 3a2c dcbe b0ca d2bd 38bc ca3e
00000130: b1da e23d b9be 2a3e f76f d2bd 6b22 36be
00000140: b388 4b3e 1f50 9dbd 4306 743e 8680 de3e
00000150: b651 803e afee 04be 3c8d dd3c 560f a43e
00000160: 6266 bd3e ddd9 48be 7061 ed3e f254 87be
00000170: 8ae8 61bc 7f57 21be bc7a c2be 7cd7 973e
00000180: 5c07 e7be edd2 183e bc09 b1be 6dc6 6b3e
00000190: 2c33 b3be c888 ad3e de70 8b3e 40bf 963d
000001a0: 317f 293e a959 0bbe c9bd 273c 88c1 a93e
000001b0: b9a4 c33d 1606 c23e 67ca eebd 6e13 f43e
000001c0: 6816 213e f2e9 c33e 08e8 b23d 6e5d 2dbd
000001d0: 9476 873e a78e e5bd 3c7b be3e 0160 47be
000001e0: a90b cdbd 02cb e13e ba8c f4be 4186 0bbe
000001f0: 1814 aebe edf8 25be 2dab 713e 748f b5be
00000200: e0c7 30bd 3043 aabe 084b 59be 3089 02bd
00000210: 65f3 8b3c 22c4 8f3e e8ed edbe a058 aa3e
00000220: 02c0 bf3e b16d 013e fafe e1be 3e35 0ebd
00000230: 141c c13e 8960 77be ff2d 73be b670 90be
00000240: 7441 253e 561f b5be 66fc febe fc2a 17be
00000250: 004a 393d 0079 cd3d b0b7 a5bd f0e4 d03d
00000260: 3a9b f1be e544 27be 3cbe f33c ee12 f33e
00000270: fc1c febe 8ee5 ad3e 4ce0 cebe 588a d4be
00000280: 8bed 453e 660f 8fbe fece 8abe fa68 003f
00000290: 763d dcbe d2e2 ff3e 8e4a cdbe 77d1 e9bd
000002a0: e2db 0cbd 3065 a4be ae94 a23e fc3a e23e
000002b0: 358c 3cbe f2f6 853e d691 953e 5e2a fcbe
000002c0: bca3 373e ca8a 743c 49a7 00be a1ff e7bd
000002d0: ca14 abbe 086c c4bd 882d f1be a6b8 b4be
000002e0: 586e c63a 772a 883d 3e21 d63e a05c b1be
000002f0: 98cc b2be 9cca cc3e 8d3f 7abe ea80 e73e
00000300: a09b f0bc 46df dc3e d2d4 cbbe e4a8 ca3e
00000310: 4001 e03e e2a0 a1be 919f 35be 7d50 09be
0.071928255 -0.42508584 0.18417995 0.45196003 0.11193151 0.2881493 0.28088307 -0.16090937
-0.338808 0.36941528 -0.25715292 -0.31042165 -0.3975348 -0.14937489 -0.2548188 0.16120142
-0.18515857 0.48720223 -0.010149608 0.34286344 -0.08990687 0.40190428 -0.067127585 -0.22056186
-0.3071857 0.23949426 0.23019832 0.44970036 -0.29655886 -0.20630032 -0.3604895 0.3608709
0.17123489 -0.4344586 0.19773851 -0.10356509 0.10701144 0.16451178 -0.45162976 0.40961218
-0.2549858 -0.461065 -0.0395255 -0.167699 -0.024323635 -0.3336076 0.060469337 0.0172835
-0.17334832 -0.3848496 0.3718437 -0.36348772 0.2833107 0.4703812 0.044594288 -0.060118735
0.08958005 0.102529235 0.45570707 0.043379672 0.19241375 0.17668499 0.31081718 0.27155042
-0.29312998 0.29728162 -0.36610198 -0.28384668 -0.1155336 0.0029297378 -0.0032683713 0.43885195
-0.26586998 -0.43002492 -0.10292566 0.39596725 0.11076868 0.16674317 -0.10275262 -0.17786567
0.19876365 -0.076812975 0.23830514 0.4345743 0.2506234 -0.12981676 0.027044885 0.3204295
0.36992174 -0.19614358 0.463634 -0.26431996 -0.013788352 -0.15756033 -0.37984264 0.2965659
-0.45122802 0.14924212 -0.3457774 0.23024912 -0.3499998 0.33893418 0.27234548 0.07360697
0.16552426 -0.13608421 0.010238119 0.33155465 0.09552903 0.37895268 -0.11659699 0.47671074
0.15731204 0.38264424 0.08735663 -0.04232543 0.26457655 -0.112088494 0.37203395 -0.19470216
-0.100119896 0.44100195 -0.47763616 -0.13625433 -0.33999705 -0.16208239 0.23600455 -0.3546101
-0.043159366 -0.33254385 -0.21220028 -0.031869113 0.017083833 0.28079325 -0.4647057 0.3327074
0.37451178 0.126395 -0.44139844 -0.034718744 0.37716734 -0.24157919 -0.23748015 -0.28210992
0.1613825 -0.3537547 -0.4980194 -0.14762491 0.045236588 0.100328445 -0.08091676 0.10199916
-0.4718874 -0.16334875 0.029753797 0.4747538 -0.49631488 0.339642 -0.404055 -0.41511798
0.19328897 -0.27941436 -0.27111048 0.5016018 -0.4301564 0.49977738 -0.40095943 -0.114169054
-0.034389384 -0.3210845 0.3175406 0.44185627 -0.1841286 0.26164967 0.29212826 -0.49251074
0.17933553 0.014925668 -0.12563814 -0.11328054 -0.33414298 -0.09590918 -0.4710505 -0.35297126
0.0015139086 0.066487245 0.41822237 -0.3464098 -0.34921718 0.3999833 -0.24438305 0.4521554
-0.029371083 0.43139094 -0.39810807 0.39581978 0.43750954 -0.31568056 -0.17736651 -0.1340961

bias f4 [50]
00000000: ff87 eb3d c04b 4cbd c793 70be 2e81 753d
00000010: 7792 483c 8af1 f23e 62dc f5be 579c 17be
00000020: 3469 cfbe 4d8e 303e c55e 5b3e a1b4 213e
00000030: 3ec2 99be 5485 2cbe 6000 8bbe 7826 d6be
00000040: db93 373e 11df c9bd 6683 f63e d119 623e
00000050: 16df 9dbe 878b d5bd 1465 61be e397 56be
00000060: 95c0 7e3e 0a95 9f3e 5772 523e 8285 c0be
00000070: 7a5f f03e 9321 02bf d0be fa3e 16c2 d9be
00000080: 461f 91be 672f 28be 3b33 22be 2a15 af3e
00000090: 3ac0 c53e 4049 eb3d 46dd e7be 7ac6 9f3e
000000a0: aeb7 02bd c0b4 abbe a473 e63c d47b b6be
000000b0: 0918 133e 20ad 803e 08c2 1a3e 086d 833e
000000c0: 908d f13d 4a36 ef3e
0.115005486 -0.04987693 -0.23493873 0.05993765 0.012241951 0.47449905 -0.480197 -0.14805733
-0.4050995 0.17241783 0.2142287 0.1579156 -0.30031008 -0.16847736 -0.27148724 -0.41826224
0.17927496 -0.09857 0.48147124 0.2208016 -0.30834264 -0.10427003 -0.22011214 -0.20956378
0.24878152 0.31168395 0.2055143 -0.37601858 0.46947843 -0.5083248 0.48973703 -0.42530888
-0.28344172 -0.16424333 -0.15839855 0.34195834 0.3862322 0.11488581 -0.45286006 0.31206113
-0.03191345 -0.3353634 0.028131314 -0.35641348 0.14364637 0.25132084 0.1511308 0.25669122
0.11794579 0.46721107

weight f4 [3, 50]
00000000: b819 e73c c0f7 4c3d de94 ddbd 7646 e43d
00000010: e8c7 2b3d 9ea8 973c 18a9 0b3e fca2 603b
00000020: 855b f8bd bae7 18be 0016 7dbc e622 c13d
00000030: ce4c 6d3d c5ed 88bd c9d1 f1bd 3330 b7bd
00000040: b496 33bb fd1d bf3c 91bd 01be ac3e 173d
00000050: d294 4e3d db79 b3bd b6d0 073e b520 1abe
00000060: f229 e63d 55f4 d8bd 2cff 013e d8d9 f8bd
00000070: 746d 3fbd 4d76 5fbd 18a7 5dbd cb4b 113e
00000080: ff18 80bd d097 1abe 85dc a33d 60b1 fb3d
00000090: 0302 7bbd 77d9 c1bd 1fc3 e4bc 1809 193d
000000a0: 14d2 a7bd cea8 56bd 888c 08bd 74b4 84bd
000000b0: b5cf b3bd c633 3d3d 8324 a43d 8748 f03c
000000c0: ac9c 91bd e237 01bd acb0 183d 9dc3 8dbd
000000d0: b612 8e3c 8427 093d bbb0 edbd 2ebe 68bd
000000e0: 3cd3 fe3d 1c4e 4c3d 543b 2ebd 4400 863c
000000f0: 46fd 10be 1b58 993d ea45 843d 0275 7bbd
00000100: 0250 7fbd fb44 b4bd 3ad6 a6bb 2e41 963d
00000110: 2b84 763d 6409 f33d 76dd bf3b 8f81 fb3d
00000120: 940d 9e3d fbc7 ebbd 9180 013c 641d df3d
00000130: b694 913d 9e25 a53d 9f42 163e b62d 2fbc
00000140: e333 9e3d 97a3 8e3d faa8 133d cf96 d83d
00000150: 1749 223d 6930 10be 4d85 033e ba47 993c
00000160: b0fc f63d 0d25 a43d 833a 5dbc 20f5 a4bc
00000170: aca7 6ebd c207 853d 6aa6 7bbd bc6d c13d
00000180: 08b1 903a 3889 2a3d fa0a 0b3e 89f4 28bc
00000190: 23fc db3c 9554 04be 50da b4bd cc1c 523b
000001a0: 4708 6a3d 3060 613d 39d6 713d c6a1 d13d
000001b0: 5458 55bd 9dda 89bd e2ed 3f3d 115f a7bd
000001c0: d7e5 b43d 2160 303d 1858 05bd 54ee 55bd
000001d0: bcb7 6dbd 0a67 e73d a302 563a 5484 17bd
000001e0: 1345 8f3d c8f7 16bc 04ac 97bc a1ac d23d
000001f0: 2f4f d4bd 816a f43d 2e98 66bc 58ab 95bd
00000200: e4d6 acbd 99e7 cdbd ae52 16bd 7a73 85bd
00000210: 8b60 e73d 1cc1 d73b e665 87bd bf76 7dbc
00000220: 760b ba3b 2a83 9e3c 5394 223d b219 06be
00000230: 9f34 eabd e3c5 8c3d 4311 fc3d 5723 f83d
00000240: fb70 45bc f826 93bc 575d 12be 84f6 e23d
00000250: fc56 b73d 8026 95bc
0.028210506 0.05004096 -0.1081941 0.11146252 0.041938692 0.01851302 0.13638723 0.0034276834
-0.12126831 -0.14932147 -0.01544714 0.094304845 0.057934575 -0.06685976 -0.118075915 -0.0894474
-0.0027403058 0.02332973 -0.1266997 0.036925003 0.050434895 -0.087634765 0.1326321 -0.15051539
0.11238469 -0.10593478 0.12694997 -0.121509254 -0.046735242 -0.05455618 -0.05411443 0.14189069
-0.062547676 -0.15096974 0.08001045 0.12289691 -0.061281215 -0.09465306 -0.027925072 0.037362188
-0.08194366 -0.05240708 -0.033337146 -0.06479731 -0.08779851 0.046191953 0.080147766 0.029331459
-0.07109961 -0.031547435 0.037277862 -0.06922076 0.017342906 0.03348495 -0.11605974 -0.056821994
0.124426335 0.04987918 -0.04253705 0.016357549 -0.14159116 0.07487508 0.064586475 -0.061390884
-0.06233216 -0.088022195 -0.0050914558 0.07336651 0.06018464 0.118670255 0.0058552576 0.12280571
0.077174336 -0.115127526 0.007904188 0.10894278 0.071084425 0.080638155 0.14673851 -0.010692051
0.0772474 0.06964796 0.03604982 0.105756395 0.039620485 -0.14080967 0.12843819 0.01871096
0.12059915 0.080148794 -0.01350272 -0.020136416 -0.058265373 0.0649562 -0.061438 0.09444758
0.0011039088 0.04163477 0.13578406 -0.010312208 0.026853627 -0.1292289 -0.08830702 0.0032060621
0.0571368 0.055023372 0.05904219 0.10235934 -0.05208619 -0.0673115 0.046857722 -0.08172429
0.08832901 0.043060426 -0.032554716 -0.05222924 -0.05803655 0.1129895 0.0008163845 -0.036991432
0.06995597 -0.009214349 -0.01851464 0.102868326 -0.103666656 0.119343765 -0.014074368 -0.07308072
-0.08439425 -0.10053939 -0.036699943 -0.06516166 0.11297711 0.0065842997 -0.066112325 -0.015470206
0.005677636 0.019349653 0.039692234 -0.1309574 -0.11435818 0.068736814 0.1230798 0.121161155
-0.012050862 -0.017962918 -0.14293419 0.110821754 0.08952138 -0.018206835

bias f4 [3]
00000000: 3261 96bc 2e36 783d 9ead dcbd
-0.018356893 0.060598545 -0.10775302

weight f4 [50]
00000000: a470 7d3f ae47 813f ae47 813f a470 7d3f
00000010: a470 7d3f 0000 803f 0000 803f ae47 813f
00000020: a470 7d3f ae47 813f ae47 813f ae47 813f
00000030: a470 7d3f 0000 803f a470 7d3f a470 7d3f
00000040: a470 7d3f ae47 813f 0000 803f a470 7d3f
00000050: a470 7d3f a470 7d3f ae47 813f ae47 813f
00000060: a470 7d3f 0000 803f ae47 813f ae47 813f
00000070: ae47 813f a470 7d3f ae47 813f ae47 813f
00000080: 0000 803f ae47 813f a470 7d3f ae47 813f
00000090: 0000 803f 0000 803f ae47 813f a470 7d3f
000000a0: a470 7d3f ae47 813f a470 7d3f a470 7d3f
000000b0: ae47 813f a470 7d3f ae47 813f ae47 813f
000000c0: 0000 803f a470 7d3f
0.99 1.01 1.01 0.99 0.99 1.0 1.0 1.01
0.99 1.01 1.01 1.01 0.99 1.0 0.99 0.99
0.99 1.01 1.0 0.99 0.99 0.99 1.01 1.01
0.99 1.0 1.01 1.01 1.01 0.99 1.01 1.01
1.0 1.01 0.99 1.01 1.0 1.0 1.01 0.99
0.99 1.01 0.99 0.99 1.01 0.99 1.01 1.01
1.0 0.99

bias f4 [50]
00000000: 0ad7 23bc 0ad7 233c 0bd7 233c 0bd7 23bc
00000010: 0ad7 23bc 0000 0000 0000 0000 0ad7 233c
00000020: 0ad7 23bc 09d7 233c 0ad7 233c 0bd7 233c
00000030: 0bd7 23bc 0000 0000 0ad7 23bc 0ad7 233c
00000040: 0ad7 23bc 0ad7 233c 0000 0000 09d7 23bc
00000050: 09d7 23bc 0ad7 23bc 0bd7 233c 0ad7 233c
00000060: 0ad7 23bc 0000 0000 09d7 233c 0ad7 233c
00000070: 0ad7 233c 0ad7 23bc 0ad7 233c 09d7 233c
00000080: 0000 0000 0bd7 233c 09d7 23bc 0ad7 233c
00000090: 0000 0000 0000 0000 0bd7 233c 0ad7 23bc
000000a0: 0ad7 23bc 0ad7 233c 09d7 23bc 0ad7 23bc
000000b0: 0ad7 233c 0ad7 23bc 08d7 233c 0ad7 233c
000000c0: 0000 0000 0ad7 23bc
-0.01 0.01 0.010000001 -0.010000001 -0.01 0.0 0.0 0.01
-0.01 0.009999999 0.01 0.010000001 -0.010000001 0.0 -0.01 0.01
-0.01 0.01 0.0 -0.009999999 -0.009999999 -0.01 0.010000001 0.01
-0.01 0.0 0.009999999 0.01 0.01 -0.01 0.01 0.009999999
0.0 0.010000001 -0.009999999 0.01 0.0 0.0 0.010000001 -0.01
-0.01 0.01 -0.009999999 -0.01 0.01 -0.01 0.009999998 0.01
0.0 -0.01

running_mean f4 [50]
00000000: 7e46 6f3d 9aec 94bc cda4 6dbd 0173 a43c
00000010: 3e09 1b3d 0a6f d33c 4011 6dbb bebe 863c
00000020: a65b 53bd a6aa 663d c512 fd3a 2a86 7f3c
00000030: c023 86bd 0ed2 a3bc 17a5 b4bc 6286 6ebc
00000040: d2f3 22bc 7469 113d 64ff ad3d a28f 453b
00000050: 8185 833c dbfa a93c 3194 40bd 1294 d23b
00000060: 3e28 303d f2f4 1b3d 8d1c 5e3d 7e3c 173c
00000070: 7532 373d e6d4 87bd a5ad 173d 5e79 a3bd
00000080: 9a7b 07bd 30f3 873c da94 a3bc 4039 113c
00000090: 3193 ba3c 4b71 b43c fad3 b13a 3bff 32bc
000000a0: 5c71 373d 27d4 47bd 0f3e 3f3d 002a adbd
000000b0: a500 783b 9066 57bc 2d85 8fbc 378d 923d
000000c0: a3f7 523d 7cb6 153d
0.058416836 -0.018179227 -0.058018494 0.02007437 0.03785061 0.025809783 -0.0036173612 0.016448375
-0.051601075 0.056315087 0.0019307962 0.015595952 -0.065497875 -0.019997623 -0.022051377 -0.014558407
-0.009945827 0.03550096 0.084959775 0.0030145426 0.01605487 0.0207495 -0.047016326 0.0064263428
0.043007128 0.038075395 0.054226447 0.009230731 0.044725854 -0.06632404 0.037030835 -0.07982133
-0.03307686 0.016595453 -0.019968439 0.008863747 0.022775264 0.022026679 0.0013567202 -0.0109251095
0.044785842 -0.04878631 0.046690043 -0.084552765 0.003784218 -0.013147011 -0.017519558 0.07155841
0.051505696 0.036550984

running_var f4 [50]
00000000: 6666 663f 6666 663f 6666 663f 6666 663f
00000010: 6666 663f 6666 663f 6666 663f 6666 663f
00000020: 6666 663f 6666 663f 6666 663f 6666 663f
00000030: 6666 663f 6666 663f 6666 663f 6666 663f
00000040: 6666 663f 6666 663f 6666 663f 6666 663f
00000050: 6666 663f 6666 663f 6666 663f 6666 663f
00000060: 6666 663f 6666 663f 6666 663f 6666 663f
00000070: 6666 663f 6666 663f 6666 663f 6666 663f
00000080: 6666 663f 6666 663f 6666 663f 6666 663f
00000090: 6666 663f 6666 663f 6666 663f 6666 663f
000000a0: 6666 663f 6666 663f 6666 663f 6666 663f
000000b0: 6666 663f 6666 663f 6666 663f 6666 663f
000000c0: 6666 663f 6666 663f
0.9 0.9 0.9 0.9 0.9 0.9 0.9 0.9
0.9 0.9 0.9 0.9 0.9 0.9 0.9 0.9
0.9 0.9 0.9 0.9 0.9 0.9 0.9 0.9
0.9 0.9 0.9 0.9 0.9 0.9 0.9 0.9
0.9 0.9 0.9 0.9 0.9 0.9 0.9 0.9
0.9 0.9 0.9 0.9 0.9 0.9 0.9 0.9
0.9 0.9

weight f4 [50, 4]
00000000: b0bf e6be 97ae 623e 7488 9e3e f4e5 8bbe
00000010: 6432 ddbe 4fd9 f83d 11db b0bd 2148 f5bd
00000020: f0f2 8bbe 7035 a33e f74b 673e e258 a9be
00000030: 47e9 eebd 9cf2 f23c 99d3 23be 7300 253d
00000040: cebc ed3e a609 d0bc 43a7 343e 17be 4b3e
00000050: 90ab 97be 4185 8fbd 175c 2a3e fa6f c73e
00000060: 004d b9be e294 93be 603f 823c c427 86be
00000070: efd0 dcbd a414 9b3e 517d 8fbd 5ea1 3a3d
00000080: e813 ef3e 9708 7a3e 9a52 aa3e 2c24 93be
00000090: 49a2 573e 0bdc 3d3e 8276 9a3e fb24 013f
000000a0: 18a5 da3e 1cea dbbe b040 00bf b65e e23e
000000b0: a769 373e 4dbf 153e cfd8 e7bd 4084 c4be
000000c0: ceed c1be 5adb aebe 6db4 4cbe 9657 8c3e
000000d0: 1451 d8be 4e8e f93e 126b d33e 2ca0 f03e
000000e0: 1f98 c43d dabd 9e3e 4d6b 1e3e 9e04 30bd
000000f0: 9142 fbbd 86ab a6be 86dd b23e 3315 7c3e
00000100: c8c0 d83e 09d4 913d a42c ab3e ee58 9fbe
00000110: 7884 a8be 4127 fb3d 219f 143e 9041 ab3e
00000120: d1b4 3bbe 0f12 39be b6f5 cd3e 79a5 b5bd
00000130: 6712 00bf d091 efbe 5254 243d 4493 ec3e
00000140: 6ac0 95be e9db 0d3e dcaa e9be 1e59 d83e
00000150: 2d08 563e 0e39 7a3d 8e09 a53e 3a1b fa3e
00000160: 065e a8bc c2cb fdbe 04b5 e53e efb4 893d
00000170: 12b7 a2be 6a04 ba3e 56ab 9bbe ca16 9d3e
00000180: 5808 cc3e 309e 823e f1c9 eb3d 6517 2e3e
00000190: 88c6 f3bd 2846 74be 02d4 ec3e 00df 22bc
000001a0: b0ab 59bd a04d 1cbe 507a 443d 0af7 9a3e
000001b0: b635 233c 8d8a 6f3e e7ea 6bbe a8ac 973e
000001c0: f05a 8d3e 16b3 83be 83f9 68be 4c6b e8be
000001d0: 624c ae3e 724b 06bd 1f0b bc3d 6330 6cbe
000001e0: e59c d5bc 3f1d 7ebe f004 193e 428a e1be
000001f0: 3e15 83be 0e98 d2be 64e5 a83e 945d a0be
00000200: 736d 3ebe dc84 6a3b 3a29 dc3c ff08 12be
00000210: b5ad 413e 3603 81be b449 1b3e 3266 eb3e
00000220: 1220 083d 5012 ebbe ea11 db3e ee8a f73e
00000230: 6c92 ce3e 4f42 c8bd 2023 14bd 12cc 003f
00000240: e95c 4d3e 194c f03d 1e94 863e 3501 503e
00000250: 7c0a 96be 57c4 c53d 40bb a93e 8aad b53e
00000260: 5fc9 c2bd 9a96 d73e e47b bebc 374d ec3d
00000270: c1ec 803d 39fc 7bbe 7c17 fa3e 068e 01bf
00000280: 5838 efbe 6352 1c3e ac96 8d3e 2578 26be
00000290: 14e7 903e d810 12be da45 d03e 37f5 54be
000002a0: 9cf3 d83e 68cd eebe d850 0bbb f27c b93e
000002b0: 2750 d63d 9125 03be 2847 ed3e 25c3 a2bc
000002c0: 045d eabe e10c 333e d349 51be f2b8 d7be
000002d0: 8e18 f83e 49d5 93bd 263d ccbe 0066 b53e
000002e0: 6257 973e af9b 67be a9ed 2b3e 6515 dd3c
000002f0: 4245 6f3d c42e 90be 2e25 f53e 06e2 a4be
00000300: aa1a f83e 215f c43d 9842 8f3e 09a1 edbd
00000310: c1af 7a3e fc2e e93e 3909 89bd c2d5 e4be
-0.4506812 0.22136913 0.3096348 -0.27323878 -0.43202507 0.12150823 -0.086355336 -0.11976648
-0.27333784 0.31876707 0.22587572 -0.33075625 -0.11665588 0.0296567 -0.15998687 0.04028363
0.4643311 -0.025395226 0.1764193 0.19896732 -0.2962308 -0.07007838 0.16636692 0.3895262
-0.3619156 -0.28824526 0.01589936 -0.26202214 -0.107820384 0.30289185 -0.07006324 0.045564048
0.46694875 0.2441734 0.33266145 -0.28738534 0.21058 0.18540971 0.3016854 0.5044705
0.42704082 -0.4295205 -0.50098705 0.44212884 0.17911397 0.14623757 -0.1132065 -0.3838215
-0.37876743 -0.34151727 -0.19990702 0.27410573 -0.42249358 0.48741382 0.41292626 0.469972
0.09599327 0.3100422 0.1547062 -0.042973153 -0.12268556 -0.32552737 0.34934634 0.24617462
0.4233458 0.071205206 0.33432496 -0.31122535 -0.32913566 0.122633465 0.14513828 0.33448458
-0.18330695 -0.18073295 0.40226525 -0.08869452 -0.5002808 -0.46790934 0.040119477 0.46206105
-0.29248363 0.1385342 -0.45638168 0.4225549 0.20901556 0.061089568 0.32233852 0.48848897
-0.020552646 -0.49569517 0.44864666 0.067239635 -0.31780297 0.36331493 -0.30404156 0.3068145
0.39850116 0.25511312 0.11513127 0.17001112 -0.11903101 -0.23854887 0.462555 -0.009940863
-0.05314225 -0.15263987 0.04796821 0.302666 0.009961536 0.23392697 -0.23038827 0.29623914
0.27608442 -0.2572257 -0.22751431 -0.4539436 0.3404265 -0.032786794 0.09181809 -0.23065333
-0.02607579 -0.24815844 0.1494329 -0.44050795 -0.25602144 -0.41131634 0.3298751 -0.31321394
-0.18596439 0.0035784757 0.026875127 -0.14261244 0.1891392 -0.25197762 0.15164834 0.45976406
0.03323371 -0.4591241 0.42787105 0.48348182 0.40346086 -0.09778272 -0.03616631 0.50311387
0.20054974 0.117332645 0.2628488 0.2031296 -0.29304874 0.096565895 0.33150673 0.35483962
-0.09511065 0.42107087 -0.023252435 0.11538165 0.06295157 -0.24607934 0.48846042 -0.50607336
-0.46722674 0.15265803 0.27654016 -0.16256769 0.283013 -0.14264238 0.40678293 -0.20796667
0.4237336 -0.46641088 -0.0021257903 0.36228138 0.104645066 -0.12807299 0.4634335 -0.019868443
-0.4577409 0.17485382 -0.20438318 -0.4213329 0.48456234 -0.07218415 -0.39890403 0.35429382
0.29558855 -0.22617982 0.16789879 0.02698774 0.05841566 -0.2816068 0.47879928 -0.32203692
0.48457843 0.09588457 0.27980494 -0.11602981 0.24481107 0.4554366 -0.06691212 -0.44694334

bias f4 [50]
00000000: 6419 cb3e 1018 e2be 087e ba3e 1f53 0fbe
00000010: 9268 36bd e871 b43e fd5b 2a3e b282 b2be
00000020: 928e 59bd 49a5 d43d c260 0ebd 9275 ca3e
00000030: 22a6 babe 548e 883e 5022 cd3d 994a 41be
00000040: b238 be3e ff7f 003f 8399 01bf 8902 6f3c
00000050: ed3a 18be 24c3 623e 0990 39be 4ca3 e23e
00000060: f787 333e 0cda 803e d20a ee3e 468e 933e
00000070: 0013 84be fd80 23be 2517 4abe 07f3 87bd
00000080: b0d7 8f3e 8c56 cf3e 7848 83be c79c 69be
00000090: 1131 5b3e 4af9 bebe 7c22 93be b7a4 a83d
000000a0: 5576 0dbe 726c ca3e c509 f43c a741 933d
000000b0: e8e9 d0be b682 803e 0af8 993e b481 813e
000000c0: f93f d8bd e77e 3e3e
0.3966781 -0.44158983 0.3642428 -0.13996552 -0.04453332 0.35243154 0.16636653 -0.34865338
-0.05311448 0.10383088 -0.034760244 0.39542824 -0.36454874 0.26671088 0.1001631 -0.18876113
0.3715263 0.50195307 -0.50624865 0.014588007 -0.14866228 0.22144753 -0.18121351 0.4426521
0.17532335 0.25166357 0.4649263 0.28819484 -0.25795746 -0.15967174 -0.19735391 -0.06638151
0.28094244 0.40495718 -0.25641227 -0.22813712 0.21405436 -0.37299567 -0.28737247 0.08234542
-0.13814671 0.39535862 0.029789815 0.071902566 -0.40803456 0.25099725 0.3007205 0.25294268
-0.10559077 0.18603097
