Models/deep_hedging_discretized_feedforward__2022-04-05-19-58-44.pt (torch, 573753 bytes, 800 tensors)

weight f4 [50, 4]
000000 a2 d9 d0 3e 70 5f 39 3d 74 6d 83 3e d0 75 0c 3d
       0.4079104 0.045257032 0.25669444 0.034292042
000010 40 3d 8c bc e0 6c 90 3d 30 d1 80 be 68 6e fc 3e
       -0.01711905 0.07052016 -0.25159597 0.49302983
000020 c8 28 0e be 30 45 a2 be 32 17 85 3e 44 5c 5c be
       -0.13882744 -0.3169341 0.2599426 -0.21519572
000030 d6 db d0 3e 28 d2 c9 3e 86 a7 b7 3e 2c d3 7a 3e
       0.40792722 0.3941815 0.35869998 0.24494618
000040 d0 0f 40 3d e6 b4 85 be 00 30 37 3e d8 d0 9d bd
       0.04689008 -0.26114577 0.17889404 -0.077058494
000050 8f ac dc bd 52 f2 db 3e 71 b9 42 3e 98 78 f0 3e
       -0.107751004 0.42958313 0.19016053 0.46967006
000060 7c ad 00 be 3c 0e 9f 3e 0c 5a 4f 3e ba 8c 9e be
       -0.12566179 0.31065547 0.20249194 -0.3096674
000070 14 b9 9a be 79 57 26 be 18 68 b2 be 3f 7b 01 3e
       -0.30219328 -0.16244306 -0.34845042 0.12644671
000080 a4 f0 eb be 06 75 b0 3e d2 f0 83 3e 14 61 31 be
       -0.46082032 0.34464282 0.2576967 -0.17322189
000090 8f d1 73 3e b6 b9 86 be 55 c9 6a be 07 2c 4e 3e
       0.23810409 -0.2631356 -0.22928365 0.20133983
0000a0 00 56 2f 3c 40 98 21 bc 86 dd fd 3e 20 5f 87 be
       0.010701656 -0.009862959 0.4958307 -0.26439762
0000b0 91 58 9e 3d a3 36 22 be 98 2b d8 3e 3c 7b 9d be
       0.077317365 -0.15841155 0.4222076 -0.30758083
0000c0 a7 eb 40 3e 80 4f 32 bd b8 99 cf 3e 2e 67 d8 3e
       0.18839894 -0.04353285 0.40546966 0.4226622
0000d0 a0 bf 7d be 44 f0 c8 be 64 ce 3e be 30 c9 a7 bd
       -0.2478013 -0.39245808 -0.1863342 -0.0819267
0000e0 fc 35 b6 3e 09 5c f9 3d 41 5c 8b 3d 89 40 a2 bd
       0.35588062 0.121757574 0.068047054 -0.07922465
0000f0 c8 fd 17 be f4 8a 6b 3e 3e 8c f0 3e 4c 4e 64 be
       -0.14842904 0.23002225 0.46981996 -0.22295493
000100 c0 3d 16 bc 20 30 e9 be 1c 71 d7 3e 60 31 1f bd
       -0.009169996 -0.4554453 0.42078483 -0.038865447
000110 94 d1 f6 3e 6a 02 91 be 3e 87 cc 3e c6 71 bd be
       0.4820677 -0.28322154 0.39946932 -0.37000865
000120 9c 24 da be 1a 30 aa 3e 60 e2 8b 3c 80 76 15 be
       -0.42606056 0.33239824 0.017075717 -0.14595985
000130 1a 03 88 be a0 08 82 be f0 0c a8 3d ca 04 df 3e
       -0.26564866 -0.25397205 0.08205593 0.4355834
000140 a0 1c 40 be 00 f8 29 3a 1e 5b 92 3e 60 2f 24 be
       -0.1876092 0.0006483793 0.28585142 -0.16033697
000150 16 92 c8 3e 38 6c a8 be 04 36 03 be 2c 81 56 3e
       0.39173955 -0.32895064 -0.12813574 0.20947713
000160 dc fe 50 be 80 f4 8a be 64 6d 40 3e 5e 2e d3 be
       -0.20409721 -0.27139664 0.18791729 -0.41246313
000170 80 1b d2 be 4e 31 ce 3e ec ce e2 3e 8c c7 88 be
       -0.41036606 0.40271991 0.44298494 -0.26714742
000180 22 f3 a0 be c8 c9 a7 bd f0 42 70 3d 0a 6d dd 3e
       -0.31435496 -0.081927836 0.058657587 0.43247253
000190 78 b0 c5 be b0 00 ab be 80 9d 60 3d 98 5f 74 be
       -0.38611197 -0.33398962 0.054837704 -0.23864591
0001a0 24 08 e5 be a4 c9 e6 3e d2 e0 f2 3e 98 44 b6 3e
       -0.44732773 0.45075715 0.4743715 0.35599208
0001b0 24 13 66 3e b9 bb 57 3e ee 29 bc be 20 7f ff 3d
       0.22468239 0.21067704 -0.3675074 0.12475419
0001c0 72 6f bb 3e 02 70 8c 3e 92 2a ff be b8 18 6d 3e
       0.36608464 0.27429205 -0.49837166 0.2315396
0001d0 76 a0 f1 3e 56 75 b1 3e 80 23 10 3d c0 ec 2d bd
       0.47192734 0.34659833 0.035190105 -0.04246211
0001e0 8a e6 b0 3e 6c 72 7a 3e 18 ab a8 bd a8 44 41 3e
       0.34550887 0.24457711 -0.082357585 0.18873847
0001f0 a0 a0 58 be 10 76 60 be 64 54 22 3e 26 1d 83 be
       -0.21155024 -0.21920037 0.15852505 -0.25608176
000200 9d 08 17 be 2c 87 c6 3e 59 b6 85 3d a4 34 f1 3e
       -0.1474938 0.38775003 0.06528921 0.47110474
000210 50 b2 68 3d d8 f1 de be 80 77 07 3c 90 24 37 bd
       0.056810677 -0.43543887 0.008268237 -0.044712603
000220 f8 49 c1 bd 90 57 99 bd c4 e8 99 be b4 0a 85 3e
       -0.094379365 -0.07487404 -0.300604 0.25984728
000230 32 d4 80 be 60 fe 28 be 78 1f cb be 90 9a ec be
       -0.25161892 -0.16503286 -0.39672446 -0.46211672
000240 2a d7 f2 3e 40 b7 bd be b8 f7 b7 3d 8a 53 f8 3e
       0.47429782 -0.3705387 0.089827955 0.48501235
000250 83 cd 50 3e 64 ff 8c 3e f1 24 73 be af 42 a0 3d
       0.20390896 0.27538598 -0.23744561 0.07825219
000260 04 df 1c 3e be 1c ef be f0 2d f8 3d ce 85 90 be
       0.15319449 -0.46701616 0.12118137 -0.28227085
000270 20 af 5d 3d 7a bd 8f 3e c2 0c a3 3e 58 53 d5 bd
       0.05412209 0.28074247 0.3184567 -0.10416287
000280 05 4d 33 3e 49 8c 0a 3e 61 5b 7b 3e eb e9 10 be
       0.1750985 0.13530077 0.24546577 -0.14151733
000290 f9 f9 2d 3e 22 16 b6 be ef c2 48 be f9 f0 11 3e
       0.16989888 -0.3556376 -0.19605611 0.1425208
0002a0 80 eb 19 3c 36 11 d0 3e e8 c0 c5 be 1c be 9e be
       0.0093945265 0.4063813 -0.38623738 -0.31004417
0002b0 90 20 5f 3e 8a 30 a2 3e ba 5e b4 be f6 45 ef be
       0.21789765 0.31677657 -0.3522852 -0.46733063
0002c0 10 5f d9 3d 80 f8 19 bc 17 bb a7 bd 40 d8 e0 be
       0.10613835 -0.009397626 -0.081899814 -0.43914986
0002d0 07 61 b5 bd 54 f2 dd be 4c 97 95 be e8 b0 18 be
       -0.08856397 -0.43348944 -0.29216993 -0.14911234
0002e0 a4 70 2a be 42 fd 8c 3e 56 6d a0 3e 10 81 51 3d
       -0.16644531 0.2753697 0.31333417 0.051148474
0002f0 b0 af e4 3e 9c 3d e3 be f2 0f fc 3e 0e 7d b0 be
       0.4466529 -0.44382942 0.49230915 -0.3447041
000300 30 75 92 bd 58 66 ea 3d bc 8b 59 3e ae 24 90 3e
       -0.07151258 0.11445302 0.2124471 0.28152984
000310 ff f2 8b 3d 42 14 68 3d ac 44 de be 40 bc ba be
       0.06833457 0.056659944 -0.43411767 -0.36471748

bias f4 [50]
000000 40 5f 18 3d 10 8e e1 3d 20 af bc 3c 80 ec 24 bc
       0.037200212 0.110134244 0.023032725 -0.010066152
000010 1a 72 e0 3e b5 d6 5e be 1c 0b c5 3e c2 5d dd be
       0.43837053 -0.21761592 0.38485038 -0.43235594
000020 dc 66 a4 3e 62 12 a3 be c0 9e 63 3c 3c 06 5f 3e
       0.32109725 -0.31849962 0.013892829 0.21779722
000030 df 67 72 3e bc 6f 2b be ae 51 f2 be 4e 26 fe 3e
       0.23672436 -0.16741842 -0.47327942 0.496386
000040 a0 10 82 be 26 d5 84 be 82 77 fa 3e de 22 be be
       -0.2540331 -0.2594387 0.48919302 -0.37135977
000050 40 17 53 3e f6 cd 96 be ac b6 e8 be d8 12 3d be
       0.20614338 -0.2945401 -0.45451868 -0.1846422
000060 a0 74 a2 bc b0 d0 e6 3d a8 45 72 3e 5e 0b a0 3e
       -0.019831002 0.11270273 0.23659384 0.31258672
000070 c4 92 7b be 78 dc d7 3d 1a b5 c6 3e 0a 29 cc 3e
       -0.24567705 0.10540098 0.38810045 0.3987506
000080 2b 96 18 be d0 91 64 be d8 1a d6 be 40 db 42 3e
       -0.14901035 -0.22321248 -0.41817355 0.1902895
000090 6c 94 6f 3e 79 ef 06 be 20 3f df bd 04 df 24 3e
       0.23396462 -0.13177289 -0.10900712 0.16100699
0000a0 dd 0a 7c 3e 8c 78 f7 be 80 93 db 3d 1e 76 d5 be
       0.24613519 -0.48334157 0.10721493 -0.4169168
0000b0 cc 66 ee be 58 55 a9 be 54 4f 9f 3e 06 4e e6 3e
       -0.46562803 -0.33072925 0.3111521 0.44981402
0000c0 2a 6d c3 3e a2 9c 8b 3e
       0.38169223 0.2726794

weight f4 [3, 50]
000000 6a 4b b8 bd 83 12 35 3d df f2 e6 3d c5 fe dc bd
       -0.08998759 0.044207107 0.11276793 -0.10790781
000010 48 f5 b3 bc 7a 7c f9 bd 0d a3 ab bb 5c f7 d1 3d
       -0.021967545 -0.12181945 -0.005237943 0.10252258
000020 04 2b 0b be bf de 0c bd 5f 11 96 3d e3 04 03 bd
       -0.13590628 -0.034392115 0.07327532 -0.031987082
000030 0e 44 bb 3d 4f 5d 47 3d 78 f3 0c 3d 47 6e 9f bc
       0.0914384 0.04867297 0.034411877 -0.019461764
000040 75 de 0b bd a9 9a f0 bc cc f7 4e bc cc 1f 9c bd
       -0.0341477 -0.029370623 -0.012632322 -0.07623252
000050 b1 f5 24 bd 01 d5 a4 3d 69 58 ca 3d f2 52 d4 3c
       -0.040273372 0.0804844 0.09880144 0.025918458
000060 d2 97 b1 3c 78 35 f8 bd 54 52 ec 3c c6 b2 f1 3d
       0.021678839 -0.12119573 0.02884785 0.118016765
000070 d5 81 7a bd 56 3e 10 bd d8 8e 0c 3e 34 f9 ae 3c
       -0.061158974 -0.0352157 0.13726366 0.021359064
000080 89 4c ce 3d 4d 22 1d bd 6a 80 02 be 7b 77 48 3c
       0.10073192 -0.03836279 -0.12744299 0.012235518
000090 6d f1 df bd 7d 38 91 bd a6 32 49 3d cb e5 05 be
       -0.1093472 -0.070908524 0.049120568 -0.1307594
0000a0 c8 b6 88 3d 27 6d f5 3d f9 b1 07 3e f2 89 fb bd
       0.06675488 0.1198371 0.13251485 -0.1228217
0000b0 ae bf 19 be 5e 98 88 bd c3 dc 35 3c 72 54 a2 bd
       -0.15014526 -0.06669687 0.011099997 -0.07926263
0000c0 67 7b cb 3d c1 75 f3 3d 35 f3 18 3d 1d 2e ad bc
       0.099356465 0.11887694 0.037341315 -0.021140153
0000d0 44 58 04 be 10 47 af 3d e9 9c a8 bc a4 bf da 3d
       -0.12924296 0.08558476 -0.020582633 0.10681084
0000e0 3c 2c 5d 3d dd cb 09 3d 49 a9 d6 bd b6 e5 cf 3d
       0.053997263 0.033641685 -0.10481507 0.10151236
0000f0 7d fb dd 3c 78 59 f7 3d f6 09 ef 3d 51 6d 98 bd
       0.027097458 0.12077612 0.11671822 -0.074427254
000100 d7 21 c9 bd b7 96 08 be 31 8c 43 bd f4 0f 45 bd
       -0.098209076 -0.13338743 -0.04774112 -0.048110917
000110 18 c3 16 3c e5 40 99 3d d9 48 25 bc 74 ff c2 bd
       0.009201787 0.07483081 -0.010088169 -0.0952138
000120 46 d2 f0 bd e2 1c e6 3d c5 0c ef bc 85 c5 71 3d
       -0.117588565 0.11235978 -0.029180894 0.05902626
000130 84 3d 70 bd d8 98 35 bd 87 70 03 3e 3b 4c 1b 3c
       -0.058652416 -0.044335216 0.12835895 0.009478624
000140 1f 63 1d bd 52 d7 a4 bc 2b 11 ec bd cf 45 fb 3d
       -0.038424607 -0.020122204 -0.11526712 0.12269174
000150 16 d1 d3 bd 7e 17 db 3d 20 0e a4 3d 70 db 34 bc
       -0.10342614 0.1069784 0.08010507 -0.011038646
000160 f8 21 a2 3c 83 68 e0 bd da 55 d8 3d de cb cf 3d
       0.019791588 -0.10957434 0.1056325 0.101463065
000170 a9 cf 58 bd dd 72 ff 3c 7e a6 bf 3d 8a 8b 06 bd
       -0.052932415 0.0311827 0.09357928 -0.03284792
000180 53 82 28 3c 9c fc e9 3d 44 77 8a 3c e8 55 35 bc
       0.010284978 0.114251345 0.016902573 -0.011067845
000190 9b de 81 3d 7d b8 2a bd 7b 9c 9c bd 49 77 93 bd
       0.06341287 -0.041679848 -0.07647034 -0.07200486
0001a0 cd e0 87 bd d2 db d1 3d 99 b0 8e 3d 91 c8 a2 bc
       -0.06634674 0.102470055 0.06967277 -0.019871028
0001b0 a5 6b d3 3d 98 0d 67 3d 1a e3 e9 3d 7a fe e7 bd
       0.10323266 0.05640945 0.11420269 -0.113278344
0001c0 1b d9 0b be 28 06 47 bd 0e 69 60 3d bf d7 59 bd
       -0.13657038 -0.048589855 0.054787688 -0.053184267
0001d0 20 2d f7 3d 40 22 0e bd 3b 7b ee 3d 1c 43 90 3d
       0.12069154 -0.034700632 0.11644598 0.0704405
0001e0 0f 8e 82 3d 6a a6 7b 3d 67 2d 47 bc 7e e6 ca bd
       0.06374752 0.061438 -0.012156821 -0.09907244
0001f0 11 83 2a 3d 73 03 09 3d a8 ac 0b 3e 5c 8e 7a 3c
       0.0416289 0.033450555 0.13640082 0.01529273
000200 78 e6 f1 bc f8 6c 40 bd 26 43 f8 3d 2c b3 af bd
       -0.029528841 -0.04697892 0.121221825 -0.08579096
000210 66 6b 3f 3d f1 61 d1 3d 73 0e 87 bc ba 79 46 3d
       0.046733283 0.10223759 -0.016486382 0.04845593
000220 b3 73 b7 3c 18 0a 00 3d f6 20 e1 3d c2 41 07 be
       0.022394037 0.031259626 0.10992615 -0.13208678
000230 9c c9 0b 3c a4 9f 9e 3d 9b b1 f1 bd 13 93 10 3e
       0.008531954 0.07745293 -0.11801454 0.14118604
000240 c0 09 10 bd 3c 59 a6 bd 77 90 be bc d1 0c d7 bd
       -0.03516555 -0.08122489 -0.023262246 -0.105004914
000250 5d 65 81 bd 42 7d 4c bd
       -0.06318162 -0.049924143

bias f4 [3]
000000 33 ed 29 3c 88 47 8f bc 1e 22 0f 3d
       0.010371494 -0.017490163 0.034944646

weight f4 [50]
000000 00 00 80 3f 00 00 80 3f 00 00 80 3f 00 00 80 3f
       1.0 1.0 1.0 1.0
000010 00 00 80 3f ae 47 81 3f 00 00 80 3f ae 47 81 3f
       1.0 1.01 1.0 1.01
000020 00 00 80 3f a4 70 7d 3f 00 00 80 3f ae 47 81 3f
       1.0 0.99 1.0 1.01
000030 ae 47 81 3f 00 00 80 3f ae 47 81 3f 00 00 80 3f
       1.01 1.0 1.01 1.0
000040 00 00 80 3f 00 00 80 3f 00 00 80 3f 00 00 80 3f
       1.0 1.0 1.0 1.0
000050 00 00 80 3f 00 00 80 3f 00 00 80 3f 00 00 80 3f
       1.0 1.0 1.0 1.0
000060 00 00 80 3f 00 00 80 3f 00 00 80 3f ae 47 81 3f
       1.0 1.0 1.0 1.01
000070 00 00 80 3f 00 00 80 3f 00 00 80 3f 00 00 80 3f
       1.0 1.0 1.0 1.0
000080 a4 70 7d 3f 00 00 80 3f 00 00 80 3f 00 00 80 3f
       0.99 1.0 1.0 1.0
000090 00 00 80 3f a4 70 7d 3f 00 00 80 3f 00 00 80 3f
       1.0 0.99 1.0 1.0
0000a0 ae 47 81 3f ae 47 81 3f 00 00 80 3f 00 00 80 3f
       1.01 1.01 1.0 1.0
0000b0 ae 47 81 3f a4 70 7d 3f 00 00 80 3f ae 47 81 3f
       1.01 0.99 1.0 1.01
0000c0 00 00 80 3f ae 47 81 3f
       1.0 1.01

bias f4 [50]
000000 00 00 00 00 00 00 00 00 00 00 00 00 00 00 00 00
       0.0 0.0 0.0 0.0
000010 00 00 00 00 0a d7 23 3c 00 00 00 00 09 d7 23 3c
       0.0 0.01 0.0 0.009999999
000020 00 00 00 00 0a d7 23 bc 00 00 00 00 09 d7 23 bc
       0.0 -0.01 0.0 -0.009999999
000030 0b d7 23 3c 00 00 00 00 0a d7 23 3c 00 00 00 00
       0.010000001 0.0 0.01 0.0
000040 00 00 00 00 00 00 00 00 00 00 00 00 00 00 00 00
       0.0 0.0 0.0 0.0
000050 00 00 00 00 00 00 00 00 00 00 00 00 00 00 00 00
       0.0 0.0 0.0 0.0
000060 00 00 00 00 00 00 00 00 00 00 00 00 09 d7 23 3c
       0.0 0.0 0.0 0.009999999
000070 00 00 00 00 00 00 00 00 00 00 00 00 00 00 00 00
       0.0 0.0 0.0 0.0
000080 0a d7 23 bc 00 00 00 00 00 00 00 00 00 00 00 00
       -0.01 0.0 0.0 0.0
000090 00 00 00 00 0a d7 23 bc 00 00 00 00 00 00 00 00
       0.0 -0.01 0.0 0.0
0000a0 0a d7 23 3c 0a d7 23 3c 00 00 00 00 00 00 00 00
       0.01 0.01 0.0 0.0
0000b0 0a d7 23 bc 09 d7 23 bc 00 00 00 00 0b d7 23 3c
       -0.01 -0.009999999 0.0 0.010000001
0000c0 00 00 00 00 0b d7 23 3c
       0.0 0.010000001

running_mean f4 [50]
000000 92 95 21 3c 0b ee 75 3d 1a aa a5 bc b2 2c dc 3c
       0.0098623205 0.06004147 -0.020222712 0.026876781
000010 9e 3a 14 3d c2 74 d8 3c cb 99 f6 3b 1a 3f 07 bd
       0.036188714 0.026422862 0.007525658 -0.033019163
000020 8d c1 54 3c a7 94 12 bc e6 2a c8 bc 66 68 09 bc
       0.012985599 -0.008946574 -0.024434518 -0.008386707
000030 27 37 8c 3d db d5 de bc 9a 7d 50 bd b3 71 e0 3c
       0.06846457 -0.027201584 -0.050901033 0.027397966
000040 42 61 f2 bc 42 71 76 bd 06 d0 04 3d 1a 2c 96 3b
       -0.029587392 -0.060166605 0.03242495 0.004582894
000050 80 1c 7b 3b da ff e2 bb 74 68 b4 bd f5 fd 3d bd
       0.0038316548 -0.0069274725 -0.08808985 -0.04638477
000060 8c 5a 21 3d 35 71 7a bc 55 60 6d 3d b5 02 38 3d
       0.039392993 -0.01528578 0.057953198 0.044924457
000070 66 02 12 3a ca 53 1d 3c 25 a0 75 3d 40 0f 53 3c
       0.00055698154 0.009602496 0.05996718 0.012882054
000080 ea ec fe 3c 0e 70 de bc b7 f5 89 bc 03 6f f0 bc
       0.031118829 -0.027153041 -0.016840799 -0.02934981
000090 48 d4 97 3d 90 ad fe ba 34 26 1f bd 0a 2f df 3b
       0.07413536 -0.0019430388 -0.038854793 0.0068110274
0000a0 a7 e9 21 3c 7c 33 0b bd 00 07 a4 bc d0 51 b2 bd
       0.009882367 -0.033984646 -0.02002287 -0.08707011
0000b0 bf 4b b8 bd 7f df 46 bd 40 c2 13 3d 4d 6c 54 3c
       -0.089988224 -0.048552986 0.036073923 0.012965274
0000c0 73 dc 87 3d 2e 5f 16 bc
       0.06633844 -0.009177966

running_var f4 [50]
000000 66 66 66 3f 66 66 66 3f 66 66 66 3f 66 66 66 3f
       0.9 0.9 0.9 0.9
000010 66 66 66 3f 66 66 66 3f 66 66 66 3f 66 66 66 3f
       0.9 0.9 0.9 0.9
000020 66 66 66 3f 66 66 66 3f 66 66 66 3f 66 66 66 3f
       0.9 0.9 0.9 0.9
000030 66 66 66 3f 66 66 66 3f 66 66 66 3f 66 66 66 3f
       0.9 0.9 0.9 0.9
000040 66 66 66 3f 66 66 66 3f 66 66 66 3f 66 66 66 3f
       0.9 0.9 0.9 0.9
000050 66 66 66 3f 66 66 66 3f 66 66 66 3f 66 66 66 3f
       0.9 0.9 0.9 0.9
000060 66 66 66 3f 66 66 66 3f 66 66 66 3f 66 66 66 3f
       0.9 0.9 0.9 0.9
000070 66 66 66 3f 66 66 66 3f 66 66 66 3f 66 66 66 3f
       0.9 0.9 0.9 0.9
000080 66 66 66 3f 66 66 66 3f 66 66 66 3f 66 66 66 3f
       0.9 0.9 0.9 0.9
000090 66 66 66 3f 66 66 66 3f 66 66 66 3f 66 66 66 3f
       0.9 0.9 0.9 0.9
0000a0 66 66 66 3f 66 66 66 3f 66 66 66 3f 66 66 66 3f
       0.9 0.9 0.9 0.9
0000b0 66 66 66 3f 66 66 66 3f 66 66 66 3f 66 66 66 3f
       0.9 0.9 0.9 0.9
0000c0 66 66 66 3f 66 66 66 3f
       0.9 0.9

weight f4 [50, 4]
000000 16 3c d6 be 00 e9 01 3c f8 aa af bd ac 9d 7b 3e
       -0.41842717 0.007929087 -0.085775316 0.24571866
000010 58 b2 b8 bd b4 b6 ab 3e 64 1c 77 3e 40 c7 3e bd
       -0.09018391 0.3353783 0.24131924 -0.04657674
000020 70 ce ad 3e 28 a5 0b bb 6f 4b 64 be f0 4c d1 be
       0.33946562 -0.0021308158 -0.222944 -0.4087901
000030 89 a0 e7 bd c9 4d 23 be ba 42 80 3e c0 af c4 3e
       -0.113099165 -0.15947641 0.25050908 0.38415337
000040 64 51 c6 be b2 ac 9c 3e 24 0d e6 be 92 61 35 bd
       -0.3873397 0.30600506 -0.449319 -0.044282503
000050 bc e7 d3 3e 66 ec d2 bc d8 7d 34 bb df 48 95 bd
       0.41387737 -0.02574749 -0.002754083 -0.0728929
000060 f4 c4 ef 3e 03 49 50 be 9f 35 08 3e f4 6b c3 be
       0.4682995 -0.20340352 0.13301705 -0.381683
000070 b3 42 6d 3d 07 c1 77 3e 4b d6 47 be 34 44 af 3e
       0.057924937 0.24194728 -0.1951534 0.34231722
000080 12 cc d7 3e c0 67 e9 be 2c c6 d4 3e 1a 93 cc be
       0.4214788 -0.45586967 0.41557443 -0.3995598
000090 af 17 94 bd d4 40 d0 be c4 e7 a3 3e 2b e8 62 be
       -0.0723108 -0.4067446 0.3201276 -0.22158878
0000a0 a8 30 36 be 34 66 66 be 90 26 c5 be 18 73 cc 3d
       -0.17791998 -0.22499925 -0.38505983 0.0998289
0000b0 20 06 c0 bd ec d0 38 be 88 6e e0 be 54 02 8e 3e
       -0.09376168 -0.18048447 -0.4383433 0.2773615
0000c0 6c a6 8b 3e ac b4 a0 be 80 da 93 3e f4 68 f0 be
       0.27275407 -0.31387842 0.2887764 -0.46955073
0000d0 8e 9b d1 3e 20 d4 e1 3e 78 3d a1 3e 9f 75 9f 3d
       0.4093899 0.4410715 0.3149221 0.07786106
0000e0 1a b0 bb be a6 f6 b9 3e 0e 8c e9 be 7e 4e fc be
       -0.36657792 0.3632099 -0.45614666 -0.49278635
0000f0 84 bc 9c 3e c0 3e 81 be 37 82 4f 3e 56 c4 d3 be
       0.30612576 -0.25243187 0.20264517 -0.4136073
000100 af 1d 07 be f8 ad f8 be 5f af 90 bd de 52 91 3e
       -0.13194917 -0.48570228 -0.070646994 0.28383535
000110 50 2f 81 be e0 47 88 3e 1c 89 06 be 64 ed d0 3e
       -0.2523141 0.26617336 -0.1313824 0.40806115
000120 1a da c5 be 64 5e c4 be e2 75 e9 be db f1 b2 3c
       -0.3864296 -0.38353264 -0.4559775 0.021843841
000130 fc 9f e6 be 5a a1 d5 3e 8c fb 5c be 00 f3 04 bb
       -0.45043933 0.41724664 -0.21580333 -0.002028644
000140 f0 a7 8c bd 58 22 b8 3e c0 01 58 3e 6d a7 2b be
       -0.06867969 0.35963702 0.21094418 -0.16763087
000150 60 15 f3 3e 1e 1d a7 3e f0 8e 6f be 3a ae 80 be
       0.47477245 0.32639402 -0.2339437 -0.25132924
000160 1c ff 92 3e e6 5d ea 3e 84 8a dc be 1c e2 ba be
       0.28710258 0.45774764 -0.4307443 -0.36500633
000170 e0 1f fc 3e 7a 5a f4 3e 2f 56 f1 3d e0 33 77 bd
       0.4924307 0.47725278 0.11784016 -0.060352206
000180 ed 09 69 3e bc 79 d8 be be b1 93 3e 85 61 3d 3e
       0.22757693 -0.42280376 0.28846544 0.18494232
000190 56 8e a7 be b4 b9 4c 3e 7e 04 cf 3e fc fd 00 3e
       -0.3272578 0.19992715 0.40433115 0.12596887
0001a0 a0 4e a1 3e ac 11 b8 be d4 e5 23 be ba 58 82 3e
       0.315053 -0.35950983 -0.16005641 0.25458318
0001b0 b6 bd 70 3c 0e 12 c4 be a8 dd 0d 3e 88 a2 f4 be
       0.014693668 -0.38295025 0.13854086 -0.47780252
0001c0 d8 92 01 bb ea a0 d8 be fd 54 6c 3e 51 7b b2 bd
       -0.0019771364 -0.42310268 0.23079295 -0.08714927
0001d0 89 39 cd bd f0 71 af 3e 50 e5 01 bf 09 53 c3 bd
       -0.100207396 0.34266615 -0.5074053 -0.09537322
0001e0 af 5d 00 bf 4c a9 09 be 8b b5 04 3e ba 55 ba 3e
       -0.5014295 -0.13443488 0.12959878 0.3639353
0001f0 4e e3 8b be 40 a0 35 bd d0 a2 dd 3d f0 7d 55 3d
       -0.27321857 -0.04434228 0.1082207 0.052122056
000200 78 2c b4 be ca 7a cb be b8 35 b3 3e 34 a8 dc be
       -0.35190177 -0.39742118 0.35001922 -0.4309708
000210 56 81 d1 be 0d 08 42 3e 2a 19 93 3e bf f1 76 3e
       -0.40918988 0.18948384 0.28730136 0.24115656
000220 a2 33 c1 be 40 0c 9f 3c 40 e7 7a bd 12 4e ac be
       -0.37734705 0.019415021 -0.061255693 -0.33653313
000230 f2 53 f3 be f3 cb 54 be a2 e6 bb be a4 77 d1 be
       -0.47524983 -0.20780925 -0.36699396 -0.4091159
000240 5c a2 c2 be ec ae 82 be 70 6a d2 3e 36 38 9d be
       -0.38014495 -0.2552408 0.4109683 -0.30706948
000250 f0 06 5b be a0 74 b1 be 78 ce 62 be 3c 83 ae be
       -0.21389365 -0.3465929 -0.22149074 -0.340845
000260 48 08 90 ba df 6f 9b bd df a7 05 3e ec 95 f1 3b
       -0.0010988796 -0.07589697 0.13052319 0.0073726084
000270 10 df ca bd 98 dc d2 3d f0 c6 de 3e 0d 33 25 3e
       -0.09905827 0.10295981 0.43511152 0.16132756
000280 d0 d2 4d 3d 58 b9 35 3e f0 5c be be e4 b0 d8 be
       0.050249875 0.17746484 -0.3718028 -0.42322457
000290 12 fe cd 3e b6 a4 fb 3e bd 99 76 be 2c b2 c5 3e
       0.40232903 0.49149102 -0.24082084 0.38612497
0002a0 db ed bf bc 6a e7 92 3e 70 4c f0 3d d6 dd e7 3e
       -0.023428848 0.2869218 0.11733329 0.45286435
0002b0 70 26 8d bd 5d 7d 06 3e 61 34 8d 3d e8 6d b5 bd
       -0.06892097 0.1313376 0.06894756 -0.088588536
0002c0 7c d7 c8 be 0c 55 a4 3e 3c 59 a2 3e f8 96 d9 bd
       -0.39226902 0.32096136 0.31708705 -0.10624498
0002d0 5c 5a c9 be 03 3f 07 3e 98 65 d5 3e 9e 48 b2 3e
       -0.3932675 0.13207631 0.41679072 0.34821028
0002e0 58 23 fd be 96 d2 c1 3e 72 7b 57 3d 41 93 76 3e
       -0.49441028 0.37855977 0.05260796 0.2407961
0002f0 88 db c8 3e 1f 17 a1 3d df 13 a3 bd 27 c5 5d be
       0.3922999 0.07865738 -0.079627745 -0.21657239
000300 48 31 ee bd 48 e7 e2 3e c8 5a c4 3d 74 b1 45 3e
       -0.116304934 0.4431708 0.09587628 0.19305974
000310 a4 5e 60 be f0 0a 63 3e d0 a1 c8 bd 40 9e 1b bd
       -0.21911103 0.22172141 -0.09796488 -0.037992716

bias f4 [50]
000000 20 07 de 3d 0a a3 cb be 67 80 68 be 80 e7 e7 3e
       0.10841203 -0.39772826 -0.22705232 0.45293808
000010 f2 9d 36 3d 20 10 e7 3e 04 7a e5 be ba a0 c8 be
       0.044584222 0.4512949 -0.44819653 -0.39185125
000020 23 a6 17 be b3 18 2f be ac 95 c8 3e aa 45 a6 3e
       -0.1480947 -0.17099266 0.3917669 0.32475024
000030 86 6b ba be 6d 4b 59 be 69 79 2e 3e 26 c0 b7 3e
       -0.3641016 -0.21220179 0.17038502 0.35888785
000040 2c bf be 3e 90 d8 5d 3e 38 87 c2 be 46 0e b1 be
       0.37255228 0.21664643 -0.3799379 -0.34581202
000050 b2 8e b2 3e be 21 fe 3e 90 cb a8 3e de 38 49 bd
       0.34874493 0.49635118 0.32967806 -0.0491265
000060 25 d1 13 3e 6a d2 bb be ba c3 e9 3e 4e 14 b9 be
       0.14435251 -0.3668397 0.4565714 -0.36148304
000070 1f 0d ef 3d cb ba 39 3e 42 ff b0 3e 54 a3 47 be
       0.116724245 0.18137662 0.34569746 -0.19495898
000080 08 48 bb be a6 2f fb 3e 38 1c c9 be be 5e 85 be
       -0.36578393 0.4905979 -0.39279342 -0.26048845
000090 bb ef db 3c e0 bb be be ef 6e 4d 3e 07 fa 7a be
       0.02684771 -0.37252712 0.20061849 -0.2450944
0000a0 06 e1 d9 be e8 0e d0 be 7f c9 26 be ce 32 f5 be
       -0.42554492 -0.40636373 -0.16287802 -0.47890323
0000b0 80 25 00 3d cb 84 02 be 83 5a 29 bd 83 4b 7c be
       0.031285763 -0.12745969 -0.041346084 -0.2463818
0000c0 f2 03 ed be ee 09 9a 3e
       -0.46292073 0.300857

weight f4 [3, 50]
000000 b2 7c 90 3d c5 68 36 3d 35 79 5e bc 33 57 0b 3e
       0.07055034 0.04453351 -0.013578703 0.13607483
000010 23 52 f3 bc c5 25 c7 bc 00 46 11 bd b8 c3 5e 3d
       -0.029702252 -0.024310002 -0.035467148 0.05438587
000020 9c b5 64 3d 17 42 f5 3d f1 08 08 bc ea f7 49 bd
       0.05583726 0.11975496 -0.008302913 -0.049308695
000030 9c 55 04 bd 8b 80 f7 bd cb b1 d0 bd 92 a7 67 3c
       -0.032308206 -0.120850645 -0.10190161 0.014139073
000040 d9 ee a5 3d b6 30 83 3c 03 03 cb bc 01 17 50 3d
       0.08102197 0.016014438 -0.02478171 0.05080319
000050 19 c9 08 bd e4 5d a9 bd f8 bc 0e bd 6a b6 ae bd
       -0.033394907 -0.08269861 -0.034848183 -0.085308865
000060 dc fb 6c 3d 70 d3 bc 3d 90 f6 92 3d 78 95 cb 3b
       0.05785738 0.09220016 0.07175934 0.0062128864
000070 f8 0d d8 3c c4 a1 e9 bb 23 47 f9 3d c0 ce cb 3d
       0.026373848 -0.0071298797 0.121717714 0.09951544
000080 b0 e3 88 3a d0 f3 00 be d1 1b 0b be bc 90 99 3d
       0.0010443833 -0.12593007 -0.1358483 0.07498309
000090 9a 1b da 3d 8d dd d1 bd d9 58 3e bc 7a 25 ba 3d
       0.10649796 -0.102473356 -0.011617863 0.09089179
0000a0 17 7d e1 bd ec 87 a4 3d 0a 55 43 bd 45 fe d3 3c
       -0.11010187 0.080337375 -0.04768852 0.025878081
0000b0 bb f4 83 bd 6e 50 51 bd e6 4b cc 3d 20 17 89 3d
       -0.06443163 -0.051102094 0.09975414 0.06693864
0000c0 1c 63 ce 3d dd 54 3f 3d e8 d2 bf 3d af 0d 77 3c
       0.10077497 0.04671179 0.09366399 0.015078946
0000d0 44 42 26 bd f9 09 b6 bd 17 a4 f0 3d c6 aa 0d be
       -0.04059054 -0.08888621 0.11750048 -0.13834676
0000e0 b6 bb 50 bd 10 07 c0 3d e2 f8 c3 bd 53 c5 f7 bc
       -0.050960265 0.09376347 -0.09568955 -0.030245459
0000f0 55 74 1c 3d 49 49 d4 3d fa ce bb 3d 78 12 de bc
       0.03819688 0.103655405 0.09170337 -0.027108416
000100 48 5b 3d 3d 78 ff b6 3d b6 5c 1b bd d4 a6 9f bd
       0.04622963 0.089354455 -0.037930213 -0.07795492
000110 2b fa cb 3d b6 ad 05 3e 4a cb 16 3c c3 7a f8 3d
       0.09959825 0.13054547 0.009203741 0.1213279
000120 60 22 4e bd ea 47 e1 3d 94 ed 3d 3c ba 1e 08 3e
       -0.05032575 0.11000045 0.011592288 0.13292971
000130 64 da 02 be ae 6c 28 3c 00 27 cc bd 4a e1 07 bd
       -0.12778622 0.0102798175 -0.09968376 -0.033173837
000140 b6 6f a2 3c e9 03 f3 3d 3a 86 01 bc 48 c9 62 3c
       0.019828659 0.1186598 -0.007905537 0.0138419345
000150 bb 12 e3 3d 3f 6d ec 3d 63 cf d7 3d 8e 17 01 3e
       0.11087557 0.115442745 0.10537603 0.12606642
000160 18 40 03 be da 78 ae 3d 62 15 76 3d ac 10 3d bd
       -0.12817419 0.08519144 0.060078986 -0.046158478
000170 38 ba b4 3a 12 ee 4d bd d4 98 c9 bd 9c b8 26 3d
       0.0013788408 -0.05027587 -0.09843603 0.0407034
000180 9b 70 8f 3d ac 84 7f bd bf 9a 87 3d d0 f5 26 3d
       0.070039 -0.062382385 0.06621312 0.04076177
000190 01 a8 f2 bd 55 9d 96 3d ba e6 52 bc be fa 52 3d
       -0.118484505 0.073542275 -0.012872392 0.051508658
0001a0 3e 7c 10 be 99 18 fb 3d ee 7b 6f 3d 32 57 0e bb
       -0.14109895 0.12260551 0.058467798 -0.0021719453
0001b0 44 ba bb 3d b0 a2 e1 3b f6 f3 8e 3c c0 b0 03 3e
       0.09166387 0.006885849 0.017450314 0.12860394
0001c0 dd 63 cb bd 20 b4 9b 3d 95 35 21 3b 74 a4 03 3e
       -0.09931157 0.076027155 0.0024598588 0.12855703
0001d0 5f 0a 27 3d e1 19 b9 bd 9e 4d 1c 3c 82 5a fb 3c
       0.040781375 -0.09038139 0.00953999 0.030682806
0001e0 c4 b4 e9 3c 69 71 03 3d c0 56 08 be 0d 60 03 3d
       0.028528579 0.03209058 -0.13314342 0.032074023
0001f0 6e e9 db 3d 35 5b b0 3d 5e 11 ba 3d b0 b2 9f bd
       0.107378826 0.08611146 0.09085344 -0.07797754
000200 e5 ce 94 bd 4f 9e 92 bd b3 03 90 bb 6e 3d 02 be
       -0.072660245 -0.07159101 -0.004394972 -0.12718746
000210 05 f4 ac 3c c0 bb b3 bd 97 b2 2d bd 87 3c 9a bd
       0.021112451 -0.08776045 -0.042406645 -0.07531076
000220 1a 94 1a bc e2 35 09 3d 18 d5 d4 3c f1 51 f2 3d
       -0.009434724 0.033498652 0.025980517 0.11832035
000230 b9 cf 55 bb ca b3 09 be 27 6a 5c 3d 81 2b 0f 3d
       -0.0032625033 -0.1344749 0.053812172 0.034953598
000240 11 46 b5 bd 61 3a 10 3d 0f 14 3f 3d f9 e9 0b be
       -0.08851255 0.035211924 0.04664999 -0.13663472
000250 89 66 9b bd d2 d6 09 be
       -0.075879164 -0.13460854

bias f4 [3]
000000 f4 9a 54 bd 4e a0 df 3d 36 72 57 3d
       -0.051905587 0.109192476 0.052599154

weight f4 [50]
000000 00 00 80 3f 00 00 80 3f ae 47 81 3f ae 47 81 3f
       1.0 1.0 1.01 1.01
000010 ae 47 81 3f a4 70 7d 3f a4 70 7d 3f ae 47 81 3f
       1.01 0.99 0.99 1.01
000020 ae 47 81 3f ae 47 81 3f 00 00 80 3f 00 00 80 3f
       1.01 1.01 1.0 1.0
000030 a4 70 7d 3f a4 70 7d 3f a4 70 7d 3f a4 70 7d 3f
       0.99 0.99 0.99 0.99
000040 ae 47 81 3f 00 00 80 3f ae 47 81 3f 00 00 80 3f
       1.01 1.0 1.01 1.0
000050 ae 47 81 3f 00 00 80 3f a4 70 7d 3f a4 70 7d 3f
       1.01 1.0 0.99 0.99
000060 a4 70 7d 3f 00 00 80 3f a4 70 7d 3f a4 70 7d 3f
       0.99 1.0 0.99 0.99
000070 ae 47 81 3f a4 70 7d 3f a4 70 7d 3f 00 00 80 3f
       1.01 0.99 0.99 1.0
000080 a4 70 7d 3f ae 47 81 3f 00 00 80 3f ae 47 81 3f
       0.99 1.01 1.0 1.01
000090 ae 47 81 3f 00 00 80 3f ae 47 81 3f ae 47 81 3f
       1.01 1.0 1.01 1.01
0000a0 00 00 80 3f a4 70 7d 3f ae 47 81 3f a4 70 7d 3f
       1.0 0.99 1.01 0.99
0000b0 00 00 80 3f ae 47 81 3f a4 70 7d 3f ae 47 81 3f
       1.0 1.01 0.99 1.01
0000c0 00 00 80 3f 00 00 80 3f
       1.0 1.0

bias f4 [50]
000000 00 00 00 00 00 00 00 00 09 d7 23 3c 0a d7 23 3c
       0.0 0.0 0.009999999 0.01
000010 0a d7 23 3c 0a d7 23 bc 0a d7 23 bc 09 d7 23 3c
       0.01 -0.01 -0.01 0.009999999
000020 0b d7 23 bc 0a d7 23 3c 00 00 00 00 00 00 00 00
       -0.010000001 0.01 0.0 0.0
000030 0a d7 23 bc 0a d7 23 bc 0a d7 23 3c 09 d7 23 bc
       -0.01 -0.01 0.01 -0.009999999
000040 09 d7 23 3c 00 00 00 00 0a d7 23 3c 00 00 00 00
       0.009999999 0.0 0.01 0.0
000050 0a d7 23 3c 00 00 00 00 0a d7 23 bc 0a d7 23 bc
       0.01 0.0 -0.01 -0.01
000060 09 d7 23 bc 00 00 00 00 0a d7 23 bc 09 d7 23 bc
       -0.009999999 0.0 -0.01 -0.009999999
000070 0a d7 23 3c 0a d7 23 bc 0a d7 23 bc 00 00 00 00
       0.01 -0.01 -0.01 0.0
000080 09 d7 23 bc 0b d7 23 3c 00 00 00 00 0a d7 23 3c
       -0.009999999 0.010000001 0.0 0.01
000090 0a d7 23 3c 00 00 00 00 0b d7 23 3c 0a d7 23 bc
       0.01 0.0 0.010000001 -0.01
0000a0 00 00 00 00 0a d7 23 bc 0a d7 23 3c 0a d7 23 bc
       0.0 -0.01 0.01 -0.01
0000b0 00 00 00 00 0a d7 23 bc 0a d7 23 bc 0a d7 23 3c
       0.0 -0.01 -0.01 0.01
0000c0 00 00 00 00 00 00 00 00
       0.0 0.0

running_mean f4 [50]
000000 0b fe 03 3d ce 18 36 bd 94 de 82 bd ae 71 af 3d
       0.032224696 -0.04445725 -0.0639011 0.085666046
000010 6b 34 81 bb 67 56 1e 3d 04 2d a2 bd 82 01 ab bb
       -0.0039430163 0.03865662 -0.07918742 -0.0052186856
000020 b2 f8 52 bd 1a a0 27 bd 4c 08 40 3d 65 1a 6f 3d
       -0.051506706 -0.04092417 0.046882913 0.05837478
000030 00 45 a5 bd 0a bd fa bb f3 ee 17 bd 39 78 2b bb
       -0.08069801 -0.0076519297 -0.037093114 -0.0026164188
000040 1d f7 7f 3d 73 f0 76 3d 32 a2 1a bd 4e 30 1e bd
       0.062491525 0.060287904 -0.037752338 -0.038620286
000050 62 ad 94 3c 65 78 de 3c bb 70 9e bb 58 76 07 bc
       0.018149082 0.027157018 -0.004835216 -0.008267961
000060 c6 5f 08 3d a6 65 cf bc 0e 76 91 3d 59 88 a6 bd
       0.03329446 -0.025317024 0.07102595 -0.08131475
000070 e4 b1 b5 3b 24 fb 0b 3c 52 f7 86 3d e6 4e 82 bc
       0.005544888 0.008543763 0.06590141 -0.015906762
000080 76 74 aa bd 5a a7 91 3d 12 2b 9b bd 7e 25 90 bd
       -0.083229944 0.07111998 -0.075765744 -0.07038401
000090 d6 ff e0 bc 4e 52 96 bd b5 8e be 3c 31 9a 22 bc
       -0.027465742 -0.07339917 0.023261407 -0.009924457
0000a0 2a 40 af bd e0 af 90 3a da 81 dd 3c aa f2 6d bd
       -0.0855716 0.0011038743 0.027039457 -0.05809275
0000b0 cf b7 1a bc 11 1e 96 3c 11 49 87 3c 81 d6 3b bd
       -0.009443237 0.018324884 0.016514333 -0.045858864
0000c0 eb 35 e2 bc 4b 2f c8 3c
       -0.0276136 0.024436614

running_var f4 [50]
000000 66 66 66 3f 66 66 66 3f 66 66 66 3f 66 66 66 3f
       0.9 0.9 0.9 0.9
000010 66 66 66 3f 66 66 66 3f 66 66 66 3f 66 66 66 3f
       0.9 0.9 0.9 0.9
000020 66 66 66 3f 66 66 66 3f 66 66 66 3f 66 66 66 3f
       0.9 0.9 0.9 0.9
000030 66 66 66 3f 66 66 66 3f 66 66 66 3f 66 66 66 3f
       0.9 0.9 0.9 0.9
000040 66 66 66 3f 66 66 66 3f 66 66 66 3f 66 66 66 3f
       0.9 0.9 0.9 0.9
000050 66 66 66 3f 66 66 66 3f 66 66 66 3f 66 66 66 3f
       0.9 0.9 0.9 0.9
000060 66 66 66 3f 66 66 66 3f 66 66 66 3f 66 66 66 3f
       0.9 0.9 0.9 0.9
000070 66 66 66 3f 66 66 66 3f 66 66 66 3f 66 66 66 3f
       0.9 0.9 0.9 0.9
000080 66 66 66 3f 66 66 66 3f 66 66 66 3f 66 66 66 3f
       0.9 0.9 0.9 0.9
000090 66 66 66 3f 66 66 66 3f 66 66 66 3f 66 66 66 3f
       0.9 0.9 0.9 0.9
0000a0 66 66 66 3f 66 66 66 3f 66 66 66 3f 66 66 66 3f
       0.9 0.9 0.9 0.9
0000b0 66 66 66 3f 66 66 66 3f 66 66 66 3f 66 66 66 3f
       0.9 0.9 0.9 0.9
0000c0 66 66 66 3f 66 66 66 3f
       0.9 0.9

weight f4 [50, 4]
000000 1f 4f 93 3d da a4 d9 be 8d 14 51 3e be a4 f1 3e
       0.071928255 -0.42508584 0.20417996 0.47196
000010 97 46 bc 3d be c5 9d 3e 78 92 85 3e 6d c5 24 be
       0.091931514 0.30814928 0.2608831 -0.16090937
000020 ae b5 b7 be 90 e6 b2 3e 8c a9 83 be 06 2d a9 be
       -0.35880798 0.3494153 -0.25715292 -0.33042163
000030 3e 4c c1 be bb f5 18 be 57 74 70 be 6d 4f 2f 3e
       -0.3775348 -0.14937489 -0.2348188 0.17120142
000040 35 9a 3d be 01 d8 01 3f 8a 63 21 3c 3c c9 b9 3e
       -0.18515857 0.5072022 0.009850392 0.36286342
000050 f9 9b cc bd ae a7 c8 3e 11 f5 9d bd f8 da 61 be
       -0.09990687 0.3919043 -0.07712758 -0.22056186
000060 2a 66 a2 be 8b 00 6b 3e 8d f6 75 3e d8 5d eb 3e
       -0.3171857 0.22949426 0.24019833 0.45970035
000070 90 d6 97 be d5 7d 5d be a4 54 ae be 5a a5 b3 3e
       -0.29655886 -0.21630032 -0.3404895 0.3508709
000080 15 d3 43 3e cc ae e8 be d9 f6 5e 3e ef 19 d4 bd
       0.1912349 -0.4544586 0.21773852 -0.10356509
000090 ef ad c6 3d c7 75 28 3e 04 3c e7 be 40 7b c7 3e
       0.09701144 0.16451178 -0.45162976 0.3896122
0000a0 38 ac 87 be fe f1 e6 be 02 d1 73 bd 49 b9 2b be
       -0.2649858 -0.451065 -0.059525497 -0.167699
0000b0 b2 8c 35 bd 2e 91 a0 be 2e c3 25 3d a5 81 df 3c
       -0.04432363 -0.31360763 0.04046934 0.027283499
0000c0 39 82 31 be 72 48 cf be 4c 62 be 3e 10 1b ba be
       -0.17334832 -0.4048496 0.3718437 -0.36348772
0000d0 d2 2c 96 3e 16 b7 eb 3e 42 9e 5f 3d 4e 49 4d bd
       0.2933107 0.4603812 0.054594286 -0.050118737
0000e0 81 6b e0 3d 17 05 a9 3d e0 8f f3 3e e2 ae 31 3d
       0.10958005 0.08252924 0.47570705 0.043379672
0000f0 8d 45 4f 3e 07 72 20 3e 6e 23 9f 3e 38 cb 80 3e
       0.20241375 0.15668498 0.31081718 0.25155044
000100 22 15 96 be bc 72 a2 3e 48 34 b1 be a2 35 8c be
       -0.29312998 0.3172816 -0.346102 -0.2738467
000110 00 22 d8 bd 25 d7 bb 3c 28 32 56 bb 34 b1 e0 3e
       -0.1055336 0.022929737 -0.0032683704 0.43885195
000120 d4 3e 8d be f2 4a e1 be 91 45 e7 bd 38 bc ca 3e
       -0.27586997 -0.4400249 -0.112925656 0.39596725
000130 d0 5f ce 3d 48 81 20 3e f7 6f d2 bd 6b 22 36 be
       0.100768685 0.15674317 -0.10275262 -0.17786567
000140 95 03 60 3e 1f 50 9d bd 92 40 84 3e f6 bd e8 3e
       0.21876366 -0.076812975 0.25830513 0.4545743
000150 26 8f 8a 3e 91 69 19 be 22 b2 40 3d e6 d1 99 3e
       0.2706234 -0.14981677 0.04704488 0.30042952
000160 f2 28 b3 3e fb 5e 34 be 00 24 e3 3e f2 54 87 be
       0.34992176 -0.17614357 0.44363403 -0.26431996
000170 00 46 78 bb 61 d2 35 be 74 99 c7 be 34 f6 9c 3e
       -0.003788352 -0.17756034 -0.38984263 0.30656588
000180 14 26 ec be 0b 58 04 3e 74 28 b6 be 6d c6 6b 3e
       -0.461228 0.1292421 -0.35577738 0.23024912
000190 2c 33 b3 be 10 6a a8 3e 96 8f 90 3e 21 3a ab 3d
       -0.3499998 0.3289342 0.28234547 0.083606966
0001a0 4f 04 15 3e 8f bd ed bd 4a f0 1f bc 18 84 9f 3e
       0.14552425 -0.11608421 -0.009761879 0.31155467
0001b0 f7 ae 9a 3d a6 c8 b7 3e 15 e0 0b be fe d5 e9 3e
       0.07552903 0.3589527 -0.136597 0.45671076
0001c0 f7 d8 16 3e f2 e9 c3 3e 27 6d 9e 3d f2 48 7f bd
       0.14731203 0.38264424 0.07735663 -0.062325425
0001d0 04 b4 91 3e a7 8e e5 bd ac b8 c8 3e 1f e5 32 be
       0.28457654 -0.112088494 0.39203393 -0.17470215
0001e0 e7 15 a4 bd 72 08 ec 3e 72 ab f9 be bf 16 ee bd
       -0.0801199 0.46100193 -0.48763615 -0.11625432
0001f0 88 51 b8 be 0b 7e 11 be 4b 30 5d 3e e4 cc bf be
       -0.35999703 -0.14208238 0.21600454 -0.37461007
000200 a2 bd 59 bd 30 43 aa be 79 88 63 be f2 7e 2b bd
       -0.053159364 -0.33254385 -0.22220029 -0.04186911
000210 65 f3 8b 3c b2 86 85 3e 58 2b f8 be a0 58 aa 3e
       0.017083833 0.26079327 -0.4847057 0.3327074
000220 02 c0 bf 3e b1 6d 01 3e fa fe e1 be 3d 35 0e bd
       0.37451178 0.126395 -0.44139844 -0.03471874
000230 a4 de b6 3e a7 e5 62 be 70 d4 83 be 46 33 86 be
       0.35716736 -0.22157918 -0.25748014 -0.26210994
000240 e5 7e 2f 3e 9e 00 b0 be 8f 0d 02 bf 6d 68 21 be
       0.1713825 -0.3437547 -0.5080194 -0.15762492
000250 3e 54 10 3d 1f fe b8 3d 91 32 ba bd 0f 6a bc 3d
       0.03523659 0.09032845 -0.09091676 0.091999166
000260 82 7c ec be 03 ca 12 be 3b be f3 3c ee 12 f3 3e
       -0.46188742 -0.14334874 0.029753795 0.4747538
000270 44 fe f8 be fe 22 b8 3e dc a2 c4 be a0 6b cf be
       -0.4863149 0.35964197 -0.38405502 -0.405118
000280 fc 2a 50 3e ae f0 89 be 6e 0c 95 be 3c b3 fb 3e
       0.20328897 -0.26941437 -0.29111046 0.49160182
000290 76 3d dc be 62 a5 f5 3e 8e 4a cd be 9d 63 09 be
       -0.4301564 0.4797774 -0.40095943 -0.13416906
0002a0 76 c1 6b bc a0 a2 ae be 1e d2 ac 3e fc 3a e2 3e
       -0.014389386 -0.34108448 0.33754057 0.44185627
0002b0 53 11 28 be 03 73 77 3e 46 cf 9f 3e ee ec f1 be
       -0.16412859 0.24164967 0.31212825 -0.47251076
0002c0 bc a3 37 3e ca 8a 74 3c cf 58 d8 bd a1 ff e7 bd
       0.17933553 0.014925668 -0.10563814 -0.11328054
0002d0 5a d7 a0 be 08 6c c4 bd d0 0e ec be a6 b8 b4 be
       -0.314143 -0.09590918 -0.4610505 -0.35297126
0002e0 25 70 97 bc 39 20 b1 3d ce e3 cb 3e 30 1f a7 be
       -0.018486092 0.08648724 0.3982224 -0.32640982
0002f0 50 eb b7 be 0c 08 d7 3e 1c 02 70 be 5a be f1 3e
       -0.35921717 0.41998327 -0.23438305 0.4721554
000300 a0 9b f0 bc fe fd e1 3e 1a b6 c6 be 2c 8a c5 3e
       -0.029371083 0.44139093 -0.38810807 0.3858198
000310 b0 3e ea 3e 52 de ab be af 24 21 be 7d 50 09 be
       0.45750952 -0.33568054 -0.1573665 -0.1340961

bias f4 [50]
000000 ff 87 eb 3d fe 55 23 bd 54 87 82 be 59 b6 a3 3d
       0.115005486 -0.03987693 -0.25493872 0.079937644
000010 22 10 04 3d d2 d2 ed 3e aa bd f0 be 57 9c 17 be
       0.032241948 0.46449906 -0.47019702 -0.14805733
000020 7c 4a ca be 6b 13 1c 3e e3 e3 46 3e a1 b4 21 3e
       -0.39509952 0.15241782 0.1942287 0.1579156
000030 3e c2 99 be e3 47 22 be 18 1f 90 be 78 26 d6 be
       -0.30031008 -0.15847735 -0.28148723 -0.41826224
000040 bd 0e 4c 3e 4f e9 a0 bd ae 64 f1 3e d1 19 62 3e
       0.19927497 -0.07857 0.47147125 0.2208016
000050 a6 a1 93 be 49 81 fe bd 85 a2 6b be c5 12 6b be
       -0.28834265 -0.12427003 -0.23011215 -0.22956379
000060 b3 45 6a 3e c2 b3 a4 3e 57 72 52 3e f2 c2 ca be
       0.2287815 0.32168394 0.2055143 -0.39601856
000070 7a 5f f0 3e b6 05 fa be d0 be fa 3e 16 c2 d9 be
       0.46947843 -0.48832482 0.48973703 -0.42530888
000080 8e 00 8c be 67 2f 28 be 3b 33 22 be 9a 52 b9 3e
       -0.27344173 -0.16424333 -0.15839855 0.36195832
000090 82 a1 c0 3e 5f ce d6 3d 46 dd e7 be 7a c6 9f 3e
       0.3762322 0.10488581 -0.45286006 0.31206113
0000a0 ae b7 02 bd 30 f2 b5 be 36 39 05 3c 44 b9 c0 be
       -0.03191345 -0.35536337 0.008131316 -0.37641346
0000b0 09 18 13 3e 90 ea 8a 3e 79 ff 24 3e c0 8b 88 3e
       0.14364637 0.27132082 0.1611308 0.2666912
0000c0 39 04 03 3e 02 55 f4 3e
       0.1279458 0.47721106

weight f4 [3, 50]
000000 5f 85 06 3c 75 18 f6 3c 1c 9f b4 bd 1c 9e 06 3e
       0.008210509 0.030040959 -0.0881941 0.13146251
000010 6e b3 7d 3d 23 94 e9 3c 89 e6 15 3e 6a eb bf 3c
       0.061938696 0.02851302 0.14638723 0.023427684
000020 a4 a8 10 be d8 6c 04 be ff 15 7d bc 24 2d 98 3d
       -0.14126831 -0.12932146 -0.015447139 0.07430485
000030 48 61 1b 3d a6 68 9d bd c6 63 0d be f5 25 e0 bd
       0.03793457 -0.07685976 -0.13807592 -0.1094474
000040 34 64 8d 3c 84 7a 31 3d 41 00 ef bd 32 2a 69 3d
       0.017259695 0.04332973 -0.1166997 0.056925006
000050 9c 52 f9 3c 9d 6f dc bd aa ab e6 3d d3 a5 05 be
       0.030434899 -0.10763476 0.11263211 -0.13051538
000060 da 8f 07 3e 74 79 c4 bd 95 08 db 3d 16 e4 cf bd
       0.13238469 -0.09593478 0.10694996 -0.10150926
000070 74 6d 3f bd e9 b0 98 bd 94 bb 0b bd d3 a1 f9 3d
       -0.046735242 -0.07455618 -0.034114435 0.12189069
000080 3c 3c 57 bd ee 1c 06 be 47 d2 cc 3d 9e bb d2 3d
       -0.05254768 -0.13096973 0.10001045 0.102896914
000090 40 0c 52 bd 96 5e ad bd 29 d8 01 bc 9d f4 6a 3d
       -0.051281214 -0.084653065 -0.007925072 0.057362188
0000a0 a4 b8 7d bd 49 bd 04 bd 0c 78 5a bd 36 aa ad bd
       -0.061943665 -0.03240708 -0.053337142 -0.08479731
0000b0 f3 d9 8a bd a5 8f 87 3d 82 5d 76 3d c8 0f 4a 3d
       -0.06779852 0.06619195 0.06014777 0.049331456
0000c0 96 43 7a bd 68 23 53 bd ac b0 18 3d 9d c3 8d bd
       -0.06109961 -0.051547438 0.037277862 -0.06922076
0000d0 c8 9c f0 3b 84 27 09 3d ce 15 01 be 6c c8 3f bd
       0.0073429085 0.03348495 -0.12605974 -0.046821997
0000e0 3c d3 fe 3d 2f c5 f4 3c 54 3b 2e bd fc 52 d0 3b
       0.124426335 0.02987918 -0.04253705 0.0063575488
0000f0 46 fd 10 be 1b 58 99 3d ea 45 84 3d 62 35 92 bd
       -0.14159116 0.07487508 0.064586475 -0.07139088
000100 02 50 7f bd fb 44 b4 bd 27 42 77 bc 2e 41 96 3d
       -0.06233216 -0.088022195 -0.015091456 0.07336651
000110 2b 84 76 3d 64 09 f3 3d 74 dd bf 3b 8f 81 fb 3d
       0.06018464 0.118670255 0.0058552567 0.12280571
000120 94 0d 9e 3d fb c7 eb bd 92 80 01 3c 83 a2 ca 3d
       0.077174336 -0.115127526 0.007904189 0.09894278
000130 b6 94 91 3d 9e 25 a5 3d bd c7 01 3e b7 2d 2f bc
       0.071084425 0.080638155 0.1267385 -0.010692052
000140 e3 33 9e 3d 97 a3 8e 3d fa a8 13 3d 0d a1 af 3d
       0.0772474 0.06964796 0.03604982 0.0857564
000150 a9 a6 f2 3c 69 30 10 be b9 8f f2 3d 3f 33 eb 3c
       0.029620485 -0.14080967 0.11843819 0.02871096
000160 b0 fc f6 3d 2c aa 8f 3d 26 3a 09 bd 14 66 24 bd
       0.12059915 0.070148796 -0.03350272 -0.04013641
000170 ad a7 6e bd c2 07 85 3d 16 4e 92 bd db f2 ac 3d
       -0.058265377 0.0649562 -0.071438 0.084447585
000180 10 b1 90 3a 75 93 01 3d 89 cd 00 3e 87 f4 28 bc
       0.0011039097 0.031634767 0.12578405 -0.010312206
000190 96 e9 3f 3d 68 b3 df bd 12 d0 dd bd 70 93 89 bc
       0.046853624 -0.10922891 -0.10830702 -0.016793936
0001a0 c2 1c 18 3d 30 60 61 3d 39 d6 71 3d c6 a1 d1 3d
       0.0371368 0.055023372 0.05904219 0.10235934
0001b0 cf 6c 03 bd 9d da 89 bd a4 e3 68 3d 9e d2 7c bd
       -0.03208619 -0.0673115 0.05685772 -0.061724298
0001c0 99 db dd 3d e4 55 59 3d 4e b2 4d bc ce 02 04 bd
       0.108329006 0.053060427 -0.012554718 -0.032229237
0001d0 bf 56 8b bd 48 71 be 3d a3 02 56 3a 16 7a 40 bd
       -0.06803655 0.092989504 0.0008163845 -0.04699143
0001e0 d5 3a b8 3d 4c b6 30 3c 58 b0 c2 3a c0 31 be 3d
       0.08995596 0.01078565 0.001485358 0.09286833
0001f0 f1 44 fd bd a0 ef df 3d ca 2b c2 3b 1a a1 be bd
       -0.12366665 0.10934377 0.00592563 -0.093080714
000200 e4 d6 ac bd d7 f1 a4 bd 32 3e 68 bd 70 fb 38 bd
       -0.08439425 -0.0805394 -0.05669994 -0.045161664
000210 8b 60 e7 3d 1e c1 d7 3b a8 5b b0 bd aa 6e 94 3b
       0.11297711 0.0065843007 -0.08611232 0.0045297937
000220 a0 a2 8d bb af 6e f0 3c 54 94 22 3d 94 94 1a be
       -0.004322365 0.029349653 0.039692238 -0.1509574
000230 31 95 09 be 40 a0 47 3d 83 83 12 3e 8d 8c 10 3e
       -0.13435818 0.04873681 0.1430798 0.14116116
000240 fa 70 45 bc 7d 12 e5 bc eb c4 fb bd c2 00 ba 3d
       -0.0120508615 -0.027962917 -0.122934185 0.09082176
000250 fc 56 b7 3d a0 08 eb 3a
       0.08952138 0.0017931648

bias f4 [3]
000000 80 5d d7 3a 2d 36 78 3d bd 32 c8 bd
       0.0016431063 0.06059854 -0.097753026

weight f4 [50]
000000 a4 70 7d 3f a4 70 7d 3f a4 70 7d 3f ae 47 81 3f
       0.99 0.99 0.99 1.01
000010 ae 47 81 3f a4 70 7d 3f ae 47 81 3f ae 47 81 3f
       1.01 0.99 1.01 1.01
000020 ae 47 81 3f a4 70 7d 3f a4 70 7d 3f a4 70 7d 3f
       1.01 0.99 0.99 0.99
000030 a4 70 7d 3f ae 47 81 3f ae 47 81 3f ae 47 81 3f
       0.99 1.01 1.01 1.01
000040 ae 47 81 3f a4 70 7d 3f a4 70 7d 3f ae 47 81 3f
       1.01 0.99 0.99 1.01
000050 a4 70 7d 3f ae 47 81 3f a4 70 7d 3f a4 70 7d 3f
       0.99 1.01 0.99 0.99
000060 ae 47 81 3f ae 47 81 3f a4 70 7d 3f a4 70 7d 3f
       1.01 1.01 0.99 0.99
000070 a4 70 7d 3f ae 47 81 3f ae 47 81 3f a4 70 7d 3f
       0.99 1.01 1.01 0.99
000080 a4 70 7d 3f a4 70 7d 3f ae 47 81 3f a4 70 7d 3f
       0.99 0.99 1.01 0.99
000090 ae 47 81 3f a4 70 7d 3f a4 70 7d 3f ae 47 81 3f
       1.01 0.99 0.99 1.01
0000a0 a4 70 7d 3f a4 70 7d 3f ae 47 81 3f ae 47 81 3f
       0.99 0.99 1.01 1.01
0000b0 a4 70 7d 3f ae 47 81 3f a4 70 7d 3f a4 70 7d 3f
       0.99 1.01 0.99 0.99
0000c0 ae 47 81 3f ae 47 81 3f
       1.01 1.01

bias f4 [50]
000000 0a d7 23 bc 0a d7 23 bc 0a d7 23 bc 0a d7 23 3c
       -0.01 -0.01 -0.01 0.01
000010 0a d7 23 3c 0a d7 23 3c 0a d7 23 3c 0a d7 23 3c
       0.01 0.01 0.01 0.01
000020 0a d7 23 3c 09 d7 23 bc 0a d7 23 bc 09 d7 23 bc
       0.01 -0.009999999 -0.01 -0.009999999
000030 09 d7 23 bc 0a d7 23 3c 0a d7 23 3c 0a d7 23 3c
       -0.009999999 0.01 0.01 0.01
000040 0a d7 23 bc 0a d7 23 bc 0a d7 23 bc 0a d7 23 bc
       -0.01 -0.01 -0.01 -0.01
000050 09 d7 23 bc 0a d7 23 3c 0a d7 23 bc 0a d7 23 bc
       -0.009999999 0.01 -0.01 -0.01
000060 09 d7 23 3c 00 00 00 00 0a d7 23 bc 0b d7 23 bc
       0.009999999 0.0 -0.01 -0.010000001
000070 09 d7 23 bc 0a d7 23 3c 00 00 00 00 0a d7 23 bc
       -0.009999999 0.01 0.0 -0.01
000080 09 d7 23 bc 0a d7 23 bc 09 d7 23 3c 0a d7 23 bc
       -0.009999999 -0.01 0.009999999 -0.01
000090 09 d7 23 3c 0a d7 23 bc 0a d7 23 bc 09 d7 23 3c
       0.009999999 -0.01 -0.01 0.009999999
0000a0 0a d7 23 bc 09 d7 23 bc 0a d7 23 3c 0b d7 23 3c
       -0.01 -0.009999999 0.01 0.010000001
0000b0 00 00 00 00 0a d7 23 3c 0a d7 23 bc 0b d7 23 bc
       0.0 0.01 -0.01 -0.010000001
0000c0 0a d7 23 3c 09 d7 23 3c
       0.01 0.009999999

running_mean f4 [50]
000000 ba 35 6b 3d 36 92 85 bc 05 3f 6a bd 30 69 9c 3c
       0.057424285 -0.01630507 -0.057189006 0.019093126
000010 cb 1b 23 3d ce 2c de 3c ce 5d d8 ba c0 07 73 3c
       0.039821427 0.027120974 -0.0016507448 0.014833391
000020 b5 cf 57 bd 5b a6 62 3d 62 16 e2 39 da e8 6f 3c
       -0.05268832 0.05533443 0.00043122756 0.0146429185
000030 e7 09 86 bd 3e 44 97 bc f4 eb a5 bc 20 7b 57 bc
       -0.065448575 -0.018465158 -0.020254113 -0.013151914
000040 4d 9c 1f bc f9 28 12 3d b0 b6 aa 3d 70 56 4a 3b
       -0.009741855 0.035683606 0.08335626 0.0030874275
000050 0e 00 86 3c be 99 a4 3c de 9f 3e bd 10 e3 93 3b
       0.016357448 0.020092841 -0.04653918 0.004513152
000060 5e 50 2f 3d 80 3e 26 3d e0 93 5b 3d 82 66 24 3c
       0.042801253 0.04058695 0.05360782 0.010034205
000070 74 2f 3d 3d f2 b0 86 bd d3 17 18 3d bd 41 a2 bd
       0.046187833 -0.065767184 0.037132096 -0.07922695
000080 a4 1c 0f bd d3 b5 82 3c ae dc af bc 8b e8 de 3b
       -0.034939423 0.015955841 -0.021467533 0.0068026236
000090 01 fc a0 3c a9 c0 b4 3c 20 7c bc 3a 22 82 2b bc
       0.019651415 0.022064524 0.0014380254 -0.010468038
0000a0 aa b3 2e 3d eb 30 44 bd 7b 04 3f 3d c9 d7 a8 bd
       0.04265181 -0.047898214 0.046635132 -0.08244283
0000b0 8b ec 52 3b 58 d4 70 bc f1 e7 81 bc 02 b6 94 3d
       0.0032184448 -0.014699064 -0.015857669 0.07261278
0000c0 23 ed 53 3d 71 a4 0c 3d
       0.051739823 0.03433651

running_var f4 [50]
000000 66 66 66 3f 66 66 66 3f 66 66 66 3f 66 66 66 3f
       0.9 0.9 0.9 0.9
000010 66 66 66 3f 66 66 66 3f 66 66 66 3f 66 66 66 3f
       0.9 0.9 0.9 0.9
000020 66 66 66 3f 66 66 66 3f 66 66 66 3f 66 66 66 3f
       0.9 0.9 0.9 0.9
000030 66 66 66 3f 66 66 66 3f 66 66 66 3f 66 66 66 3f
       0.9 0.9 0.9 0.9
000040 66 66 66 3f 66 66 66 3f 66 66 66 3f 66 66 66 3f
       0.9 0.9 0.9 0.9
000050 66 66 66 3f 66 66 66 3f 66 66 66 3f 66 66 66 3f
       0.9 0.9 0.9 0.9
000060 66 66 66 3f 66 66 66 3f 66 66 66 3f 66 66 66 3f
       0.9 0.9 0.9 0.9
000070 66 66 66 3f 66 66 66 3f 66 66 66 3f 66 66 66 3f
       0.9 0.9 0.9 0.9
000080 66 66 66 3f 66 66 66 3f 66 66 66 3f 66 66 66 3f
       0.9 0.9 0.9 0.9
000090 66 66 66 3f 66 66 66 3f 66 66 66 3f 66 66 66 3f
       0.9 0.9 0.9 0.9
0000a0 66 66 66 3f 66 66 66 3f 66 66 66 3f 66 66 66 3f
       0.9 0.9 0.9 0.9
0000b0 66 66 66 3f 66 66 66 3f 66 66 66 3f 66 66 66 3f
       0.9 0.9 0.9 0.9
0000c0 66 66 66 3f 66 66 66 3f
       0.9 0.9
