Models/deep_hedging_discretized_feedforward__2022-04-05-19-53-52.pt (torch, 573753 bytes, 800 tensors)

weight f4 [50, 4]
000000 a2 d9 d0 3e 70 5f 39 3d 74 6d 83 3e d0 75 0c 3d
       0.4079104 0.045257032 0.25669444 0.034292042
000010 40 3d 8c bc e0 6c 90 3d 30 d1 80 be 68 6e fc 3e
       -0.01711905 0.07052016 -0.25159597 0.49302983
000020 c8 28 0e be 30 45 a2 be 32 17 85 3e 44 5c 5c be
       -0.13882744 -0.3169341 0.2599426 -0.21519572
000030 d6 db d0 3e 28 d2 c9 3e 86 a7 b7 3e 2c d3 7a 3e
       0.40792722 0.3941815 0.35869998 0.24494618
000040 d0 0f 40 3d e6 b4 85 be 00 30 37 3e d8 d0 9d bd
       0.04689008 -0.26114577 0.17889404 -0.077058494
000050 70 27 f1 bd 52 f2 db 3e 00 7c 38 3e 98 78 f0 3e
       -0.117751 0.42958313 0.18016052 0.46967006
000060 7c ad 00 be 3c 0e 9f 3e 0c 5a 4f 3e ba 8c 9e be
       -0.12566179 0.31065547 0.20249194 -0.3096674
000070 84 f6 a4 be 79 57 26 be 18 68 b2 be 3f 7b 01 3e
       -0.32219326 -0.16244306 -0.34845042 0.12644671
000080 a4 f0 eb be 06 75 b0 3e d2 f0 83 3e 14 61 31 be
       -0.46082032 0.34464282 0.2576967 -0.17322189
000090 8f d1 73 3e b6 b9 86 be 55 c9 6a be 07 2c 4e 3e
       0.23810409 -0.2631356 -0.22928365 0.20133983
0000a0 00 56 2f 3c 40 98 21 bc 86 dd fd 3e 20 5f 87 be
       0.010701656 -0.009862959 0.4958307 -0.26439762
0000b0 b0 dd 89 3d 14 74 2c be e0 0c d3 3e 3c 7b 9d be
       0.06731737 -0.16841155 0.4122076 -0.30758083
0000c0 18 29 4b 3e 80 4f 32 bd 00 7b ca 3e 2e 67 d8 3e
       0.19839895 -0.04353285 0.39546967 0.4226622
0000d0 a0 bf 7d be 44 f0 c8 be 64 ce 3e be 30 c9 a7 bd
       -0.2478013 -0.39245808 -0.1863342 -0.0819267
0000e0 6c 73 c0 3e 47 66 d0 3d fe cc 44 3d 8e 95 72 bd
       0.3758806 0.10175758 0.04804706 -0.059224658
0000f0 c8 fd 17 be f4 8a 6b 3e 3e 8c f0 3e 4c 4e 64 be
       -0.14842904 0.23002225 0.46981996 -0.22295493
000100 c0 3d 16 bc 20 30 e9 be 1c 71 d7 3e 60 31 1f bd
       -0.009169996 -0.4554453 0.42078483 -0.038865447
000110 94 d1 f6 3e 6a 02 91 be 3e 87 cc 3e c6 71 bd be
       0.4820677 -0.28322154 0.39946932 -0.37000865
000120 9c 24 da be 1a 30 aa 3e 60 e2 8b 3c 80 76 15 be
       -0.42606056 0.33239824 0.017075717 -0.14595985
000130 1a 03 88 be a0 08 82 be f0 0c a8 3d ca 04 df 3e
       -0.26564866 -0.25397205 0.08205593 0.4355834
000140 a0 1c 40 be 00 f8 29 3a 1e 5b 92 3e 60 2f 24 be
       -0.1876092 0.0006483793 0.28585142 -0.16033697
000150 16 92 c8 3e 38 6c a8 be 04 36 03 be 2c 81 56 3e
       0.39173955 -0.32895064 -0.12813574 0.20947713
000160 dc fe 50 be 80 f4 8a be 64 6d 40 3e 5e 2e d3 be
       -0.20409721 -0.27139664 0.18791729 -0.41246313
000170 80 1b d2 be 4e 31 ce 3e ec ce e2 3e 8c c7 88 be
       -0.41036606 0.40271991 0.44298494 -0.26714742
000180 22 f3 a0 be c8 c9 a7 bd f0 42 70 3d 0a 6d dd 3e
       -0.31435496 -0.081927836 0.058657587 0.43247253
000190 78 b0 c5 be b0 00 ab be 80 9d 60 3d 98 5f 74 be
       -0.38611197 -0.33398962 0.054837704 -0.23864591
0001a0 24 08 e5 be a4 c9 e6 3e d2 e0 f2 3e 98 44 b6 3e
       -0.44732773 0.45075715 0.4743715 0.35599208
0001b0 24 13 66 3e 48 7e 4d 3e ee 29 bc be 20 7f ff 3d
       0.22468239 0.20067704 -0.3675074 0.12475419
0001c0 72 6f bb 3e 02 70 8c 3e 92 2a ff be b8 18 6d 3e
       0.36608464 0.27429205 -0.49837166 0.2315396
0001d0 76 a0 f1 3e 56 75 b1 3e 80 23 10 3d c0 ec 2d bd
       0.47192734 0.34659833 0.035190105 -0.04246211
0001e0 8a e6 b0 3e 6c 72 7a 3e 18 ab a8 bd a8 44 41 3e
       0.34550887 0.24457711 -0.082357585 0.18873847
0001f0 a0 a0 58 be 10 76 60 be 64 54 22 3e 26 1d 83 be
       -0.21155024 -0.21920037 0.15852505 -0.25608176
000200 2c cb 0c be e4 a5 cb 3e f0 76 62 3d a4 34 f1 3e
       -0.13749379 0.39775002 0.05528921 0.47110474
000210 50 b2 68 3d d8 f1 de be 80 77 07 3c 90 24 37 bd
       0.056810677 -0.43543887 0.008268237 -0.044712603
000220 f8 49 c1 bd 90 57 99 bd c4 e8 99 be b4 0a 85 3e
       -0.094379365 -0.07487404 -0.300604 0.25984728
000230 32 d4 80 be 60 fe 28 be 78 1f cb be 90 9a ec be
       -0.25161892 -0.16503286 -0.39672446 -0.46211672
000240 2a d7 f2 3e 40 b7 bd be b8 f7 b7 3d 8a 53 f8 3e
       0.47429782 -0.3705387 0.089827955 0.48501235
000250 f4 0a 5b 3e 64 ff 8c 3e 80 e7 68 be 90 bd b4 3d
       0.21390897 0.27538598 -0.2274456 0.08825219
000260 04 df 1c 3e be 1c ef be f0 2d f8 3d ce 85 90 be
       0.15319449 -0.46701616 0.12118137 -0.28227085
000270 20 af 5d 3d 7a bd 8f 3e c2 0c a3 3e 58 53 d5 bd
       0.05412209 0.28074247 0.3184567 -0.10416287
000280 94 0f 29 3e d8 4e 00 3e f0 1d 71 3e 5c 27 1b be
       0.16509849 0.12530077 0.23546576 -0.15151733
000290 88 bc 23 3e da 34 bb be 60 00 53 be 88 b3 07 3e
       0.15989888 -0.3656376 -0.20605612 0.1325208
0002a0 80 eb 19 3c 36 11 d0 3e e8 c0 c5 be 1c be 9e be
       0.0093945265 0.4063813 -0.38623738 -0.31004417
0002b0 90 20 5f 3e 8a 30 a2 3e ba 5e b4 be f6 45 ef be
       0.21789765 0.31677657 -0.3522852 -0.46733063
0002c0 10 5f d9 3d 80 f8 19 bc f8 35 bc bd 40 d8 e0 be
       0.10613835 -0.009397626 -0.09189981 -0.43914986
0002d0 e8 db c9 bd 9c d3 d8 be 94 78 90 be e8 b0 18 be
       -0.09856397 -0.42348945 -0.28216994 -0.14911234
0002e0 a4 70 2a be 42 fd 8c 3e 56 6d a0 3e 10 81 51 3d
       -0.16644531 0.2753697 0.31333417 0.051148474
0002f0 68 ce e9 3e 54 5c e8 be 3a f1 f6 3e 0e 7d b0 be
       0.45665288 -0.4538294 0.48230916 -0.3447041
000300 30 75 92 bd 58 66 ea 3d bc 8b 59 3e ae 24 90 3e
       -0.07151258 0.11445302 0.2124471 0.28152984
000310 e0 6d a0 3d 80 1e 3f 3d ac 44 de be 40 bc ba be
       0.07833457 0.046659946 -0.43411767 -0.36471748

bias f4 [50]
000000 40 5f 18 3d 10 8e e1 3d 20 af bc 3c 80 ec 24 bc
       0.037200212 0.110134244 0.023032725 -0.010066152
000010 1a 72 e0 3e 44 99 54 be 1c 0b c5 3e 32 9b e7 be
       0.43837053 -0.20761591 0.38485038 -0.45235592
000020 dc 66 a4 3e f2 d4 98 be c0 9e 63 3c 3c 06 5f 3e
       0.32109725 -0.29849964 0.013892829 0.21779722
000030 50 a5 7c 3e bc 6f 2b be ae 51 f2 be 4e 26 fe 3e
       0.24672437 -0.16741842 -0.47327942 0.496386
000040 a0 10 82 be 26 d5 84 be 82 77 fa 3e de 22 be be
       -0.2540331 -0.2594387 0.48919302 -0.37135977
000050 40 17 53 3e f6 cd 96 be ac b6 e8 be d8 12 3d be
       0.20614338 -0.2945401 -0.45451868 -0.1846422
000060 a0 74 a2 bc b0 d0 e6 3d a8 45 72 3e 5e 0b a0 3e
       -0.019831002 0.11270273 0.23659384 0.31258672
000070 c4 92 7b be 78 dc d7 3d 1a b5 c6 3e 0a 29 cc 3e
       -0.24567705 0.10540098 0.38810045 0.3987506
000080 9c d3 22 be d0 91 64 be d8 1a d6 be 40 db 42 3e
       -0.15901035 -0.22321248 -0.41817355 0.1902895
000090 6c 94 6f 3e 10 64 f9 bd 20 3f df bd 04 df 24 3e
       0.23396462 -0.121772885 -0.10900712 0.16100699
0000a0 6c cd 71 3e d4 59 f2 be 80 93 db 3d 1e 76 d5 be
       0.23613518 -0.47334158 0.10721493 -0.4169168
0000b0 cc 66 ee be a0 36 a4 be 54 4f 9f 3e 06 4e e6 3e
       -0.46562803 -0.32072926 0.3111521 0.44981402
0000c0 2a 6d c3 3e a2 9c 8b 3e
       0.38169223 0.2726794

weight f4 [3, 50]
000000 6a 4b b8 bd 83 12 35 3d df f2 e6 3d c5 fe dc bd
       -0.08998759 0.044207107 0.11276793 -0.10790781
000010 48 f5 b3 bc 99 01 e5 bd 0d a3 ab bb 5c f7 d1 3d
       -0.021967545 -0.11181945 -0.005237943 0.10252258
000020 04 2b 0b be be de 0c bd 5f 11 96 3d e3 04 03 bd
       -0.13590628 -0.03439211 0.07327532 -0.031987082
000030 0e 44 bb 3d 4f 5d 47 3d 78 f3 0c 3d 47 6e 9f bc
       0.0914384 0.04867297 0.034411877 -0.019461764
000040 75 de 0b bd a9 9a f0 bc cc f7 4e bc cc 1f 9c bd
       -0.0341477 -0.029370623 -0.012632322 -0.07623252
000050 b1 f5 24 bd 01 d5 a4 3d 69 58 ca 3d f2 52 d4 3c
       -0.040273372 0.0804844 0.09880144 0.025918458
000060 d2 97 b1 3c 78 35 f8 bd 54 52 ec 3c c6 b2 f1 3d
       0.021678839 -0.12119573 0.02884785 0.118016765
000070 d5 81 7a bd 56 3e 10 bd d8 8e 0c 3e 34 f9 ae 3c
       -0.061158974 -0.0352157 0.13726366 0.021359064
000080 6a c7 e2 3d 4d 22 1d bd 6a 80 02 be 7b 77 48 3c
       0.110731915 -0.03836279 -0.12744299 0.012235518
000090 6d f1 df bd 37 7b 79 bd a6 32 49 3d cb e5 05 be
       -0.1093472 -0.060908522 0.049120568 -0.1307594
0000a0 a9 31 9d 3d 04 f4 04 3e f9 b1 07 3e f2 89 fb bd
       0.076754875 0.1298371 0.13251485 -0.1228217
0000b0 3d 82 0f be fa 3a 68 bd c3 dc 35 3c 91 d9 8d bd
       -0.14014526 -0.05669687 0.011099997 -0.06926263
0000c0 67 7b cb 3d 51 f8 03 3e 35 f3 18 3d 1d 2e ad bc
       0.099356465 0.12887694 0.037341315 -0.021140153
0000d0 44 58 04 be 10 47 af 3d e9 9c a8 bc c3 44 c6 3d
       -0.12924296 0.08558476 -0.020582633 0.09681084
0000e0 3c 2c 5d 3d 60 81 5f 3c 49 a9 d6 bd f4 ef a6 3d
       0.053997263 0.013641685 -0.10481507 0.08151236
0000f0 7d fb dd 3c 78 59 f7 3d 15 8f da 3d 51 6d 98 bd
       0.027097458 0.12077612 0.10671822 -0.074427254
000100 99 17 f2 bd b7 96 08 be 31 8c 43 bd f4 0f 45 bd
       -0.11820907 -0.13338743 -0.04774112 -0.048110917
000110 18 c3 16 3c e5 40 99 3d d9 48 25 bc 74 ff c2 bd
       0.009201787 0.07483081 -0.010088169 -0.0952138
000120 46 d2 f0 bd e2 1c e6 3d c5 0c ef bc 85 c5 71 3d
       -0.117588565 0.11235978 -0.029180894 0.05902626
000130 84 3d 70 bd 9a 8e 5e bd 87 70 03 3e 3b 4c 1b 3c
       -0.058652416 -0.054335214 0.12835895 0.009478624
000140 1f 63 1d bd 52 d7 a4 bc 06 46 00 be cf 45 fb 3d
       -0.038424607 -0.020122204 -0.12526712 0.12269174
000150 16 d1 d3 bd 7e 17 db 3d 20 0e a4 3d 70 db 34 bc
       -0.10342614 0.1069784 0.08010507 -0.011038646
000160 f8 21 a2 3c 83 68 e0 bd da 55 d8 3d fd 50 bb 3d
       0.019791588 -0.10957434 0.1056325 0.09146307
000170 a9 cf 58 bd dd 72 ff 3c 9d 2b ab 3d 4d 81 2f bd
       -0.052932415 0.0311827 0.08357928 -0.04284792
000180 53 82 28 3c bb 81 d5 3d 44 77 8a 3c e8 55 35 bc
       0.010284978 0.10425135 0.016902573 -0.011067845
000190 9b de 81 3d 7d b8 2a bd 7b 9c 9c bd 49 77 93 bd
       0.06341287 -0.041679848 -0.07647034 -0.07200486
0001a0 cd e0 87 bd b3 56 e6 3d 99 b0 8e 3d 40 3c 07 39
       -0.06634674 0.11247005 0.06967277 0.00012897048
0001b0 a5 6b d3 3d 8e 7c 9c 3d 1a e3 e9 3d 99 83 d3 bd
       0.10323266 0.076409444 0.11420269 -0.10327835
0001c0 aa 9b 01 be 28 06 47 bd 49 2a 99 3d bf d7 59 bd
       -0.12657037 -0.048589855 0.074787684 -0.053184267
0001d0 20 2d f7 3d 40 22 0e bd 3b 7b ee 3d 1c 43 90 3d
       0.12069154 -0.034700632 0.11644598 0.0704405
0001e0 0f 8e 82 3d 6a a6 7b 3d 67 2d 47 bc 7e e6 ca bd
       0.06374752 0.061438 -0.012156821 -0.09907244
0001f0 11 83 2a 3d 73 03 09 3d a8 ac 0b 3e b3 32 cf 3c
       0.0416289 0.033450555 0.13640082 0.02529273
000200 78 e6 f1 bc f8 6c 40 bd 26 43 f8 3d 2c b3 af bd
       -0.029528841 -0.04697892 0.121221825 -0.08579096
000210 29 61 68 3d f1 61 d1 3d 73 0e 87 bc ba 79 46 3d
       0.056733284 0.10223759 -0.016486382 0.04845593
000220 b3 73 b7 3c 17 0a 00 3d f6 20 e1 3d c2 41 07 be
       0.022394037 0.031259622 0.10992615 -0.13208678
000230 53 d0 97 3c 85 1a b3 3d 9b b1 f1 bd 13 93 10 3e
       0.018531954 0.087452926 -0.11801454 0.14118604
000240 fa 27 ce bc 5b de 91 bd 77 90 be bc f0 91 c2 bd
       -0.025165547 -0.07122489 -0.023262246 -0.095004916
000250 5d 65 81 bd 80 87 23 bd
       -0.06318162 -0.039924145

bias f4 [3]
000000 1f e2 a6 3c 0e 33 e1 bc b7 58 cc 3c
       0.020371495 -0.027490165 0.024944646

weight f4 [50]
000000 00 00 80 3f 00 00 80 3f 00 00 80 3f 00 00 80 3f
       1.0 1.0 1.0 1.0
000010 00 00 80 3f a4 70 7d 3f 00 00 80 3f ae 47 81 3f
       1.0 0.99 1.0 1.01
000020 00 00 80 3f a4 70 7d 3f 00 00 80 3f ae 47 81 3f
       1.0 0.99 1.0 1.01
000030 00 00 80 3f 00 00 80 3f ae 47 81 3f 00 00 80 3f
       1.0 1.0 1.01 1.0
000040 00 00 80 3f 00 00 80 3f 00 00 80 3f 00 00 80 3f
       1.0 1.0 1.0 1.0
000050 00 00 80 3f 00 00 80 3f 00 00 80 3f 00 00 80 3f
       1.0 1.0 1.0 1.0
000060 00 00 80 3f 00 00 80 3f 00 00 80 3f 00 00 80 3f
       1.0 1.0 1.0 1.0
000070 00 00 80 3f 00 00 80 3f 00 00 80 3f 00 00 80 3f
       1.0 1.0 1.0 1.0
000080 a4 70 7d 3f 00 00 80 3f 00 00 80 3f 00 00 80 3f
       0.99 1.0 1.0 1.0
000090 00 00 80 3f a4 70 7d 3f 00 00 80 3f 00 00 80 3f
       1.0 0.99 1.0 1.0
0000a0 a4 70 7d 3f a4 70 7d 3f 00 00 80 3f 00 00 80 3f
       0.99 0.99 1.0 1.0
0000b0 00 00 80 3f ae 47 81 3f 00 00 80 3f ae 47 81 3f
       1.0 1.01 1.0 1.01
0000c0 00 00 80 3f a4 70 7d 3f
       1.0 0.99

bias f4 [50]
000000 00 00 00 00 00 00 00 00 00 00 00 00 00 00 00 00
       0.0 0.0 0.0 0.0
000010 00 00 00 00 00 00 00 00 00 00 00 00 00 00 00 00
       0.0 0.0 0.0 0.0
000020 00 00 00 00 00 00 00 00 00 00 00 00 00 00 00 00
       0.0 0.0 0.0 0.0
000030 00 00 00 00 00 00 00 00 00 00 00 00 00 00 00 00
       0.0 0.0 0.0 0.0
000040 00 00 00 00 00 00 00 00 00 00 00 00 00 00 00 00
       0.0 0.0 0.0 0.0
000050 00 00 00 00 00 00 00 00 00 00 00 00 00 00 00 00
       0.0 0.0 0.0 0.0
000060 00 00 00 00 00 00 00 00 00 00 00 00 00 00 00 00
       0.0 0.0 0.0 0.0
000070 00 00 00 00 00 00 00 00 00 00 00 00 00 00 00 00
       0.0 0.0 0.0 0.0
000080 00 00 00 00 00 00 00 00 00 00 00 00 00 00 00 00
       0.0 0.0 0.0 0.0
000090 00 00 00 00 00 00 00 00 00 00 00 00 00 00 00 00
       0.0 0.0 0.0 0.0
0000a0 00 00 00 00 00 00 00 00 00 00 00 00 00 00 00 00
       0.0 0.0 0.0 0.0
0000b0 00 00 00 00 00 00 00 00 00 00 00 00 00 00 00 00
       0.0 0.0 0.0 0.0
0000c0 00 00 00 00 00 00 00 00
       0.0 0.0

running_mean f4 [50]
000000 92 95 21 3c 0b ee 75 3d 1a aa a5 bc b2 2c dc 3c
       0.0098623205 0.06004147 -0.020222712 0.026876781
000010 9e 3a 14 3d c2 74 d8 3c cb 99 f6 3b 1a 3f 07 bd
       0.036188714 0.026422862 0.007525658 -0.033019163
000020 8d c1 54 3c a7 94 12 bc e6 2a c8 bc 66 68 09 bc
       0.012985599 -0.008946574 -0.024434518 -0.008386707
000030 27 37 8c 3d db d5 de bc 9a 7d 50 bd b3 71 e0 3c
       0.06846457 -0.027201584 -0.050901033 0.027397966
000040 42 61 f2 bc 42 71 76 bd 06 d0 04 3d 1a 2c 96 3b
       -0.029587392 -0.060166605 0.03242495 0.004582894
000050 80 1c 7b 3b da ff e2 bb 74 68 b4 bd f5 fd 3d bd
       0.0038316548 -0.0069274725 -0.08808985 -0.04638477
000060 8c 5a 21 3d 35 71 7a bc 55 60 6d 3d b5 02 38 3d
       0.039392993 -0.01528578 0.057953198 0.044924457
000070 66 02 12 3a ca 53 1d 3c 25 a0 75 3d 40 0f 53 3c
       0.00055698154 0.009602496 0.05996718 0.012882054
000080 ea ec fe 3c 0e 70 de bc b7 f5 89 bc 03 6f f0 bc
       0.031118829 -0.027153041 -0.016840799 -0.02934981
000090 48 d4 97 3d 90 ad fe ba 34 26 1f bd 0a 2f df 3b
       0.07413536 -0.0019430388 -0.038854793 0.0068110274
0000a0 a7 e9 21 3c 7c 33 0b bd 00 07 a4 bc d0 51 b2 bd
       0.009882367 -0.033984646 -0.02002287 -0.08707011
0000b0 bf 4b b8 bd 7f df 46 bd 40 c2 13 3d 4d 6c 54 3c
       -0.089988224 -0.048552986 0.036073923 0.012965274
0000c0 73 dc 87 3d 2e 5f 16 bc
       0.06633844 -0.009177966

running_var f4 [50]
000000 66 66 66 3f 66 66 66 3f 66 66 66 3f 66 66 66 3f
       0.9 0.9 0.9 0.9
000010 66 66 66 3f 66 66 66 3f 66 66 66 3f 66 66 66 3f
       0.9 0.9 0.9 0.9
000020 66 66 66 3f 66 66 66 3f 66 66 66 3f 66 66 66 3f
       0.9 0.9 0.9 0.9
000030 66 66 66 3f 66 66 66 3f 66 66 66 3f 66 66 66 3f
       0.9 0.9 0.9 0.9
000040 66 66 66 3f 66 66 66 3f 66 66 66 3f 66 66 66 3f
       0.9 0.9 0.9 0.9
000050 66 66 66 3f 66 66 66 3f 66 66 66 3f 66 66 66 3f
       0.9 0.9 0.9 0.9
000060 66 66 66 3f 66 66 66 3f 66 66 66 3f 66 66 66 3f
       0.9 0.9 0.9 0.9
000070 66 66 66 3f 66 66 66 3f 66 66 66 3f 66 66 66 3f
       0.9 0.9 0.9 0.9
000080 66 66 66 3f 66 66 66 3f 66 66 66 3f 66 66 66 3f
       0.9 0.9 0.9 0.9
000090 66 66 66 3f 66 66 66 3f 66 66 66 3f 66 66 66 3f
       0.9 0.9 0.9 0.9
0000a0 66 66 66 3f 66 66 66 3f 66 66 66 3f 66 66 66 3f
       0.9 0.9 0.9 0.9
0000b0 66 66 66 3f 66 66 66 3f 66 66 66 3f 66 66 66 3f
       0.9 0.9 0.9 0.9
0000c0 66 66 66 3f 66 66 66 3f
       0.9 0.9

weight f4 [50, 4]
000000 16 3c d6 be 00 e9 01 3c f8 aa af bd ac 9d 7b 3e
       -0.41842717 0.007929087 -0.085775316 0.24571866
000010 58 b2 b8 bd b4 b6 ab 3e 64 1c 77 3e 40 c7 3e bd
       -0.09018391 0.3353783 0.24131924 -0.04657674
000020 00 91 a3 3e 64 62 92 3c 51 c6 78 be a8 6b d6 be
       0.31946564 0.017869182 -0.24294402 -0.4187901
000030 a8 25 d3 bd 58 10 19 be 04 48 76 3e 78 ce c9 3e
       -0.10309917 -0.14947641 0.2405091 0.39415336
000040 ac 32 c1 be 6a cb a1 3e dc 2b eb be d0 6b 0c bd
       -0.37733972 0.31600505 -0.459319 -0.034282506
000050 bc e7 d3 3e 65 ec d2 bc d8 7d 34 bb df 48 95 bd
       0.41387737 -0.025747487 -0.002754083 -0.0728929
000060 ac e3 f4 3e 74 86 5a be 10 73 12 3e ac 8a c8 be
       0.4782995 -0.21340352 0.14301705 -0.39168298
000070 f0 4c 44 3d 3c ff 80 3e bc 13 52 be 7c 25 aa 3e
       0.047924936 0.25194728 -0.2051534 0.33231723
000080 82 09 e2 3e 30 a5 f3 be e4 e4 d9 3e 62 74 c7 be
       0.4414788 -0.47586966 0.42557442 -0.3895598
000090 af 17 94 bd d4 40 d0 be c4 e7 a3 3e 2b e8 62 be
       -0.0723108 -0.4067446 0.3201276 -0.22158878
0000a0 a8 30 36 be 34 66 66 be 90 26 c5 be 18 73 cc 3d
       -0.17791998 -0.22499925 -0.38505983 0.0998289
0000b0 20 06 c0 bd ec d0 38 be 88 6e e0 be 54 02 8e 3e
       -0.09376168 -0.18048447 -0.4383433 0.2773615
0000c0 fc 68 81 3e 3c 77 96 be 10 9d 89 3e f4 68 f0 be
       0.2527541 -0.29387844 0.26877642 -0.46955073
0000d0 fe d8 db 3e b0 96 d7 3e e8 7a ab 3e 61 6b c8 3d
       0.4293899 0.42107153 0.33492208 0.09786106
0000e0 62 91 b6 be a6 f6 b9 3e c6 aa ee be 7e 4e fc be
       -0.35657793 0.3632099 -0.46614665 -0.49278635
0000f0 f4 f9 a6 3e 30 7c 8b be 19 fd 63 3e 56 c4 d3 be
       0.32612574 -0.27243185 0.22264518 -0.4136073
000100 20 5b 11 be 40 8f f3 be 40 2a a5 bd 26 34 8c 3e
       -0.14194918 -0.4757023 -0.08064699 0.27383536
000110 50 2f 81 be e0 47 88 3e 1c 89 06 be 64 ed d0 3e
       -0.2523141 0.26617336 -0.1313824 0.40806115
000120 1a da c5 be 1c 7d c9 be 9a 94 ee be b0 6e 02 3d
       -0.3864296 -0.39353263 -0.4659775 0.03184384
000130 fc 9f e6 be 5a a1 d5 3e 8c fb 5c be 00 f3 04 bb
       -0.45043933 0.41724664 -0.21580333 -0.002028644
000140 f0 a7 8c bd 58 22 b8 3e c0 01 58 3e fc 69 21 be
       -0.06867969 0.35963702 0.21094418 -0.15763086
000150 60 15 f3 3e 1e 1d a7 3e f0 8e 6f be 3a ae 80 be
       0.47477245 0.32639402 -0.2339437 -0.25132924
000160 64 e0 8d 3e 9e 7c ef 3e 84 8a dc be d4 00 c0 be
       0.2771026 0.46774763 -0.4307443 -0.37500632
000170 e0 1f fc 3e 0a 1d ea 3e f9 25 0d 3e d1 14 90 bd
       0.4924307 0.4572528 0.13784017 -0.070352204
000180 ed 09 69 3e bc 79 d8 be be b1 93 3e a3 e6 28 3e
       0.22757693 -0.42280376 0.28846544 0.16494231
000190 56 8e a7 be b4 b9 4c 3e 7e 04 cf 3e fc fd 00 3e
       -0.3272578 0.19992715 0.40433115 0.12596887
0001a0 10 8c ab 3e 64 30 bd be 63 a8 19 be ba 58 82 3e
       0.33505297 -0.36950982 -0.1500564 0.25458318
0001b0 60 4a ca 3c 56 f3 be be a8 dd 0d 3e d0 83 ef be
       0.024693668 -0.37295026 0.13854086 -0.46780252
0001c0 64 09 b4 bc 7a 63 ce be 1b da 57 3e 51 7b b2 bd
       -0.021977134 -0.4031027 0.21079294 -0.08714927
0001d0 a8 be b8 bd f0 71 af 3e e8 ab fe be 28 d8 ae bd
       -0.0902074 0.34266615 -0.4974053 -0.08537322
0001e0 a6 9c fb be 4c a9 09 be fc f2 0e 3e 02 37 b5 3e
       -0.4914295 -0.13443488 0.13959879 0.3539353
0001f0 4e e3 8b be 40 a0 35 bd d0 a2 dd 3d f0 7d 55 3d
       -0.27321857 -0.04434228 0.1082207 0.052122056
000200 30 4b b9 be 82 99 d0 be 00 17 ae 3e ec c6 e1 be
       -0.36190176 -0.40742117 0.34001923 -0.44097078
000210 9e 62 cc be 9c ca 37 3e 2a 19 93 3e 98 97 80 3e
       -0.3991899 0.17948383 0.28730136 0.25115657
000220 a2 33 c1 be 40 0c 9f 3c 40 e7 7a bd 12 4e ac be
       -0.37734705 0.019415021 -0.061255693 -0.33653313
000230 aa 72 f8 be 64 09 5f be 5a 05 c1 be a4 77 d1 be
       -0.48524982 -0.21780926 -0.37699395 -0.4091159
000240 ec 64 b8 be ec ae 82 be 28 89 d7 3e c6 fa 92 be
       -0.36014497 -0.2552408 0.4209683 -0.2870695
000250 f0 06 5b be a0 74 b1 be 78 ce 62 be 3c 83 ae be
       -0.21389365 -0.3465929 -0.22149074 -0.340845
000260 00 d6 11 3c c0 ea af bd 50 e5 0f 3e 00 51 8e 3c
       0.008901119 -0.08589697 0.1405232 0.017372608
000270 2f 64 b6 bd b7 61 be 3d f0 c6 de 3e 2b b8 10 3e
       -0.08905827 0.092959814 0.43511152 0.14132755
000280 d0 d2 4d 3d 58 b9 35 3e f0 5c be be e4 b0 d8 be
       0.050249875 0.17746484 -0.3718028 -0.42322457
000290 12 fe cd 3e fe 85 f6 3e 4c 5c 6c be 2c b2 c5 3e
       0.40232903 0.48149103 -0.23082083 0.38612497
0002a0 b0 ec 08 bd 6a e7 92 3e 70 4c f0 3d 1e bf e2 3e
       -0.033428848 0.2869218 0.11733329 0.44286436
0002b0 70 26 8d bd d8 7f f8 3d 00 73 71 3d e8 6d b5 bd
       -0.06892097 0.12133759 0.058947563 -0.088588536
0002c0 7c d7 c8 be 0c 55 a4 3e 3c 59 a2 3e f8 96 d9 bd
       -0.39226902 0.32096136 0.31708705 -0.10624498
0002d0 14 79 ce be 74 7c 11 3e e0 46 d0 3e e6 29 ad 3e
       -0.4032675 0.14207631 0.40679073 0.33821028
0002e0 58 23 fd be 96 d2 c1 3e b0 85 2e 3d d0 55 6c 3e
       -0.49441028 0.37855977 0.042607963 0.2307961
0002f0 18 9e be 3e e1 0c ca 3d a1 09 cc bd 98 02 68 be
       0.3722999 0.09865738 -0.09962774 -0.2265724
000300 48 31 ee bd 48 e7 e2 3e c8 5a c4 3d 74 b1 45 3e
       -0.116304934 0.4431708 0.09587628 0.19305974
000310 a4 5e 60 be f0 0a 63 3e d0 a1 c8 bd 40 9e 1b bd
       -0.21911103 0.22172141 -0.09796488 -0.037992716

bias f4 [50]
000000 20 07 de 3d 0a a3 cb be 67 80 68 be 38 06 ed 3e
       0.10841203 -0.39772826 -0.22705232 0.46293807
000010 30 a8 0d 3d 20 10 e7 3e 4c 5b e0 be 02 82 c3 be
       0.034584224 0.4512949 -0.43819654 -0.38185126
000020 05 21 2c be b3 18 2f be ac 95 c8 3e aa 45 a6 3e
       -0.16809471 -0.17099266 0.3917669 0.32475024
000030 16 2e b0 be fc 0d 4f be f8 3b 24 3e 26 c0 b7 3e
       -0.3441016 -0.20220178 0.16038501 0.35888785
000040 74 a0 b9 3e 90 d8 5d 3e 80 68 bd be 46 0e b1 be
       0.3625523 0.21664643 -0.3699379 -0.34581202
000050 fa 6f ad 3e be 21 fe 3e d8 ac a3 3e 31 92 8d bd
       0.33874494 0.49635118 0.31967807 -0.069126494
000060 b4 93 09 3e 6a d2 bb be 4a 86 df 3e 96 f5 b3 be
       0.1343525 -0.3668397 0.43657142 -0.35148305
000070 71 01 0c 3e 3c f8 43 3e 8a e0 ab 3e 54 a3 47 be
       0.13672425 0.19137663 0.33569747 -0.19495898
000080 c0 66 c0 be ee 10 f6 3e 38 1c c9 be 06 40 80 be
       -0.37578392 0.4805979 -0.39279342 -0.25048846
000090 a0 ed 16 3d e0 bb be be 60 ac 57 3e 07 fa 7a be
       0.03684771 -0.37252712 0.2106185 -0.2450944
0000a0 06 e1 d9 be 30 f0 ca be f0 06 31 be 86 51 fa be
       -0.42554492 -0.39636374 -0.17287803 -0.48890322
0000b0 80 25 00 3d 3c c2 0c be c0 64 00 bd 7a 44 83 be
       0.031285763 -0.1374597 -0.031346083 -0.2563818
0000c0 f2 03 ed be ee 09 9a 3e
       -0.46292073 0.300857

weight f4 [3, 50]
000000 93 f7 a4 3d c5 68 36 3d 34 79 5e bc 33 57 0b 3e
       0.080550335 0.04453351 -0.013578702 0.13607483
000010 9e 66 a1 bc ec 3a 8d bb 00 46 11 bd bd dc 83 3d
       -0.019702252 -0.0043100026 -0.035467148 0.06438587
000020 90 50 9b 3d 17 42 f5 3d f1 08 08 bc ea f7 49 bd
       0.075837255 0.11975496 -0.008302913 -0.049308695
000030 9c 55 04 bd 8b 80 f7 bd 09 bc a7 bd 92 a7 67 3c
       -0.032308206 -0.120850645 -0.08190162 0.014139073
000040 9b e4 ce 3d b6 30 83 3c e4 af 9c bb 3e 21 27 3d
       0.10102197 0.016014438 -0.00478171 0.040803187
000050 50 76 5b bc e4 5d a9 bd f8 bc 0e bd a8 c0 85 bd
       -0.013394907 -0.08269861 -0.034848183 -0.06530887
000060 db fb 6c 3d 51 4e d1 3d 52 ec bb 3d 7a 95 cb 3b
       0.057857376 0.10220016 0.09175934 0.0062128874
000070 f8 0d d8 3c 7b 3f de bc 02 e1 06 3e a1 49 e0 3d
       0.026373848 -0.02712988 0.13171771 0.109515436
000080 c0 e3 88 3a de f1 d8 bd 60 de 00 be 9d 0b ae 3d
       0.0010443851 -0.105930075 -0.1258483 0.08498309
000090 ae 88 01 3e ac 62 bd bd d8 58 3e bc 3c 1b e3 3d
       0.12649795 -0.09247336 -0.011617862 0.11089179
0000a0 17 7d e1 bd ae 7d cd 3d 48 5f 1a bd e5 f4 12 3d
       -0.11010187 0.10033737 -0.037688524 0.03587808
0000b0 b4 f3 5e bd d3 c9 fe bc a8 41 f5 3d 20 17 89 3d
       -0.054431632 -0.031102097 0.119754136 0.06693864
0000c0 fd dd e2 3d a0 4a 68 3d c9 4d d4 3d af 0d 77 3c
       0.11077497 0.056711793 0.10366399 0.015078946
0000d0 7d ad a8 bc 37 14 8d bd 55 ae c7 3d c9 5f f2 bd
       -0.020590538 -0.06888621 0.09750048 -0.11834676
0000e0 61 a0 fd bc f1 81 d4 3d 20 03 9b bd 93 dc 27 bc
       -0.030960264 0.10376347 -0.075689554 -0.01024546
0000f0 55 74 1c 3d 49 49 d4 3d bc c4 e4 3d be ed e8 bb
       0.03819688 0.103655405 0.111703366 -0.007108419
000100 66 a3 87 3d 3a f5 df 3d 61 e2 92 bc d4 a6 9f bd
       0.06622963 0.10935445 -0.017930211 -0.07795492
000110 ed ef f4 3d 8b e0 f6 3d af 3c ef 3c c3 7a f8 3d
       0.11959825 0.12054547 0.02920374 0.1213279
000120 60 22 4e bd d6 1e 05 3e ea 66 01 3d 2b 5c 12 3e
       -0.05032575 0.13000044 0.031592287 0.14292972
000130 06 bf dc bd 61 0d f8 3c 3e 31 a3 bd 4a e1 07 bd
       -0.10778622 0.030279817 -0.079683766 -0.033173837
000140 3b 5b f4 3c 65 bf 03 3e db 27 46 3c d7 9d 0a 3d
       0.029828658 0.1286598 0.012094463 0.033841934
000150 9c 8d f7 3d 10 74 00 3e 93 62 00 3e ff 54 0b 3e
       0.12087557 0.12544274 0.12537603 0.13606642
000160 6e 8a dd bd 9c 6e d7 3d 92 85 8f 3d ac 10 3d bd
       -0.10817419 0.10519144 0.070078984 -0.046158478
000170 51 6e 3a 3c 4f f8 24 bd f3 1d b5 bd 22 a4 78 3d
       0.011378841 -0.040275868 -0.08843603 0.060703404
000180 5d 66 b8 3d 26 99 2d bd a0 15 9c 3d 92 eb 4f 3d
       0.09003899 -0.04238238 0.07621312 0.050761767
000190 71 91 03 be 55 9d 96 3d b5 8e e9 3b be fa 52 3d
       -0.1284845 0.073542275 0.0071276077 0.051508658
0001a0 3e 7c 10 be bd c9 07 3e ed 7b 6f 3d 32 57 0e bb
       -0.14109895 0.13260551 0.058467794 -0.0021719453
0001b0 25 35 d0 3d b6 3f dc 3c f6 f3 8e 3c c0 b0 03 3e
       0.101663865 0.026885848 0.017450314 0.12860394
0001c0 1b 6e a2 bd e2 a9 c4 3d 4a 13 f7 bb 56 1f 18 3e
       -0.07931157 0.09602715 -0.007540141 0.14855704
0001d0 3a 29 fc 3c e1 19 b9 bd 80 2d f1 b9 fd 6e a9 3c
       0.030781377 -0.09038139 -0.00046001002 0.020682806
0001e0 3f c9 97 3c 69 71 03 3d 31 94 12 be cf 55 2c 3d
       0.018528579 0.03209058 -0.14314343 0.04207402
0001f0 98 6f 02 3e 54 e0 9b 3d 3f 8c ce 3d 72 a8 c8 bd
       0.12737882 0.076111466 0.100853436 -0.097977534
000200 46 b2 57 bd 11 94 bb bd b3 03 90 bb df 7a 0c be
       -0.05266025 -0.09159101 -0.004394972 -0.13718747
000210 06 f4 ac 3c a1 36 c8 bd 5a a8 56 bd 87 3c 9a bd
       0.021112453 -0.09776045 -0.052406646 -0.07531076
000220 00 2f 14 3a 3f 80 c0 3c 17 d5 d4 3c 69 66 03 3e
       0.00056527555 0.023498653 0.025980515 0.12832035
000230 f8 4a 59 bc 3b f1 13 be 27 6a 5c 3d 81 2b 0f 3d
       -0.013262503 -0.14447491 0.053812172 0.034953598
000240 f2 c0 c9 bd 3d 89 ce 3c 4c 1e 16 3d 2f de ee bd
       -0.098512545 0.025211925 0.036649987 -0.11663472
000250 6a e1 af bd 43 14 14 be
       -0.08587916 -0.14460854

bias f4 [3]
000000 31 a5 2b bd 6d 25 cb 3d 73 7c 2e 3d
       -0.041905586 0.09919248 0.042599153

weight f4 [50]
000000 ae 47 81 3f 00 00 80 3f a4 70 7d 3f ae 47 81 3f
       1.01 1.0 0.99 1.01
000010 ae 47 81 3f ae 47 81 3f a4 70 7d 3f 00 00 80 3f
       1.01 1.01 0.99 1.0
000020 ae 47 81 3f ae 47 81 3f 00 00 80 3f 00 00 80 3f
       1.01 1.01 1.0 1.0
000030 a4 70 7d 3f ae 47 81 3f ae 47 81 3f ae 47 81 3f
       0.99 1.01 1.01 1.01
000040 a4 70 7d 3f 00 00 80 3f a4 70 7d 3f a4 70 7d 3f
       0.99 1.0 0.99 0.99
000050 a4 70 7d 3f 00 00 80 3f ae 47 81 3f ae 47 81 3f
       0.99 1.0 1.01 1.01
000060 ae 47 81 3f a4 70 7d 3f ae 47 81 3f ae 47 81 3f
       1.01 0.99 1.01 1.01
000070 a4 70 7d 3f ae 47 81 3f 00 00 80 3f ae 47 81 3f
       0.99 1.01 1.0 1.01
000080 a4 70 7d 3f ae 47 81 3f ae 47 81 3f 00 00 80 3f
       0.99 1.01 1.01 1.0
000090 ae 47 81 3f ae 47 81 3f a4 70 7d 3f ae 47 81 3f
       1.01 1.01 0.99 1.01
0000a0 a4 70 7d 3f ae 47 81 3f 00 00 80 3f 00 00 80 3f
       0.99 1.01 1.0 1.0
0000b0 ae 47 81 3f a4 70 7d 3f a4 70 7d 3f a4 70 7d 3f
       1.01 0.99 0.99 0.99
0000c0 ae 47 81 3f ae 47 81 3f
       1.01 1.01

bias f4 [50]
000000 00 00 00 00 00 00 00 00 00 00 00 00 00 00 00 00
       0.0 0.0 0.0 0.0
000010 00 00 00 00 00 00 00 00 00 00 00 00 00 00 00 00
       0.0 0.0 0.0 0.0
000020 00 00 00 00 00 00 00 00 00 00 00 00 00 00 00 00
       0.0 0.0 0.0 0.0
000030 00 00 00 00 00 00 00 00 00 00 00 00 00 00 00 00
       0.0 0.0 0.0 0.0
000040 00 00 00 00 00 00 00 00 00 00 00 00 00 00 00 00
       0.0 0.0 0.0 0.0
000050 00 00 00 00 00 00 00 00 00 00 00 00 00 00 00 00
       0.0 0.0 0.0 0.0
000060 00 00 00 00 00 00 00 00 00 00 00 00 00 00 00 00
       0.0 0.0 0.0 0.0
000070 00 00 00 00 00 00 00 00 00 00 00 00 00 00 00 00
       0.0 0.0 0.0 0.0
000080 00 00 00 00 00 00 00 00 00 00 00 00 00 00 00 00
       0.0 0.0 0.0 0.0
000090 00 00 00 00 00 00 00 00 00 00 00 00 00 00 00 00
       0.0 0.0 0.0 0.0
0000a0 00 00 00 00 00 00 00 00 00 00 00 00 00 00 00 00
       0.0 0.0 0.0 0.0
0000b0 00 00 00 00 00 00 00 00 00 00 00 00 00 00 00 00
       0.0 0.0 0.0 0.0
0000c0 00 00 00 00 00 00 00 00
       0.0 0.0

running_mean f4 [50]
000000 41 63 02 3d e9 d6 36 bd 9a d1 82 bd c1 08 b0 3d
       0.031832937 -0.044638548 -0.063876346 0.0859542
000010 a2 07 a2 bb 5e 91 1f 3d 18 c3 a0 bd 6b 0e b8 bb
       -0.0049447576 0.038956992 -0.07849711 -0.005616953
000020 5a 42 4e bd e8 1f 25 bd 65 fe 3e 3d e3 f0 6d 3d
       -0.050356247 -0.04031363 0.04662933 0.058091056
000030 22 bf a3 bd 1a 13 f5 bb c8 30 1c bd 02 7f fd ba
       -0.0799544 -0.0074790837 -0.03813246 -0.001934022
000040 c1 95 80 3d 9a 9e 74 3d ce e9 1b bd bd 06 22 bd
       0.06278563 0.059721567 -0.03806477 -0.039557207
000050 b7 e6 92 3c 16 f5 dc 3c 52 9d b3 bb a5 5b 07 bc
       0.017932279 0.026972335 -0.0054814005 -0.008261596
000060 79 b9 0b 3d a6 02 d0 bc 32 62 92 3d 32 7c a5 bd
       0.034112427 -0.025391888 0.071476355 -0.08080329
000070 38 4b c9 3b b3 0d fc 3b c6 c1 86 3d 70 cb 82 bc
       0.006143 0.0076920628 0.06579928 -0.015966147
000080 4a 8c a9 bd f7 37 91 3d 16 e3 9b bd 8e 20 91 bd
       -0.08278711 0.070907526 -0.076116726 -0.070862874
000090 ae 36 de bc 0c 59 96 bd 29 57 c0 3c 7e 35 1f bc
       -0.027125683 -0.07341203 0.023479061 -0.009717343
0000a0 e6 37 b0 bd 22 8b 3b 3a 0d d8 db 3c 0a 6e 6e bd
       -0.08604412 0.00071542163 0.02683642 -0.05821041
0000b0 82 f8 1f bc d1 88 95 3c 58 8f 81 3c d0 60 3b bd
       -0.009763839 0.018253716 0.015815422 -0.045746624
0000c0 cd cb e5 bc cd 59 c4 3c
       -0.028051281 0.023968602

running_var f4 [50]
000000 66 66 66 3f 66 66 66 3f 66 66 66 3f 66 66 66 3f
       0.9 0.9 0.9 0.9
000010 66 66 66 3f 66 66 66 3f 66 66 66 3f 66 66 66 3f
       0.9 0.9 0.9 0.9
000020 66 66 66 3f 66 66 66 3f 66 66 66 3f 66 66 66 3f
       0.9 0.9 0.9 0.9
000030 66 66 66 3f 66 66 66 3f 66 66 66 3f 66 66 66 3f
       0.9 0.9 0.9 0.9
000040 66 66 66 3f 66 66 66 3f 66 66 66 3f 66 66 66 3f
       0.9 0.9 0.9 0.9
000050 66 66 66 3f 66 66 66 3f 66 66 66 3f 66 66 66 3f
       0.9 0.9 0.9 0.9
000060 66 66 66 3f 66 66 66 3f 66 66 66 3f 66 66 66 3f
       0.9 0.9 0.9 0.9
000070 66 66 66 3f 66 66 66 3f 66 66 66 3f 66 66 66 3f
       0.9 0.9 0.9 0.9
000080 66 66 66 3f 66 66 66 3f 66 66 66 3f 66 66 66 3f
       0.9 0.9 0.9 0.9
000090 66 66 66 3f 66 66 66 3f 66 66 66 3f 66 66 66 3f
       0.9 0.9 0.9 0.9
0000a0 66 66 66 3f 66 66 66 3f 66 66 66 3f 66 66 66 3f
       0.9 0.9 0.9 0.9
0000b0 66 66 66 3f 66 66 66 3f 66 66 66 3f 66 66 66 3f
       0.9 0.9 0.9 0.9
0000c0 66 66 66 3f 66 66 66 3f
       0.9 0.9

weight f4 [50, 4]
000000 1f 4f 93 3d da a4 d9 be ab 99 3c 3e be a4 f1 3e
       0.071928255 -0.42508584 0.18417995 0.47196
000010 59 3c e5 3d 4e 88 93 3e e8 cf 8f 3e 8b 4a 10 be
       0.11193151 0.2881493 0.28088307 -0.14090936
000020 f6 96 b2 be 48 05 b8 3e a8 15 7d be 4e 0e a4 be
       -0.348808 0.3594153 -0.24715292 -0.32042164
000030 f6 6a c6 be 2c 33 23 be c8 b1 7a be fc 11 25 3e
       -0.3875348 -0.1593749 -0.2448188 0.16120142
000040 c4 5c 33 be 4a 91 fe 3e 00 e0 1c b9 84 aa b4 3e
       -0.17515856 0.49720222 -0.00014960766 0.35286343
000050 18 21 b8 bd 66 c6 cd 3e 30 7a 89 bd f8 da 61 be
       -0.08990687 0.40190428 -0.067127585 -0.22056186
000060 72 47 9d be fc 3d 75 3e 1c b9 6b 3e 20 3f e6 3e
       -0.3071857 0.23949426 0.23019832 0.44970036
000070 d8 b7 92 be 64 40 53 be 5c 73 b3 be 5a a5 b3 3e
       -0.28655887 -0.20630032 -0.3504895 0.3508709
000080 15 d3 43 3e cc ae e8 be d9 f6 5e 3e b1 0f fd bd
       0.1912349 -0.4544586 0.21773852 -0.123565085
000090 d0 28 db 3d 38 b3 32 3e 4c 1d e2 be f8 99 cc 3e
       0.10701144 0.17451179 -0.44162977 0.3996122
0000a0 38 ac 87 be fe f1 e6 be 40 db 4a bd d8 7b 21 be
       -0.2649858 -0.451065 -0.0495255 -0.15769899
0000b0 5a 42 c7 bc 9e ce aa be b2 ae 77 3d a5 81 df 3c
       -0.024323631 -0.3336076 0.060469337 0.027283499
0000c0 39 82 31 be 02 0b c5 be 4c 62 be 3e 10 1b ba be
       -0.17334832 -0.3848496 0.3718437 -0.36348772
0000d0 d2 2c 96 3e 16 b7 eb 3e 42 9e 5f 3d 69 9a 8f bd
       0.2933107 0.4603812 0.054594286 -0.07011873
0000e0 81 6b e0 3d 17 05 a9 3d e0 8f f3 3e ba 86 bf 3c
       0.10958005 0.08252924 0.47570705 0.023379672
0000f0 8d 45 4f 3e 07 72 20 3e 6e 23 9f 3e a8 08 8b 3e
       0.20241375 0.15668498 0.31081718 0.27155042
000100 6a f6 90 be 04 54 9d 3e 00 53 b6 be a2 35 8c be
       -0.28313 0.3072816 -0.356102 -0.2738467
000110 00 22 d8 bd 40 d7 53 3c 00 95 dc 3b ec cf e5 3e
       -0.1055336 0.012929738 0.0067316294 0.44885194
000120 1c 20 88 be 3a 2c dc be b0 ca d2 bd 38 bc ca 3e
       -0.26586998 -0.43002492 -0.10292566 0.39596725
000130 d0 5f ce 3d 48 81 20 3e d8 ea e6 bd dc 5f 40 be
       0.100768685 0.15674317 -0.11275262 -0.18786567
000140 b3 88 4b 3e 1f 50 9d bd 43 06 74 3e f6 bd e8 3e
       0.19876365 -0.076812975 0.23830514 0.4545743
000150 26 8f 8a 3e 91 69 19 be 22 b2 40 3d 56 0f a4 3e
       0.2706234 -0.14981677 0.04704488 0.3204295
000160 f2 28 b3 3e fb 5e 34 be 00 24 e3 3e 62 92 91 be
       0.34992176 -0.17614357 0.44363403 -0.28431994
000170 00 46 78 bb f0 94 2b be 74 99 c7 be 7c d7 97 3e
       -0.003788352 -0.16756034 -0.38984263 0.2965659
000180 14 26 ec be 7c 95 0e 3e 74 28 b6 be fc 88 61 3e
       -0.461228 0.13924211 -0.35577738 0.22024912
000190 2c 33 b3 be c8 88 ad 3e de 70 8b 3e 40 bf 96 3d
       -0.3499998 0.33893418 0.27234548 0.07360697
0001a0 4f 04 15 3e 8f bd ed bd 49 f0 1f bc 18 84 9f 3e
       0.14552425 -0.11608421 -0.009761878 0.31155467
0001b0 d8 29 af 3d 5e e7 bc 3e a4 a2 01 be b6 f4 ee 3e
       0.08552903 0.3689527 -0.12659699 0.46671075
0001c0 d9 53 2b 3e 82 ac b9 3e e9 62 c7 3d f2 48 7f bd
       0.16731204 0.36264426 0.097356625 -0.062325425
0001d0 04 b4 91 3e 35 42 07 be ac b8 c8 3e 1f e5 32 be
       0.28457654 -0.1320885 0.39203393 -0.17470215
0001e0 c8 90 b8 bd ba e9 e6 3e ba 8c f4 be d0 48 01 be
       -0.0901199 0.45100194 -0.47763616 -0.12625432
0001f0 88 51 b8 be 0b 7e 11 be 4b 30 5d 3e e4 cc bf be
       -0.35999703 -0.14208238 0.21600454 -0.37461007
000200 e0 c7 30 bd 30 43 aa be 08 4b 59 be 30 89 02 bd
       -0.043159366 -0.33254385 -0.21220028 -0.031869113
000210 80 1f e8 3b 6a a5 8a 3e a0 0c f3 be 58 77 af 3e
       0.007083833 0.27079326 -0.4747057 0.3427074
000220 4a a1 ba 3e 80 60 ee 3d b2 1d e7 be 00 2b 37 bd
       0.3645118 0.116395 -0.45139843 -0.044718742
000230 a4 de b6 3e a7 e5 62 be 70 d4 83 be 46 33 86 be
       0.35716736 -0.22157918 -0.25748014 -0.26210994
000240 74 41 25 3e 56 1f b5 be 66 fc fe be fc 2a 17 be
       0.1613825 -0.3537547 -0.4980194 -0.14762491
000250 00 4a 39 3d 00 79 cd 3d b0 b7 a5 bd f0 e4 d0 3d
       0.045236588 0.100328445 -0.08091676 0.10199916
000260 82 7c ec be 74 07 1d be e0 d4 22 3d a6 31 f8 3e
       -0.46188742 -0.15334874 0.039753795 0.4847538
000270 fc 1c fe be 46 04 b3 3e 94 c1 c9 be a0 6b cf be
       -0.49631488 0.34964198 -0.394055 -0.405118
000280 fc 2a 50 3e ae f0 89 be b6 ed 8f be 3c b3 fb 3e
       0.20328897 -0.26941437 -0.28111047 0.49160182
000290 be 1e d7 be 1a c4 fa 3e d6 2b c8 be 58 4c fe bd
       -0.42015642 0.4897774 -0.39095944 -0.12416905
0002a0 e2 db 0c bd 30 65 a4 be ae 94 a2 3e fc 3a e2 3e
       -0.034389384 -0.3210845 0.3175406 0.44185627
0002b0 35 8c 3c be f2 f6 85 3e d6 91 95 3e 5e 2a fc be
       -0.1841286 0.26164967 0.29212826 -0.49251074
0002c0 bc a3 37 3e 80 67 a1 3b b0 d3 ec bd c0 84 d3 bd
       0.17933553 0.0049256682 -0.11563814 -0.103280544
0002d0 12 f6 a5 be 08 6c c4 bd d0 0e ec be 5e d7 b9 be
       -0.324143 -0.09590918 -0.4610505 -0.36297125
0002e0 50 6e c6 3a 77 2a 88 3d 3e 21 d6 3e 30 1f a7 be
       0.0015139077 0.066487245 0.41822237 -0.32640982
0002f0 98 cc b2 be 54 e9 d1 3e 1c 02 70 be a2 9f ec 3e
       -0.34921718 0.40998328 -0.23438305 0.4621554
000300 a0 9b f0 bc 46 df dc 3e d2 d4 cb be e4 a8 ca 3e
       -0.029371083 0.43139094 -0.39810807 0.39581978
000310 b0 3e ea 3e 52 de ab be af 24 21 be 37 ab e9 bd
       0.45750952 -0.33568054 -0.1573665 -0.1140961

bias f4 [50]
000000 e1 3e 0a 3e fd 55 23 bd 38 d1 7a be 78 3b 8f 3d
       0.13500549 -0.039876927 -0.24493873 0.06993765
000010 c0 34 b6 3c 8a f1 f2 3e 62 dc f5 be c8 d9 21 be
       0.02224195 0.47449905 -0.480197 -0.15805733
000020 7c 4a ca be dc 50 26 3e 54 21 51 3e a1 b4 21 3e
       -0.39509952 0.16241783 0.2042287 0.1579156
000030 3e c2 99 be c5 c2 36 be 18 1f 90 be 78 26 d6 be
       -0.30031008 -0.17847736 -0.28148723 -0.41826224
000040 4c d1 41 3e 30 64 b5 bd 66 83 f6 3e 60 dc 57 3e
       0.18927497 -0.08857 0.48147124 0.2108016
000050 5e c0 98 be 87 8b d5 bd 85 a2 6b be 54 d5 60 be
       -0.29834265 -0.10427003 -0.23011215 -0.21956378
000060 24 83 74 3e 0a 95 9f 3e 57 72 52 3e 3a a4 c5 be
       0.23878151 0.31168395 0.2055143 -0.38601857
000070 ea 9c fa 3e 93 21 02 bf 88 dd ff 3e 16 c2 d9 be
       0.4894784 -0.5083248 0.49973702 -0.42530888
000080 46 1f 91 be d8 6c 32 be ac 70 2c be 9a 52 b9 3e
       -0.28344172 -0.17424333 -0.16839856 0.36195832
000090 3a c0 c5 3e 40 49 eb 3d 8e be e2 be 32 e5 a4 3e
       0.3862322 0.11488581 -0.44286007 0.32206112
0000a0 70 ad 2b bd 78 d3 b0 be 36 39 05 3c 8c 9a bb be
       -0.04191345 -0.34536338 0.008131316 -0.36641347
0000b0 98 da 08 3e d8 cb 85 3e 97 84 10 3e c0 8b 88 3e
       0.13364637 0.26132083 0.14113079 0.2666912
0000c0 90 8d f1 3d 4a 36 ef 3e
       0.11794579 0.46721107

weight f4 [3, 50]
000000 5f 85 06 3c 75 18 f6 3c de 94 dd bd 76 46 e4 3d
       0.008210509 0.030040959 -0.1081941 0.11146252
000010 e8 c7 2b 3d 32 7a 0b 3c a7 6b 01 3e f8 a2 60 3b
       0.041938692 0.00851302 0.12638722 0.0034276824
000020 a4 a8 10 be ba e7 18 be 05 31 11 bd 24 2d 98 3d
       -0.14126831 -0.14932147 -0.03544714 0.07430485
000030 48 61 1b 3d a6 68 9d bd c6 63 0d be f5 25 e0 bd
       0.03793457 -0.07685976 -0.13807592 -0.1094474
000040 b0 96 33 bb fe 1d bf 3c 02 fb 0b be ad 3e 17 3d
       -0.002740305 0.023329731 -0.1366997 0.036925007
000050 9b 52 f9 3c 9d 6f dc bd aa ab e6 3d b5 20 1a be
       0.030434897 -0.10763476 0.11263211 -0.15051539
000060 f2 29 e6 3d 36 6f ed bd 95 08 db 3d d8 d9 f8 bd
       0.11238469 -0.115934774 0.10694996 -0.121509254
000070 74 6d 3f bd e9 b0 98 bd 18 a7 5d bd d3 a1 f9 3d
       -0.046735242 -0.07455618 -0.05411443 0.12189069
000080 e0 93 94 bd d0 97 1a be 85 dc a3 3d 9e bb d2 3d
       -0.072547674 -0.15096974 0.08001045 0.102896914
000090 e3 fb 91 bd 58 54 d6 bd 20 c3 e4 bc 18 09 19 3d
       -0.07128122 -0.10465306 -0.027925074 0.037362188
0000a0 14 d2 a7 bd ce a8 56 bd 0c 78 5a bd 36 aa ad bd
       -0.08194366 -0.05240708 -0.053337142 -0.08479731
0000b0 b5 cf b3 bd c6 33 3d 3d 82 5d 76 3d 86 48 f0 3c
       -0.08779851 0.046191953 0.06014777 0.029331457
0000c0 8d 17 a6 bd 67 23 53 bd 30 9c 6a 3d b4 9b 49 bd
       -0.08109961 -0.051547434 0.05727786 -0.049220756
0000d0 98 22 2e bb 83 63 c0 3c bb b0 ed bd 2e be 68 bd
       -0.0026570912 0.02348495 -0.11605974 -0.056821994
0000e0 5b 58 ea 3d 1c 4e 4c 3d 9d 9f b8 bc fc 52 d0 3b
       0.11442634 0.04987918 -0.022537047 0.0063575488
0000f0 c9 04 f9 bd dd 4d c2 3d ac 3b ad 3d 3f 7f 52 bd
       -0.12159116 0.094875075 0.08458647 -0.051390883
000100 7c 64 2d bd 39 4f 8b bd 27 42 77 bc 2e 41 96 3d
       -0.042332157 -0.0680222 -0.015091456 0.07336651
000110 2b 84 76 3d a2 13 ca 3d 66 ce d3 3c a9 3b 12 3e
       0.06018464 0.09867026 0.025855254 0.14280571
000120 56 03 c7 3d fb c7 eb bd e0 59 09 bb 64 1d df 3d
       0.09717433 -0.115127526 -0.002095811 0.10894278
000130 78 8a ba 3d 9e 25 a5 3d 9f 42 16 3e 5e 80 18 3c
       0.09108442 0.080638155 0.14673851 0.009307949
000140 e3 33 9e 3d 59 99 b7 3d fa a8 13 3d cf 96 d8 3d
       0.0772474 0.089647956 0.03604982 0.105756395
000150 17 49 22 3d 0f 6b f7 bd 4d 85 03 3e 40 33 eb 3c
       0.039620485 -0.12080967 0.12843819 0.028710961
000160 b0 fc f6 3d 0d 25 a4 3d c6 88 c0 bc a4 e0 f6 bc
       0.12059915 0.080148794 -0.023502719 -0.030136414
000170 27 bc 1c bd 84 fd ad 3d f7 c8 a6 bd db f2 ac 3d
       -0.038265374 0.0849562 -0.081438 0.084447585
000180 1a e2 ac 3c 38 89 2a 3d 6b 48 15 3e 8b b9 1e 3c
       0.021103907 0.04163477 0.14578407 0.009687792
000190 23 fc db 3c 95 54 04 be 50 da b4 bd cc 1c 52 3b
       0.026853627 -0.1292289 -0.08830702 0.0032060621
0001a0 48 08 6a 3d f9 2a 85 3d fe 65 8d 3d c6 a1 d1 3d
       0.057136804 0.06502337 0.06904219 0.10235934
0001b0 54 58 55 bd 9d da 89 bd b3 ec 88 3d 11 5f a7 bd
       -0.05208619 -0.0673115 0.06685772 -0.08172429
0001c0 d7 e5 b4 3d 5e 6a 07 3d 18 58 05 bd 54 ee 55 bd
       0.08832901 0.033060424 -0.032554716 -0.05222924
0001d0 bc b7 6d bd 0a 67 e7 3d 35 37 31 3c 53 84 17 bd
       -0.05803655 0.1129895 0.010816385 -0.03699143
0001e0 13 45 8f 3d c8 f7 16 bc 04 ac 97 bc a1 ac d2 3d
       0.06995597 -0.009214349 -0.01851464 0.102868326
0001f0 2f 4f d4 bd b1 72 04 3e 2e 98 66 bc 58 ab 95 bd
       -0.103666656 0.12934376 -0.014074368 -0.07308072
000200 a6 cc d5 bd 99 e7 cd bd ae 52 16 bd 7a 73 85 bd
       -0.10439424 -0.10053939 -0.036699943 -0.06516166
000210 6c db fb 3d 1e c1 d7 3b e6 65 87 bd bf 76 7d bc
       0.12297711 0.0065843007 -0.066112325 -0.015470206
000220 63 6e 80 3c b0 6e f0 3c 54 94 22 3d b2 19 06 be
       0.015677636 0.029349655 0.039692238 -0.1309574
000230 9f 34 ea bd e3 c5 8c 3d 43 11 fc 3d 57 23 f8 3d
       -0.11435818 0.068736814 0.1230798 0.121161155
000240 fa 70 45 bc f8 26 93 bc 56 5d 12 be 84 f6 e2 3d
       -0.0120508615 -0.017962918 -0.14293417 0.110821754
000250 dd d1 cb 3d 80 26 95 bc
       0.099521376 -0.018206835

bias f4 [3]
000000 5b eb 08 bc 6b 40 4f 3d bd 32 c8 bd
       -0.008356894 0.050598543 -0.097753026

weight f4 [50]
000000 a4 70 7d 3f ae 47 81 3f ae 47 81 3f a4 70 7d 3f
       0.99 1.01 1.01 0.99
000010 a4 70 7d 3f a4 70 7d 3f a4 70 7d 3f ae 47 81 3f
       0.99 0.99 0.99 1.01
000020 ae 47 81 3f ae 47 81 3f ae 47 81 3f ae 47 81 3f
       1.01 1.01 1.01 1.01
000030 a4 70 7d 3f ae 47 81 3f ae 47 81 3f ae 47 81 3f
       0.99 1.01 1.01 1.01
000040 a4 70 7d 3f ae 47 81 3f ae 47 81 3f a4 70 7d 3f
       0.99 1.01 1.01 0.99
000050 a4 70 7d 3f ae 47 81 3f a4 70 7d 3f ae 47 81 3f
       0.99 1.01 0.99 1.01
000060 a4 70 7d 3f ae 47 81 3f a4 70 7d 3f ae 47 81 3f
       0.99 1.01 0.99 1.01
000070 ae 47 81 3f ae 47 81 3f ae 47 81 3f a4 70 7d 3f
       1.01 1.01 1.01 0.99
000080 ae 47 81 3f ae 47 81 3f a4 70 7d 3f a4 70 7d 3f
       1.01 1.01 0.99 0.99
000090 ae 47 81 3f ae 47 81 3f ae 47 81 3f a4 70 7d 3f
       1.01 1.01 1.01 0.99
0000a0 ae 47 81 3f ae 47 81 3f a4 70 7d 3f a4 70 7d 3f
       1.01 1.01 0.99 0.99
0000b0 ae 47 81 3f a4 70 7d 3f ae 47 81 3f ae 47 81 3f
       1.01 0.99 1.01 1.01
0000c0 ae 47 81 3f ae 47 81 3f
       1.01 1.01

bias f4 [50]
000000 0a d7 23 bc 0a d7 23 3c 00 00 00 00 00 00 00 00
       -0.01 0.01 0.0 0.0
000010 00 00 00 00 0b d7 23 3c 00 00 00 00 00 00 00 00
       0.0 0.010000001 0.0 0.0
000020 0a d7 23 3c 00 00 00 00 00 00 00 00 0b d7 23 3c
       0.01 0.0 0.0 0.010000001
000030 0b d7 23 bc 0a d7 23 3c 09 d7 23 3c 09 d7 23 3c
       -0.010000001 0.01 0.009999999 0.009999999
000040 00 00 00 00 00 00 00 00 00 00 00 00 00 00 00 00
       0.0 0.0 0.0 0.0
000050 0a d7 23 bc 0a d7 23 3c 0a d7 23 bc 00 00 00 00
       -0.01 0.01 -0.01 0.0
000060 00 00 00 00 00 00 00 00 0a d7 23 bc 00 00 00 00
       0.0 0.0 -0.01 0.0
000070 08 d7 23 3c 09 d7 23 3c 00 00 00 00 0a d7 23 bc
       0.009999998 0.009999999 0.0 -0.01
000080 00 00 00 00 00 00 00 00 00 00 00 00 0a d7 23 bc
       0.0 0.0 0.0 -0.01
000090 00 00 00 00 00 00 00 00 00 00 00 00 00 00 00 00
       0.0 0.0 0.0 0.0
0000a0 00 00 00 00 00 00 00 00 0b d7 23 bc 0a d7 23 bc
       0.0 0.0 -0.010000001 -0.01
0000b0 00 00 00 00 00 00 00 00 0a d7 23 3c 00 00 00 00
       0.0 0.0 0.01 0.0
0000c0 00 00 00 00 08 d7 23 3c
       0.0 0.009999998

running_mean f4 [50]
000000 b6 47 68 3d 88 07 75 bc c8 cb 67 bd 69 a0 96 3c
       0.056709014 -0.014955409 -0.056590825 0.018387036
000010 a7 ec 28 3d fa e9 e5 3c 7a 3d 75 b9 42 fb 5f 3c
       0.041241314 0.02806567 -0.00023387923 0.013670744
000020 5d 05 5b bd d5 c1 5f 3d c4 03 2a ba 76 a9 64 3c
       -0.05347191 0.054628212 -0.00064855465 0.013956418
000030 50 f7 85 bd 20 3a 8e bc fe 51 9b bc d3 e3 46 bc
       -0.06541312 -0.0173617 -0.018959995 -0.012139278
000040 27 31 1d bc 12 b3 12 3d 55 59 a8 3d 7d c6 4d 3b
       -0.009594238 0.035815306 0.08220164 0.0031398826
000050 1e c8 87 3c ee b8 a0 3c 65 38 3d bd 22 7a 4d 3b
       0.016574915 0.019619431 -0.04619636 0.0031353314
000060 d4 b5 2e 3d dd a7 2d 3d 5e c0 59 3d f7 e1 2d 3c
       0.042653874 0.042396415 0.05316197 0.010612956
000070 6a 7f 41 3d 02 df 85 bd db 64 18 3d 15 61 a1 bd
       0.047240652 -0.06536676 0.03720556 -0.07879845
000080 3f 9b 14 bd c6 e0 7d 3c 9e b5 b8 bc 52 3f ae 3b
       -0.036280867 0.015495485 -0.02254754 0.005317607
000090 55 8d 8e 3c d8 f9 b4 3c f2 3d c4 3a f1 18 26 bc
       0.017401377 0.022091791 0.0014972074 -0.010137782
0000a0 b5 67 28 3d 32 91 41 bd c3 da 3e 3d ed ba a5 bd
       0.041114528 -0.04725761 0.046595346 -0.08092294
0000b0 6d 34 38 3b 0d 91 81 bc 1e 34 70 bc 8f 44 96 3d
       0.002810742 -0.015816236 -0.014660863 0.07337295
0000c0 60 9e 54 3d 49 1b 06 3d
       0.05190885 0.032740865

running_var f4 [50]
000000 66 66 66 3f 66 66 66 3f 66 66 66 3f 66 66 66 3f
       0.9 0.9 0.9 0.9
000010 66 66 66 3f 66 66 66 3f 66 66 66 3f 66 66 66 3f
       0.9 0.9 0.9 0.9
000020 66 66 66 3f 66 66 66 3f 66 66 66 3f 66 66 66 3f
       0.9 0.9 0.9 0.9
000030 66 66 66 3f 66 66 66 3f 66 66 66 3f 66 66 66 3f
       0.9 0.9 0.9 0.9
000040 66 66 66 3f 66 66 66 3f 66 66 66 3f 66 66 66 3f
       0.9 0.9 0.9 0.9
000050 66 66 66 3f 66 66 66 3f 66 66 66 3f 66 66 66 3f
       0.9 0.9 0.9 0.9
000060 66 66 66 3f 66 66 66 3f 66 66 66 3f 66 66 66 3f
       0.9 0.9 0.9 0.9
000070 66 66 66 3f 66 66 66 3f 66 66 66 3f 66 66 66 3f
       0.9 0.9 0.9 0.9
000080 66 66 66 3f 66 66 66 3f 66 66 66 3f 66 66 66 3f
       0.9 0.9 0.9 0.9
000090 66 66 66 3f 66 66 66 3f 66 66 66 3f 66 66 66 3f
       0.9 0.9 0.9 0.9
0000a0 66 66 66 3f 66 66 66 3f 66 66 66 3f 66 66 66 3f
       0.9 0.9 0.9 0.9
0000b0 66 66 66 3f 66 66 66 3f 66 66 66 3f 66 66 66 3f
       0.9 0.9 0.9 0.9
0000c0 66 66 66 3f 66 66 66 3f
       0.9 0.9
