Models/deep_hedging_discretized_feedforward__2022-04-06-18-36-29.pt (torch, 571065 bytes, 800 tensors)

weight f4 [50, 4]
00000000: a2d9 d03e 705f 393d 746d 833e d075 0c3d
00000010: 403d 8cbc e06c 903d 30d1 80be 686e fc3e
00000020: c828 0ebe 3045 a2be 3217 853e 445c 5cbe
00000030: d6db d03e 28d2 c93e 86a7 b73e 2cd3 7a3e
00000040: d00f 403d e6b4 85be 0030 373e d8d0 9dbd
00000050: 9c52 6cbd d7b1 fa3e 10fb 753e 0d9c 073f
00000060: 7cad 00be 3c0e 9f3e 0c5a 4f3e ba8c 9ebe
00000070: 4618 81be ee35 bdbd e608 ccbe 4073 9c3d
00000080: a4f0 ebbe 0675 b03e d2f0 833e 1461 31be
00000090: 05c7 9d3e 835a a0be 7805 8fbe 68ea 1a3e
000000a0: 0056 2f3c 4098 21bc 86dd fd3e 205f 87be
000000b0: 2bec eb3d cdf8 f7bd 881c 8c3e 8b57 85be
000000c0: 1354 843e 9959 873c 853a e93e 2e67 d83e
000000d0: a0bf 7dbe 44f0 c8be 64ce 3ebe 30c9 a7bd
000000e0: 2f95 9c3e a3ef 2f3e b698 03bb 123c 16bc
000000f0: c8fd 17be f48a 6b3e 3e8c f03e 4c4e 64be
00000100: c03d 16bc 2030 e9be 1c71 d73e 6031 1fbd
00000110: 94d1 f63e 6a02 91be 3e87 cc3e c671 bdbe
00000120: 9c24 dabe 1a30 aa3e 60e2 8b3c 8076 15be
00000130: 1a03 88be a008 82be f00c a83d ca04 df3e
00000140: a01c 40be 00f8 293a 1e5b 923e 602f 24be
00000150: 1692 c83e 386c a8be 0436 03be 2c81 563e
00000160: dcfe 50be 80f4 8abe 646d 403e 5e2e d3be
00000170: 801b d2be 4e31 ce3e ecce e23e 8cc7 88be
00000180: 22f3 a0be c8c9 a7bd f042 703d 0a6d dd3e
00000190: 78b0 c5be b000 abbe 809d 603d 985f 74be
000001a0: 2408 e5be a4c9 e63e d2e0 f23e 9844 b63e
000001b0: c21b 2f3e 0ca8 ba3c 9391 4bbe 8bf3 683d
000001c0: 726f bb3e 0270 8c3e 922a ffbe b818 6d3e
000001d0: 76a0 f13e 5675 b13e 8023 103d c0ec 2dbd
000001e0: 8ae6 b03e 6c72 7a3e 18ab a8bd a844 413e
000001f0: a0a0 58be 1076 60be 6454 223e 261d 83be
00000200: df00 3cbe 7b85 733e 87b7 653e 82e3 f03e
00000210: 50b2 683d d8f1 debe 8077 073c 9024 37bd
00000220: f849 c1bd 9057 99bd c4e8 99be b40a 853e
00000230: 32d4 80be 60fe 28be 781f cbbe 909a ecbe
00000240: 2ad7 f23e 40b7 bdbe b8f7 b73d 8a53 f83e
00000250: e48b 1d3e 64ff 8c3e 4633 93be 90bd b43d
00000260: 04df 1c3e be1c efbe f02d f83d ce85 90be
00000270: 20af 5d3d 7abd 8f3e c20c a33e 5853 d5bd
00000280: cb7e e23d 66ac 8f3e f27e 3b3e 1e16 55be
00000290: 5e5e c6bd 2d89 05bf d5af a1be 4b00 853d
000002a0: 80eb 193c 3611 d03e e8c0 c5be 1cbe 9ebe
000002b0: 9020 5f3e 8a30 a23e ba5e b4be f645 efbe
000002c0: 105f d93d 2e3d 8ebd 0b9a 1bbe c597 ffbe
000002d0: 026d 22be 9cd3 d8be 1b72 63be e8b0 18be
000002e0: a470 2abe 42fd 8c3e 566d a03e 1081 513d
000002f0: e30e cb3e ce9c c9be b531 d83e 0e7d b0be
00000300: 3075 92bd 5866 ea3d bc8b 593e ae24 903e
00000310: 3647 2cbe db63 8e3e f4b7 4b3e 7b0a 643e
0.4079104 0.045257032 0.25669444 0.034292042 -0.01711905 0.07052016 -0.25159597 0.49302983
-0.13882744 -0.3169341 0.2599426 -0.21519572 0.40792722 0.3941815 0.35869998 0.24494618
0.04689008 -0.26114577 0.17889404 -0.077058494 -0.05769597 0.48963806 0.24021554 0.5297249
-0.12566179 0.31065547 0.20249194 -0.3096674 -0.25213832 -0.09238802 -0.3985054 0.0763917
-0.46082032 0.34464282 0.2576967 -0.17322189 0.30815902 -0.31319055 -0.2793386 0.15128481
0.010701656 -0.009862959 0.4958307 -0.26439762 0.11519655 -0.12108002 0.27365518 -0.26043352
0.25845394 0.016522216 0.4555246 0.4226622 -0.2478013 -0.39245808 -0.1863342 -0.0819267
0.30582568 0.17181258 -0.0020080036 -0.009169595 -0.14842904 0.23002225 0.46981996 -0.22295493
-0.009169996 -0.4554453 0.42078483 -0.038865447 0.4820677 -0.28322154 0.39946932 -0.37000865
-0.42606056 0.33239824 0.017075717 -0.14595985 -0.26564866 -0.25397205 0.08205593 0.4355834
-0.1876092 0.0006483793 0.28585142 -0.16033697 0.39173955 -0.32895064 -0.12813574 0.20947713
-0.20409721 -0.27139664 0.18791729 -0.41246313 -0.41036606 0.40271991 0.44298494 -0.26714742
-0.31435496 -0.081927836 0.058657587 0.43247253 -0.38611197 -0.33398962 0.054837704 -0.23864591
-0.44732773 0.45075715 0.4743715 0.35599208 0.17100433 0.02278521 -0.19879751 0.056872886
0.36608464 0.27429205 -0.49837166 0.2315396 0.47192734 0.34659833 0.035190105 -0.04246211
0.34550887 0.24457711 -0.082357585 0.18873847 -0.21155024 -0.21920037 0.15852505 -0.25608176
-0.18359707 0.23781388 0.22433291 0.47048575 0.056810677 -0.43543887 0.008268237 -0.044712603
-0.094379365 -0.07487404 -0.300604 0.25984728 -0.25161892 -0.16503286 -0.39672446 -0.46211672
0.47429782 -0.3705387 0.089827955 0.48501235 0.15385395 0.27538598 -0.28750056 0.08825219
0.15319449 -0.46701616 0.12118137 -0.28227085 0.05412209 0.28074247 0.3184567 -0.10416287
0.1105934 0.28061217 0.18310145 -0.20809218 -0.09685968 -0.5216244 -0.31579462 0.064941965
0.0093945265 0.4063813 -0.38623738 -0.31004417 0.21789765 0.31677657 -0.3522852 -0.46733063
0.10613835 -0.06945263 -0.15195481 -0.49920478 -0.15861896 -0.42348945 -0.22211497 -0.14911234
-0.16644531 0.2753697 0.31333417 0.051148474 0.39659795 -0.39377445 0.42225423 -0.3447041
-0.07151258 0.11445302 0.2124471 0.28152984 -0.1682404 0.2781056 0.19894391 0.22269623

bias f4 [50]
00000000: 405f 183d 108e e13d 20af bc3c 80ec 24bc
00000010: 1a72 e03e 341a 17be 1c0b c53e ff9d 00bf
00000020: dc66 a43e 2fb3 bcbe c09e 633c 8d76 853e
00000030: 2d12 9d3e bc6f 2bbe 7173 cebe 4e26 fe3e
00000040: a010 82be 26d5 84be 8277 fa3e de22 bebe
00000050: 4017 533e f6cd 96be acb6 e8be d812 3dbe
00000060: a074 a2bc b0d0 e63d a845 723e 4ee7 853e
00000070: c492 7bbe 78dc d73d 1ab5 c63e 0a29 cc3e
00000080: 7bc9 c5bd d091 64be d81a d6be 40db 423e
00000090: 6c94 6f3e 1831 3abe 203f dfbd 04df 243e
000000a0: e970 cb3e c2a9 00bf 8093 db3d 1e76 d5be
000000b0: 2693 06bf 26f6 c2be 544f 9f3e c386 023f
000000c0: 2a6d c33e 0997 343f
0.037200212 0.110134244 0.023032725 -0.010066152 0.43837053 -0.1475609 0.38485038 -0.5024108
0.32109725 -0.36855456 0.013892829 0.2606701 0.3067793 -0.16741842 -0.4032245 0.496386
-0.2540331 -0.2594387 0.48919302 -0.37135977 0.20614338 -0.2945401 -0.45451868 -0.1846422
-0.019831002 0.11270273 0.23659384 0.26153034 -0.24567705 0.10540098 0.38810045 0.3987506
-0.0965757 -0.22321248 -0.41817355 0.1902895 0.23396462 -0.1818279 -0.10900712 0.16100699
0.3973458 -0.5025903 0.10721493 -0.4169168 -0.5256828 -0.3807842 0.3111521 0.5098688
0.38169223 0.7054296

weight f4 [3, 50]
00000000: 6a4b b8bd 8312 353d dff2 e63d c5fe dcbd
00000010: 48f5 b3bc ee06 54bd 0da3 abbb b4fc 043d
00000020: 042b 0bbe 5fe8 d5bd 5f11 963d f629 cdbd
00000030: 1621 1b3e 4f5d 473d 90fe 11bd 476e 9fbc
00000040: 75de 0bbd a99a f0bc ccf7 4ebc cc1f 9cbd
00000050: b1f5 24bd 01d5 a43d 6958 ca3d f252 d43c
00000060: d297 b13c 7835 f8bd 5452 ec3c a05b 8d3e
00000070: d581 7abd 563e 10bd d88e 0c3e 34f9 ae3c
00000080: ef91 0b3e 4d22 1dbd 6a80 02be 7b77 483c
00000090: 6df1 dfbd 73ba 5fba a632 493d cbe5 05be
000000a0: 8477 033e 564d 513d f9b1 073e f289 fbbd
000000b0: 5a06 a4bd 1c15 5c3b c3dc 353c 56db 16bc
000000c0: 677b cb3d a53d 60be 35f3 183d 1d2e adbc
000000d0: 4458 04be 1047 af3d e99c a8bc 448d 163d
000000e0: 3c2c 5d3d 2d26 15bd 49a9 d6bd 68d9 003d
000000f0: 7dfb dd3c a0e0 623e e721 3f3d 516d 98bd
00000100: 6b4d 2cbe b796 08be 318c 43bd f40f 45bd
00000110: 18c3 163c e540 993d d948 25bc 74ff c2bd
00000120: 46d2 f0bd e21c e63d c50c efbc 85c5 713d
00000130: 843d 70bd ab2c 7dbe 8770 033e 3b4c 1b3c
00000140: 1f63 1dbd 52d7 a4bc 866e dd3c cf45 fb3d
00000150: 16d1 d3bd 7e17 db3d 200e a43d 6e14 a6bd
00000160: f821 a23c 8368 e0bd 1723 1b3e f646 ebbe
00000170: a9cf 58bd dd72 ff3c ddb5 c03c c6be d2bd
00000180: 5382 283c ed3f 283e 4477 8a3c 5e28 86be
00000190: 9bde 813d 7db8 2abd 7b9c 9cbd 4977 93bd
000001a0: cde0 87bd 22b1 563d 99b0 8e3d 6135 8fbd
000001b0: a56b d33d 7638 d03b 1ae3 e93d b224 f2bc
000001c0: ba1a 3fbe 2806 47bd 2814 9b3b bfd7 59bd
000001d0: 202d f73d 4022 0ebd 3b7b ee3d 1c43 903d
000001e0: 0f8e 823d 6aa6 7b3d 672d 47bc 7ee6 cabd
000001f0: 1183 2a3d 7303 093d a8ac 0b3e 329e e23d
00000200: 78e6 f1bc f86c 40bd 2643 f83d 2cb3 afbd
00000210: 1de0 993d f161 d13d 730e 87bc ba79 463d
00000220: b373 b73c ebf8 99bc f620 e13d c241 07be
00000230: 5abb 7f3d f4f7 8f3e 9bb1 f1bd 1393 103e
00000240: 2088 aebd 3c6e 06be 7790 bebc 9f27 0fbd
00000250: 5d65 81bd 3dd6 0cbe
-0.08998759 0.044207107 0.11276793 -0.10790781 -0.021967545 -0.05176442 -0.005237943 0.03246756
-0.13590628 -0.10444712 0.07327532 -0.10017769 0.1514934 0.04867297 -0.03564316 -0.019461764
-0.0341477 -0.029370623 -0.012632322 -0.07623252 -0.040273372 0.0804844 0.09880144 0.025918458
0.021678839 -0.12119573 0.02884785 0.27608967 -0.061158974 -0.0352157 0.13726366 0.021359064
0.13629888 -0.03836279 -0.12744299 0.012235518 -0.1093472 -0.0008534558 0.049120568 -0.1307594
0.1283856 0.051099144 0.13251485 -0.1228217 -0.08009024 0.0033581918 0.011099997 -0.009207567
0.099356465 -0.21898516 0.037341315 -0.021140153 -0.12924296 0.08558476 -0.020582633 0.036755815
0.053997263 -0.03641336 -0.10481507 0.031457335 0.027097458 0.22156 0.04666319 -0.074427254
-0.16826408 -0.13338743 -0.04774112 -0.048110917 0.009201787 0.07483081 -0.010088169 -0.0952138
-0.117588565 0.11235978 -0.029180894 0.05902626 -0.058652416 -0.2472407 0.12835895 0.009478624
-0.038424607 -0.020122204 0.02703024 0.12269174 -0.10342614 0.1069784 0.08010507 -0.081093654
0.019791588 -0.10957434 0.15150104 -0.45952576 -0.052932415 0.0311827 0.02352422 -0.102902934
0.010284978 0.16430636 0.016902573 -0.26202673 0.06341287 -0.041679848 -0.07647034 -0.07200486
-0.06634674 0.05241502 0.06967277 -0.06992603 0.10323266 0.006354387 0.11420269 -0.029558513
-0.18662539 -0.048589855 0.0047326274 -0.053184267 0.12069154 -0.034700632 0.11644598 0.0704405
0.06374752 0.061438 -0.012156821 -0.09907244 0.0416289 0.033450555 0.13640082 0.110653296
-0.029528841 -0.04697892 0.121221825 -0.08579096 0.07513449 0.10223759 -0.016486382 0.04845593
0.022394037 -0.018795451 0.10992615 -0.13208678 0.06243453 0.2811886 -0.11801454 0.14118604
-0.085220575 -0.13127989 -0.023262246 -0.034949895 -0.06318162 -0.137536

bias f4 [3]
00000000: 404b 4f3d 9a94 bdbe f89e 6bbe
0.050608873 -0.37027436 -0.2300986

weight f4 [50]
00000000: 0000 803f 0000 803f 0000 803f 0000 803f
00000010: 0000 803f 3fa0 703f 0000 803f 3fa0 703f
00000020: 0000 803f 3fa0 703f 0000 803f c055 673f
00000030: e3af 873f 0000 803f 3fa0 703f 0000 803f
00000040: 0000 803f 0000 803f 0000 803f 0000 803f
00000050: 0000 803f 0000 803f 0000 803f 0000 803f
00000060: 0000 803f 0000 803f 0000 803f 1718 8e3f
00000070: 0000 803f 0000 803f 0000 803f 0000 803f
00000080: 9202 783f 0000 803f 0000 803f 0000 803f
00000090: 0000 803f 3fa0 703f 0000 803f 0000 803f
000000a0: 1018 713f 0b1b 223f 0000 803f 0000 803f
000000b0: 3fa0 703f 3fa0 703f 0000 803f 3fa0 703f
000000c0: 0000 803f 2bed 783f
1.0 1.0 1.0 1.0 1.0 0.93994516 1.0 0.93994516
1.0 0.93994516 1.0 0.9036522 1.0600551 1.0 0.93994516 1.0
1.0 1.0 1.0 1.0 1.0 1.0 1.0 1.0
1.0 1.0 1.0 1.1101102 1.0 1.0 1.0 1.0
0.9687892 1.0 1.0 1.0 1.0 0.93994516 1.0 1.0
0.9417734 0.63322514 1.0 1.0 0.93994516 0.93994516 1.0 0.93994516
1.0 0.9723689

bias f4 [50]
00000000: 0000 0000 0000 0000 0000 0000 0000 0000
00000010: 0000 0000 43fc 75bd 0000 0000 46fc 75bd
00000020: 0000 0000 42fc 75bd 0000 0000 8c40 5dbd
00000030: 44fc 75bd 0000 0000 48fc 75bd 0000 0000
00000040: 0000 0000 0000 0000 0000 0000 0000 0000
00000050: 0000 0000 0000 0000 0000 0000 0000 0000
00000060: 0000 0000 0000 0000 0000 0000 4328 ebbc
00000070: 0000 0000 0000 0000 0000 0000 0000 0000
00000080: 1931 e8bc 0000 0000 0000 0000 0000 0000
00000090: 0000 0000 43fc 75bd 0000 0000 0000 0000
000000a0: 2957 51bd 7e95 88bc 0000 0000 0000 0000
000000b0: 43fc 75bd 46fc 75bd 0000 0000 45fc 75bd
000000c0: 0000 0000 5f08 123f
0.0 0.0 0.0 0.0 0.0 -0.06005503 0.0 -0.06005504
0.0 -0.060055025 0.0 -0.054016635 -0.060055032 0.0 -0.060055047 0.0
0.0 0.0 0.0 0.0 0.0 0.0 0.0 0.0
0.0 0.0 0.0 -0.028705722 0.0 0.0 0.0 0.0
-0.028343724 0.0 0.0 0.0 0.0 -0.06005503 0.0 0.0
-0.051108513 -0.016672846 0.0 0.0 -0.06005503 -0.06005504 0.0 -0.060055036
0.0 0.57044023

running_mean f4 [50]
00000000: f2fa c93d c2b4 193f 9d14 4fbe ea9b 893e
00000010: 4249 b93e 1465 c73e 1a20 9a3d dda5 e4be
00000020: f4f8 043e b4c2 54be 9c35 7abe 9c38 043c
00000030: 3cf3 3f3f a445 8bbe 26bf c8be 0c47 8c3e
00000040: c47c 97be c406 1abf 0204 a63e 1cb7 3b3d
00000050: ccf1 1c3d e4df 8dbd 8c82 61bf 6e7d edbe
00000060: 2ab1 c93e bd86 1cbe 315c 143f b412 a73e
00000070: fc82 b63b b8a8 c43d 1384 193f 84e9 033e
00000080: 544e bd3e 0406 8bbe 2073 2cbe 5e45 96be
00000090: 56c9 3d3f c245 abbd bcef c6be 627d 8b3d
000000a0: b00f 4f3e 5b0f e9be bc08 4dbe 40e6 5ebf
000000b0: 32c5 82bf 7a60 0cbf ccb2 b83e 4c00 3f3e
000000c0: 8cd3 293f 41d9 6c3f
0.09862317 0.6004144 -0.20222707 0.26876765 0.36188704 0.38944304 0.07525654 -0.44657794
0.12985593 -0.20777398 -0.24434513 0.008070137 0.7498052 -0.2720157 -0.39208335 0.27397954
-0.29587376 -0.60166574 0.32424933 0.045828924 0.038316533 -0.069274694 -0.88089824 -0.46384758
0.39392978 -0.15285774 0.5795317 0.32631457 0.005569814 0.09602493 0.59967154 0.12882048
0.36973822 -0.27153027 -0.16840792 -0.29349798 0.7413534 -0.083629146 -0.38854778 0.06811024
0.20220828 -0.45519528 -0.20022863 -0.87070084 -1.0216429 -0.5483471 0.3607391 0.18652457
0.6633842 0.92519003

running_var f4 [50]
00000000: 0400 0000 0400 0000 4922 1127 0400 0000
00000010: 0400 0000 0902 8126 4922 1126 0902 8127
00000020: 0400 0000 0902 8125 0400 0000 0400 0000
00000030: 0400 0000 0902 8126 0400 0000 0400 0000
00000040: 0400 0000 0902 8127 0902 8126 0400 0000
00000050: 0400 0000 0400 0000 4922 1129 0902 8128
00000060: d0e5 1228 4922 9125 0902 8124 0902 8127
00000070: 0400 0000 210e 8724 0400 0000 0400 0000
00000080: 0902 8123 0400 0000 210e 8725 0902 8127
00000090: 0902 8128 0902 8125 0902 8126 0902 8124
000000a0: 0902 8125 0400 0000 0400 0000 0902 8128
000000b0: 0902 8128 0902 8127 0400 0000 0400 0000
000000c0: 0400 0000 4022 1129
6e-45 6e-45 2.0141378e-15 6e-45 6e-45 8.951725e-16 5.0353446e-16 3.58069e-15
6e-45 2.2379312e-16 6e-45 6e-45 6e-45 8.951725e-16 6e-45 6e-45
6e-45 3.58069e-15 8.951725e-16 6e-45 6e-45 6e-45 3.2226205e-14 1.432276e-14
8.154461e-15 2.5176723e-16 5.594828e-17 3.58069e-15 6e-45 5.857085e-17 6e-45 6e-45
1.398707e-17 6e-45 2.342834e-16 3.58069e-15 1.432276e-14 2.2379312e-16 8.951725e-16 5.594828e-17
2.2379312e-16 6e-45 6e-45 1.432276e-14 1.432276e-14 3.58069e-15 6e-45 6e-45
6e-45 3.2226175e-14

weight f4 [50, 4]
00000000: 3db2 f2be f336 43bd c4c1 10be 63b1 423e
00000010: e15d 923e 713d 233e c0db 0b3e 8185 d0bd
00000020: 32f0 893e d81b 8b3d f703 96be 24ac b7be
00000030: 0d4f 30bd 8f22 b7bd f4c8 383e fd8d e83e
00000040: ac32 c1be e50b 833e dc2b ebbe 0834 c1bd
00000050: 8009 b03e d57b 353d ef1c 95bd 6916 bbbc
00000060: f6df 063f 0d10 23be 5c28 483e 911d abbe
00000070: 9724 dd3d 687f 443e 63c9 87be f765 8b3e
00000080: a417 9f3e cf76 00bf dc37 033f 9775 04bf
00000090: 9e9c 8c3e a53d f7be c00e 15be 28b9 0b3d
000000a0: e5fb 6abe f89a 31be 2d8c dfbe 3ab9 453d
000000b0: 861c 8fbe b0af 0b3f fb44 34bf fe23 e3bd
000000c0: 7aa5 023f d584 8b3e f6ff 343f 54c7 d93d
000000d0: c1fa b73e ee74 fb3e ac9c 873e 80f0 b33d
000000e0: 3b1b 9abe cd6c d63e 9e34 d2be 56d8 dfbe
000000f0: b71b 833e e23b 4fbe 9840 1c3e 93a2 f7be
00000100: 0a22 c9be 03d5 3ebf e88f adbe 5521 e7bd
00000110: 502f 81be 77a3 573e 1c89 06be 3c77 b43e
00000120: fd90 d6bd ea9d b9bf 8fc2 93bf 9c7f b03d
00000130: beaf 02bf df60 f43e 4c3d 8dbe 764b 7ebd
00000140: 1bc1 7ebd d106 4d3f f5dc 3e3f ea29 573c
00000150: 63ed 063f ab57 8c3e 1204 3abe 96d1 4bbe
00000160: 4871 17bd 6b8e 193f 71dd 093e a191 1fbf
00000170: 3de1 413f 71a8 32be 634c 433d a20e 8d3c
00000180: 6c4d 213e 7e9b b4be fea6 5f3e 24a3 703e
00000190: db4d c6be 601c 853e f944 b03e d9fd 863d
000001a0: d3ad 873e 2752 99be e464 61be f4f4 3c3e
000001b0: f20a f13e 22ba bebe 99aa 073f 0130 38bd
000001c0: 4d0a 283e 3226 36bf dc3c 2f3f b296 113d
000001d0: 478b bd3e f595 563e de9b 0bbf 0413 28bd
000001e0: 6409 0cbf 4ca9 09be 640d ac3d dbc0 983e
000001f0: 53da 5ebe 40a0 35bd 6d94 573d 4934 63bb
00000200: 5dd0 cebf 7e0c 8d3e b835 723f 443a 00bf
00000210: c8f6 adbe f197 463e 916a 873e a0b5 cf3e
00000220: c9a9 ddbe 172b 14bd 324c efbd 124e acbe
00000230: 1699 0bbf 6409 5fbe dfc4 dfbe 2937 f0be
00000240: 7ba0 92be e2ee 8abe 9fb3 383f 486f 8ebe
00000250: b6aa 893d 767d b1be 327d 4abd 1bda f9be
00000260: b9e3 173f 01d6 8b3d 5455 983e 5f29 94be
00000270: 97ee 22be edbc 2f3d b3e8 ba3e 15ed ba3d
00000280: 19e6 153f f1d6 f03e 8850 0bbc e02a 02bd
00000290: 5f7a 59be 222c 993f fedd 133a b727 423d
000002a0: df5a b0bd 9cac 753e eb8c 953d 621c ce3e
000002b0: e3bc f6bd 65e9 8e3d 7930 f23b deae 17bd
000002c0: c279 e0be 7ee9 903e d80d 5e3e da79 00bd
000002d0: a1b3 b3be 28e3 b73d 530c eb3e 59ef c73e
000002e0: bfce e2bd 395c bb3e ec56 fd3d 08bd 1f3f
000002f0: 8ba1 a8be c48a 2e3f 6765 a03e 078d 01bf
00000300: 5bb1 78bd 2171 c63e 5b04 253d 2bc5 0c3e
00000310: 78a5 8cbe f00a 633e 303d 1dbe b2a7 bfbd
-0.4740161 -0.047659826 -0.14136416 0.1901298 0.2858725 0.15941407 0.13658047 -0.10181714
0.26941067 0.0679242 -0.292999 -0.3587352 -0.04304414 -0.089421384 0.18045408 0.45420828
-0.37733972 0.25595012 -0.459319 -0.09433752 0.34382248 0.04430755 -0.07280909 -0.022837834
0.5268549 -0.15924092 0.19546646 -0.33420995 0.107979946 0.19189227 -0.26520833 0.2722623
0.31072724 -0.5018129 0.5125711 -0.5174193 0.2746324 -0.4828922 -0.14556408 0.034112126
-0.22947653 -0.17344272 -0.43661633 0.04827235 -0.2795145 0.5456495 -0.70417756 -0.11090849
0.5103375 0.2724978 0.70703065 0.10633722 0.35933498 0.49112648 0.2648672 0.08786106
-0.300989 0.41879883 -0.4105577 -0.4371974 0.25607082 -0.20237687 0.15259016 -0.48366222
-0.39283782 -0.7454378 -0.33898854 -0.112856545 -0.2523141 0.2105845 -0.1313824 0.3524722
-0.10476873 -1.4501317 -1.154375 0.086180896 -0.5104941 0.47730157 -0.27585828 -0.062083684
-0.06219588 0.80088526 0.74555904 0.013132552 0.52705973 0.27410635 -0.18165615 -0.1990417
-0.036973268 0.5998294 0.1346338 -0.6233159 0.7573431 -0.17447068 0.04768027 0.017218892
0.1575219 -0.3527488 0.21841046 0.23499733 -0.38731274 0.2599821 0.34427622 0.06591386
0.26499805 -0.2994549 -0.22011143 0.18452817 0.47078663 -0.37251383 0.52994686 -0.044967655
0.1641018 -0.7115203 0.6845224 0.035544105 0.37020323 0.20955642 -0.5453471 -0.04103376
-0.5470183 -0.13443488 0.084009916 0.29834637 -0.21762972 -0.04434228 0.052631784 -0.0034668616
-1.6157337 0.27548593 0.9461322 -0.50088906 -0.33977342 0.19393899 0.2644849 0.40568256
-0.43293598 -0.036173906 -0.11684455 -0.33653313 -0.54530466 -0.21780926 -0.43704888 -0.46917084
-0.28638062 -0.27135378 0.7214908 -0.27819276 0.06722014 -0.34666032 -0.0494358 -0.48799214
0.5933185 0.068279274 0.297526 -0.28937814 -0.15911327 0.042904783 0.3650566 0.09127251
0.58554226 0.47038987 -0.008503087 -0.03177917 -0.21238087 1.1966593 0.00056406844 0.047401156
-0.08611082 0.23991627 0.073022686 0.4025603 -0.12047746 0.0697811 0.0073910323 -0.037032
-0.43842894 0.2830314 0.21684968 -0.031366207 -0.35097983 0.089788735 0.4590784 0.39049795
-0.1107459 0.36593798 0.12370095 0.62397814 -0.32935748 0.6818049 0.31327364 -0.50605816
-0.060716014 0.38758186 0.040287357 0.13747089 -0.27469993 0.22172141 -0.15355372 -0.09358157

bias f4 [50]
00000000: 0d5d 583d b063 26bf c83e 35be b346 ce3e
00000010: 38d2 c13d 7558 003f 54f1 c4be 8741 e2be
00000020: 4aca 1fbe 343b 373f 0f30 ae3e 7559 f1ba
00000030: 1a6d 9ebe ec8e 11be 5e9f d63d 591f 9e3e
00000040: cc4f 753e 47ec 243e d9fe 873e cbcd cfbe
00000050: 0637 4a3f 9273 0c3f 625d 07be 5203 2e3f
00000060: 4929 983d f091 dabe 7de5 c53e c564 29bf
00000070: 65ba fb3e aaa1 a6bd 636a 8f3e d047 80be
00000080: 2426 21bf a7d0 103f 11a6 acbe 8bff 9ebe
00000090: 7b76 9c3d 335e 103e 8307 6f3f 415b a1be
000000a0: 0019 0fbe fa2b b0be de9c 70be 8f5b 0abf
000000b0: c5b1 b83c b76e aebd 4575 54bd 0951 ecbe
000000c0: 0bbd 04bf 8f27 7b3e
0.052823115 -0.6499586 -0.1769973 0.40288314 0.09463924 0.50134975 -0.3846537 -0.44190618
-0.15604511 0.7157471 0.3402104 -0.0018413501 -0.30942613 -0.14214677 0.10479616 0.3088329
0.23956221 0.16105758 0.2656162 -0.40586695 0.7899021 0.54863846 -0.13219216 0.67973816
0.074297495 -0.42689466 0.38651648 -0.6616939 0.49165645 -0.08136304 0.28010854 -0.2505479
-0.6294882 0.5656838 -0.3372045 -0.3105434 0.07639786 0.14098434 0.93370837 -0.31514934
-0.1397438 -0.3440855 -0.2349734 -0.5404596 0.022545705 -0.08517211 -0.05186965 -0.46155575
-0.51850957 0.24526809

weight f4 [3, 50]
00000000: b620 753c c56c 0bbe 3668 153d 6535 873d
00000010: a9d2 b7bd 245f 3b3d 835e 69bd 76e9 8d3b
00000020: bfa7 5a3d d3a0 a8be 8a25 75bd 3809 f33e
00000030: 2a6c e9be 4dfd 90bd a0bc 14bd 3378 833d
00000040: 640e 29be d218 22bd 7f12 19bf 2d95 17bc
00000050: 941f 11bd ac39 0abe 5e33 e23d 5831 d0be
00000060: 2c01 dd3d 9caa 033d c837 113e 87d4 9ebe
00000070: 3d21 38be 2e5d 42be 76e9 9b3d 5aec 333d
00000080: f06d acbe 598f 473d 1808 44be dd35 cc3c
00000090: 4be2 0c3f 255a 3bbf a5ea 02bf 3ccf 243e
000000a0: d8ea 9bbe 6489 c1be 5fc1 c33c 406b 80bc
000000b0: f420 223d 7043 373c 56ec 8e3e d198 46bb
000000c0: 0f15 393d 4671 11bc a4f4 1b3d 4ca5 6c3e
000000d0: 9b5f f13c 9c46 0ebe 2856 423d 8bdc 8bbd
000000e0: fc5b 99bd 9e07 333d 8310 e83d d3b4 483e
000000f0: caa4 5abc 1e1c c63e 6b94 cd3e cae8 2f3d
00000100: dcf4 273a 3b3c 233e ba91 2a3e b2bf 08be
00000110: 39b1 333f 4d5d 903d 0116 eabd 4565 8d3d
00000120: 032e ea3c 63b2 553f b336 a73d 563f 953d
00000130: 8a77 6cbd cdef 533d 8357 90be 8086 4ebe
00000140: 2e07 d3bc 5b2b 813d 239c aa3e b5ee d7bd
00000150: 4374 623d 01ea 853d 2fe5 27be 368a 993e
00000160: 2cd6 033f ecf8 1e3e 2c8d 3bbe b673 c83e
00000170: 7eef 22bd b010 bcbd 8902 24be 55a5 cfba
00000180: 3692 c2be b41a 5abd 2411 2e3c 90ed 72bc
00000190: 4840 32be c312 873e 15e0 80bd 81f0 7b3d
000001a0: 7b7f 91bd 7a1a 803d 5447 f63d d016 6d3d
000001b0: c9e2 4abd fe2a 563e 88b0 0bbd ea8a 713f
000001c0: 46de ffbe 6fc3 d43c 88c4 6d3d aac5 a03d
000001d0: 39d9 0ebd 9182 0ebd a402 063e c1d4 b93d
000001e0: 4bee d8be af72 a5bc 70b2 723d 8e07 11be
000001f0: 5ecc 6a3d aaac 153e e44c fc3c 9ac3 7cbf
00000200: b0cd 24bd c309 15bb bdb0 513d 4aa2 92bd
00000210: 742e 89be 1c42 14be 79fa 573c 09f3 79bc
00000220: d09f 8f3d b4b7 ad3e 7de1 243f 9fa7 6e3d
00000230: 0f19 6a3e c827 45bf abbb 28bc a801 88bc
00000240: b680 13bd 4ae2 8bbc f5a9 0bbe 7789 f83d
00000250: c137 a6bc 12d5 a1bd
0.014961412 -0.13615711 0.036476336 0.06601981 -0.08975727 0.04574503 -0.0569749 0.004330809
0.05338263 -0.329352 -0.059850253 0.4746797 -0.45590335 -0.07079563 -0.0363127 0.064194106
-0.16509396 -0.03957445 -0.5979385 -0.009251875 -0.035430506 -0.13498563 0.11044954 -0.40662646
0.10791239 0.032145128 0.14181435 -0.3102152 -0.1798143 -0.18980858 0.076128885 0.043926574
-0.33677626 0.04872069 -0.19143713 0.024928028 0.55032796 -0.73184425 -0.5113929 0.16094679
-0.3045261 -0.37800133 0.023895917 -0.01567614 0.039582208 0.011185512 0.27914685 -0.0030303488
0.0451861 -0.008877104 0.038075104 0.23109931 0.029464534 -0.13894123 0.047445446 -0.068291746
-0.07488248 0.043708436 0.11331274 0.19600229 -0.013344953 0.38693327 0.40152296 0.042946614
0.00064070313 0.15940945 0.16657153 -0.13354376 0.70192295 0.07049046 -0.11429978 0.06904081
0.028586393 0.8347532 0.0816473 0.07287471 -0.05773119 0.051742364 -0.28191766 -0.20168495
-0.02576026 0.063070975 0.33322248 -0.10543577 0.055286657 0.06538773 -0.1639602 0.2998826
0.51498675 0.15524644 -0.18315572 0.3915078 -0.03977918 -0.091828704 -0.16016592 -0.001584212
-0.38002175 -0.053248122 0.010624204 -0.014827147 -0.17407334 0.26381502 -0.0629274 0.06150866
-0.07104393 0.0625505 0.120253235 0.057883084 -0.049532685 0.20914838 -0.0341039 0.9435259
-0.4997427 0.025972096 0.058048755 0.078502014 -0.03487513 -0.034792487 0.13086945 0.09073783
-0.42369303 -0.020196287 0.059252203 -0.14163038 0.057323806 0.14616647 0.030798383 -0.98735964
-0.04023522 -0.0022741414 0.05119394 -0.071598604 -0.26793253 -0.14478344 0.013182276 -0.015255698
0.07012904 0.33929217 0.6440657 0.058265325 0.22861122 -0.77013826 -0.01029865 -0.016602352
-0.03601142 -0.017075676 -0.13639052 0.12135594 -0.020290257 -0.07901968

bias f4 [3]
00000000: 701f 0cbf c70b d43e c91d 173e
-0.5473547 0.41415235 0.14757456

weight f4 [50]
00000000: f0c4 713f a3f3 a83f 3fa0 703f 3fa0 703f
00000010: 3fa0 703f 3fa0 703f a325 703f 3fa0 703f
00000020: 08ad 6a3f 9716 aa3f ead5 723f 700b 6a3f
00000030: 6107 873f 3fa0 703f efc4 713f 3fa0 703f
00000040: c469 aa3f f0c4 713f 5d92 703f 3fa0 703f
00000050: 5576 873f 9f9d 723f ffbc e03e cad2 c43f
00000060: 3fa0 703f e2af 873f 3fa0 703f db96 c93f
00000070: e8be 9d3f a8d7 943f f1c4 713f f1c4 713f
00000080: c03d dc3e 8e10 623f f0c4 713f 3fa0 703f
00000090: d3eb 3d3f 374e 353f f8a5 793f 3fa0 703f
000000a0: b88f b73f db77 af3e bb30 763f 3ccf 723f
000000b0: bcfc 773f 4d9d 723f 99ad 883f c8ff 953f
000000c0: f1c4 713f f0c4 713f
0.9444113 1.3199352 0.93994516 0.93994516 0.93994516 0.93994516 0.9380743 0.93994516
0.91670275 1.3288144 0.94857657 0.914237 1.0549127 0.93994516 0.9444112 0.93994516
1.3313527 0.9444113 0.9397333 0.93994516 1.0582987 0.9477176 0.43894193 1.5376828
0.93994516 1.060055 0.93994516 1.5749162 1.2323885 1.1628313 0.94441134 0.94441134
0.43015862 0.8830651 0.9444113 0.93994516 0.74187964 0.7082247 0.97518873 0.93994516
1.4340734 0.3427113 0.96168107 0.94847465 0.9687002 0.9477127 1.0677978 1.1718683
0.94441134 0.9444113

bias f4 [50]
00000000: 35b1 63bd edee 19be 48fc 75bd 43fc 75bd
00000010: 43fc 75bd 47fc 75bd 0744 58bd 43fc 75bd
00000020: c645 fabc b9b4 073f f52c 53bd 6a8e 223e
00000030: b4bf e53e 44fc 75bd 36b1 63bd 43fc 75bd
00000040: 73cf 17be 32b1 63bd 0b8f 683e 43fc 75bd
00000050: 97e0 35bd 7d2b 56bd ac3f fbbd 7831 4f3f
00000060: 45fc 75bd 43fc 75bd 44fc 75bd 9461 5c3f
00000070: 4bdd 18be c0af 5cbe 33b1 63bd 33b1 63bd
00000080: 3028 d93e ef19 41bc 33b1 63bd 42fc 75bd
00000090: d64d 18be f711 0f3f 2513 113f 46fc 75bd
000000a0: 4f74 25be 60b3 4d3f a124 06bd f02c 53bd
000000b0: 4b60 3bbd 7d2b 56bd 7c42 1ebe 6c81 4bbe
000000c0: 33b1 63bd 32b1 63bd
-0.05558892 -0.15032549 -0.060055047 -0.06005503 -0.06005503 -0.060055044 -0.05279925 -0.06005503
-0.030550849 0.53010136 -0.051556546 0.15874639 0.4487282 -0.060055032 -0.055588923 -0.06005503
-0.1482523 -0.05558891 0.22710817 -0.06005503 -0.04440364 -0.052287567 -0.12268004 0.8093486
-0.060055036 -0.06005503 -0.060055032 0.8608639 -0.14928167 -0.21551418 -0.055588912 -0.055588912
0.42413473 -0.011785968 -0.055588912 -0.060055025 -0.14873442 0.5588679 0.5666984 -0.06005504
-0.1615765 0.8035183 -0.032749776 -0.051556528 -0.04574613 -0.052287567 -0.1545505 -0.1987359
-0.055588912 -0.05558891

running_mean f4 [50]
00000000: 9609 653e 66ef 3ebf 35de 04bf 07cb 5a3f
00000010: 44e7 9abc bcb7 fd3e 26c7 30bf d4fd 29be
00000020: a457 26bf 02a7 483f a68a c83e 44ee 07be
00000030: 06d9 4dbe b405 72bd f68c b5be 2477 21be
00000040: 66c8 0f3e dde1 fd3e 2495 d73e 1c5e 01bf
00000050: c6b5 413f bc41 bd3e 3413 48bf c87f 3d3f
00000060: daba a63e 90f3 cabe bc6e 193f e610 2ebf
00000070: 463a 0c3f 4687 cebd 06e5 0d3f ea56 87be
00000080: eaa7 9ebf d637 713f 361d 31bf da6c 4abf
00000090: fa9f 61be e611 a9be 5c73 2a3f 3d39 76be
000000a0: d2c6 22be 9164 b3be aee8 1c3e b70f 16bf
000000b0: a3f0 38bd 4620 8d3e aa0e 0d3f 8ae1 81bf
000000c0: a82f ccbe 561e 083e
0.22366938 -0.74584043 -0.5190156 0.85466045 -0.018909104 0.4955424 -0.69053876 -0.16600734
-0.6497748 0.78379834 0.3916828 -0.13274485 -0.20102319 -0.05908747 -0.35459107 -0.15768105
0.1404129 0.49586383 0.42105973 -0.50534225 0.7566799 0.36964214 -0.781543 0.74023104
0.3256443 -0.39638948 0.5993459 -0.67994535 0.5477642 -0.10084395 0.5542759 -0.26433498
-1.2394993 0.94225824 -0.691852 -0.79072344 -0.22033682 -0.33021468 0.66582274 -0.24045272
-0.15896156 -0.35037664 0.15323135 -0.5861773 -0.045151364 0.27563685 0.551005 -1.0146954
-0.3988011 0.13292822

running_var f4 [50]
00000000: 0902 8125 0400 0000 4022 1129 4922 1129
00000010: 0400 0000 0400 0000 4022 1129 4022 1127
00000020: 0002 8127 0002 8127 0400 0000 f7fd 7e26
00000030: 0400 0000 0902 8123 0400 0000 0400 0000
00000040: 4022 1127 381e 0f28 0902 8126 0400 0000
00000050: 0400 0000 0400 0000 0400 0000 0902 8127
00000060: 0400 0000 0002 8127 0400 0000 0400 0000
00000070: 0002 8128 2293 c926 fcfb 7d27 0002 8127
00000080: 180e 8728 0902 8128 0002 8128 0002 8128
00000090: 0902 8125 0400 0000 0902 8127 4022 1127
000000a0: 0902 8125 0400 0000 0002 8126 0400 0000
000000b0: 4022 9123 0902 8126 0400 0000 0002 8128
000000c0: 0902 8126 0902 8125
2.2379312e-16 6e-45 3.2226175e-14 3.2226205e-14 6e-45 6e-45 3.2226175e-14 2.014136e-15
3.580686e-15 3.580686e-15 6e-45 8.846814e-16 6e-45 1.398707e-17 6e-45 6e-45
2.014136e-15 7.944647e-15 8.951725e-16 6e-45 6e-45 6e-45 6e-45 3.58069e-15
6e-45 3.580686e-15 6e-45 6e-45 1.4322744e-14 1.3987057e-15 3.5247404e-15 3.580686e-15
1.4994123e-14 1.432276e-14 1.4322744e-14 1.4322744e-14 2.2379312e-16 6e-45 3.58069e-15 2.014136e-15
2.2379312e-16 6e-45 8.951715e-16 6e-45 1.5735437e-17 8.951725e-16 6e-45 1.4322744e-14
8.951725e-16 2.2379312e-16

weight f4 [50, 4]
00000000: 642f b33c 0d04 c0be 0d58 093e 80c6 cd3e
00000010: 78c5 76bd 6aff afbd 3c81 073e 4279 2abe
00000020: 1d0d cfbe 6f7b d43e 5f29 44be 2698 87be
00000030: 3547 ecbe 79ee 04be 017a 8bbe 50c1 b83d
00000040: df79 443e f03f 5a3f 95b8 a93e c823 153e
00000050: fd90 0cbd 4050 b13e c152 fbbd a263 8dbe
00000060: 4bd1 80be b351 3c3e d3cc 323e a15a 013f
00000070: 6de3 b7bc 6f82 1dbf a763 9f3c 8141 243f
00000080: a495 393e cb27 01bf 583a 173e 77c9 31be
00000090: ee26 85be bcc2 553d 7ed0 1ebf fa02 723e
000000a0: 0587 6b3e 4bdb 8b3e 482e b5be 182b 9e3e
000000b0: c8c4 0abe 3bcb a1bd 9fd0 90bd 819d b6be
000000c0: d7c3 64be 346a abbe 7fc1 a43e dcbb d3be
000000d0: e8d7 d93e f214 113f 1ec1 95be 8cf8 12bc
000000e0: f9e4 213d 0a3f 1c3e a3b1 cf3e b05a bf3d
000000f0: 569d 8b3d d038 863e 62c3 833d 2445 d1bd
00000100: c76d 64be 0454 9d3e 8512 d5be 27f5 aabe
00000110: 2d9b e6be 5ab0 9dbe 66e7 8b3f c215 6e3f
00000120: 477f 59be b68c f7be 4926 20be 38bc ca3e
00000130: e7e3 a33e 1f76 ccbc fb39 933e 5016 13be
00000140: 1547 183e 6833 dbbc a5c4 403e 602f 013f
00000150: ce61 4d3e 205a a3bd da7f bcbc 1831 803e
00000160: 766f 673e 4bf0 0a3d 29b3 193f b374 b73c
00000170: a494 c3bd 73ca 833e ac82 c4be 2c23 5e3f
00000180: 1426 ecbe 8c14 4c3e f9e7 d4be fc88 613e
00000190: 05bd 96be a112 913e 73f5 5d3e e94b 043e
000001a0: 5781 61bf b933 25be e4ae cebe b5bf 173f
000001b0: 8404 b7bd ebf5 18bd 1727 d3be ea9a ce3d
000001c0: ad2e c73d b50b a03e 08e8 b23d 3053 56bd
000001d0: c7c8 d63c e71f 11be f96d e83e 38da 8cbe
000001e0: ad34 15be eeaf 013f 9216 d8be 1935 3abe
000001f0: e3d6 7abe 6108 aebe fb0d 1c3f f489 38bf
00000200: dee5 c5bd b4e2 8ebe 178a 22be 6ff5 b03c
00000210: 2d81 063c e7f0 f43e eb00 163d bb80 bf3e
00000220: 4aa1 ba3e bcc4 663d 99ee 02bf 9f93 d6bd
00000230: a857 d63e 89f8 b1be ce51 18bf 6fd6 26bf
00000240: 56aa d83d 2fa9 98be 3e86 e2be 4517 50be
00000250: 6e24 503d 4e45 a63c 3499 0e3e 0d36 ae3e
00000260: 6e4e 43bf 265e b0be f20c a1bd 267c 673e
00000270: 3f6e 0ebf c144 943e 1a81 e8be 1bac b0be
00000280: 0b6a 193e 6c20 5dbe 791a 69be c052 e03e
00000290: 7702 c9be 490c 5b3f baf3 ba3d 82f8 ddbe
000002a0: 2ff1 acbd 63c4 8abe e1f3 883e 9a0c 033f
000002b0: c44e 32be 6431 443e 0ee2 773e a60b f7be
000002c0: bca3 373e 9914 853d b0d3 ecbd 3d0d 31bd
000002d0: 12f6 a5be ccdb 12bd 4b4f cdbe d817 9bbe
000002e0: 5eff bfbd cd0f 8cbe 61ee 243e d5dd f1be
000002f0: 4e4d 2dbf 3312 a13f 7e41 f13e 2932 833f
00000300: 2908 cbbe fc9a 613f 4745 fdbe cb69 b53e
00000310: 7360 c63e 1400 88be 30e1 68be 1c92 3cbe
0.021873184 -0.3750309 0.13412495 0.40190506 -0.060246915 -0.08593638 0.13232893 -0.16647819
-0.40439692 0.41500422 -0.19156407 -0.26483268 -0.46148077 -0.12981595 -0.2724152 0.090212464
0.19187115 0.8525381 0.33148637 0.1456443 -0.03431796 0.34631538 -0.122716434 -0.27615076
-0.25159678 0.18390541 0.17460947 0.50528914 -0.022447312 -0.6152715 0.019456698 0.6416245
0.1812349 -0.50451344 0.1476835 -0.17362009 -0.26006263 0.052187666 -0.62036884 0.23633948
0.23000725 0.27315745 -0.35386872 0.30892253 -0.13551629 -0.07900091 -0.07071041 -0.3566704
-0.22340332 -0.33479464 0.32178876 -0.41354263 0.42547536 0.56672585 -0.292489 -0.008970391
0.039525006 0.15258422 0.40565214 0.09343469 0.06817119 0.2621522 0.06433751 -0.10218266
-0.22307502 0.3072816 -0.41615692 -0.3339016 -0.45040265 -0.30798608 1.0929992 0.9300195
-0.21239959 -0.4834954 -0.15639605 0.39596725 0.32009813 -0.024958668 0.28755173 -0.1436398
0.14870866 -0.02675791 0.18825014 0.50462914 0.20056841 -0.07976174 -0.023010183 0.25037456
0.22601113 0.033920567 0.60039 0.022394514 -0.09549835 0.25740394 -0.38380945 0.8677242
-0.461228 0.19929713 -0.4158323 0.22024912 -0.29441085 0.28334525 0.21675663 0.12919582
-0.8808798 -0.16133012 -0.40367806 0.59276897 -0.08936408 -0.0373439 -0.4124076 0.10088141
0.097256996 0.31258932 0.08735663 -0.052325428 0.026218785 -0.14172326 0.45396402 -0.27510238
-0.14570875 0.5065907 -0.4220472 -0.18184318 -0.24496035 -0.33990768 0.6095883 -0.720855
-0.09662984 -0.27907336 -0.1587299 0.021601407 0.008209509 0.47840044 0.03662197 0.374029
0.3645118 0.056339964 -0.5114532 -0.10477375 0.4186375 -0.3475993 -0.59499824 -0.6517095
0.10579364 -0.29816577 -0.44243044 -0.20321377 0.050815992 0.020296719 0.1392563 0.34025612
-0.7629155 -0.3444683 -0.07863797 0.22605953 -0.5563697 0.28958705 -0.45410997 -0.34506306
0.14981858 -0.21594399 -0.22764005 0.43813133 -0.39259693 0.8556562 0.091285184 -0.4335366
-0.084444396 -0.27102956 0.26748565 0.51191103 -0.17412859 0.19159466 0.24207327 -0.48251075
0.17933553 0.06498069 -0.11563814 -0.043225516 -0.324143 -0.035854146 -0.40099558 -0.3029163
-0.09374879 -0.27355805 0.1610656 -0.47239557 -0.6769608 1.2583679 0.4712028 1.0249683
-0.39654663 0.8812711 -0.49466917 0.35432276 0.3874546 -0.2656256 -0.22742152 -0.18415111

bias f4 [50]
00000000: c104 853d 2ead 97be efe4 41be 474b 343d
00000010: 4179 c23e 637b d63e 3b66 d9be 4256 413e
00000020: b928 eebe 6e16 8cbc cd99 4b3d 8841 62be
00000030: fdc7 6bbe e3b8 fc3d b281 58be 4fba 19bf
00000040: 3d52 043e 16ca ab3c ea22 db3e 3e0a 2f3c
00000050: ad01 74be 8b10 5ebd ba05 8a3d 4aa5 8ebc
00000060: 1901 993e 310b bc3e 49b1 c03e 718b 41bf
00000070: adbe d63e d517 29bf 6167 e33e e7a3 43bf
00000080: c27f acbe 93bb b8be bcef 69be 7fa1 bc3e
00000090: 3ac0 c53e e778 abbe 68a2 53bf 32e5 a43e
000000a0: f359 3d3c 27ae e9bd 36b8 2bbd 115a dabe
000000b0: 11b7 963d 5c8b a43e 6177 40be b4d2 9f3f
000000c0: db83 183f 7d95 d53e
0.06495047 -0.29624313 -0.18934987 0.044017103 0.37983134 0.41891012 -0.42460808 0.18880561
-0.46515444 -0.017100539 0.049707223 -0.2209531 -0.23025508 0.12339952 -0.21143225 -0.6004991
0.12921996 0.020970386 0.42800075 0.010683594 -0.23828764 -0.054214995 0.067393735 -0.0174128
0.2988365 0.36727288 0.37635258 -0.75603396 0.4194235 -0.6605199 0.4441481 -0.7642197
-0.3369122 -0.36080608 -0.22845358 0.36841962 0.3862322 -0.3349068 -0.8266969 0.32206112
0.01155709 -0.1141017 -0.041923724 -0.4264684 0.07359136 0.32137573 -0.1879554 1.2486176
0.59576195 0.41715613

weight f4 [3, 50]
00000000: ac49 a03d 5564 a73e c582 2ebd af27 273e
00000010: 7a8c 813e b8c2 973d 6195 443e 9585 26be
00000020: 47d8 91bd f07b 6a3e bdb4 543f 488c c03e
00000030: a529 dd3d f035 093e 8c4e 8bbd 8a73 443e
00000040: ec3f 58bd 4d20 223f 33f9 95bd 3023 483e
00000050: a7cd cd3d 36ed 19bd f114 ca3e 67c8 a9be
00000060: 604d 7f3d 7937 4ebd 7956 003f dbfc 123e
00000070: f839 c6bd fe43 4d3e 86ff 3b3c 8d94 ca3e
00000080: 4bb8 14bc 36ca 713d 0265 f53c c0b9 063f
00000090: 9359 efbd a0b9 333e e664 913e cbf5 4fbc
000000a0: fb54 97bc 8656 ba3a 08f4 883c 7989 71bc
000000b0: 7a29 0dbe 3a2c 7dbb 227f 873e 6c73 d3be
000000c0: 2a1e c43e 509d 973c 7d57 51bc 946d 97be
000000d0: 5de2 803d 94da 3dbd a29a aabe 1e9f a1ba
000000e0: e755 383e 745f 703d e9a0 bdbd 914b 96bd
000000f0: 8026 76bf f42e 44be 2315 6e3c 8bf4 50be
00000100: 3f2b e6bd ad25 a7be b92b 383d 69dc 1c3e
00000110: 1402 dc3b 4ee4 df3e d20a 35bd 51fe 943d
00000120: 4c90 2cbe 2a71 28bf a566 6d3d fa7a 283e
00000130: f193 213c f106 52be 3d84 493e e782 83be
00000140: 9491 fb3d 621d 47be d9b5 8ebc a31d a33d
00000150: c9a7 b73d 8f75 8ebe 0932 953d 01ff 5cbe
00000160: 23a9 993e 2454 053e 20a4 9dbd a68d 78bc
00000170: 14d7 ddbd dd23 743c 837f 3abc 7cf8 133e
00000180: 3b26 84be daff 293f 2962 403d a443 77bd
00000190: ee10 bebc 5cc1 c0bc e096 1dbe 4215 8a3d
000001a0: 2f0c 263e 7d41 14ba 3750 623b d47b 543f
000001b0: 682f d1bd 184c 9b3c 0a16 993e 0567 adbe
000001c0: 2cc5 1c3d 24d7 463e 4a2f a9bd 9c6e a73d
000001d0: c7c4 02bc d95b e63e f15b 5e3d 9920 293f
000001e0: 3607 a33c 73c4 72bd e0eb 063e d180 333f
000001f0: db97 5bbd ef91 823d 01ff bf3e 05da 90be
00000200: 49a7 0cbd b3fe 4e3d c87c d1bd 5649 fc3d
00000210: 3671 2a3e 7181 2f3e 818a 83bc c2a6 1abd
00000220: a0f2 7a3d a825 c33d 7f2b 4d3e 26b0 a5bd
00000230: 912d 91bd 5d40 bd3d 058e 953d 19a0 913d
00000240: 45aa 1b3d 0873 033d 2df6 3b3d 113b e6bd
00000250: 11cc f73d decc 8bbd
0.07826552 0.32693735 -0.04260518 0.16323732 0.25302488 0.074101865 0.19197609 -0.16261895
-0.0712133 0.22898841 0.83088285 0.37607026 0.10798959 0.13399482 -0.06802091 0.191847
-0.052795336 0.6333054 -0.073229216 0.19544673 0.10048991 -0.037579738 0.39469102 -0.33160707
0.06232965 -0.05034587 0.50131947 0.14354269 -0.096790254 0.20045468 0.011474496 0.3956646
-0.009077142 0.059030734 0.02995539 0.5262718 -0.11687007 0.17551279 0.28397292 -0.012692879
-0.018473139 0.001421646 0.016717926 -0.014742249 -0.13785353 -0.0038631097 0.26464182 -0.41298997
0.38304263 0.01850763 -0.0127772065 -0.2957579 0.06293175 -0.04635103 -0.333211 -0.0012330746
0.18001519 0.05868478 -0.09259207 -0.07338632 -0.96152496 -0.19158536 0.014531407 -0.20405786
-0.11238717 -0.32645932 0.044963572 0.15318455 0.006714115 0.4372887 -0.044199772 0.072750695
-0.1685192 -0.65797675 0.057959218 0.16453162 0.009861932 -0.2051046 0.19679351 -0.25685808
0.12283626 -0.19444802 -0.017420696 0.07964637 0.08967549 -0.27824065 0.07284934 -0.21581651
0.30011854 0.13020378 -0.0769732 -0.01517049 -0.108320385 0.014901129 -0.01138294 0.14450258
-0.25810418 0.66406024 0.046968613 -0.06036724 -0.023201432 -0.023529701 -0.15389585 0.06742336
0.16215585 -0.00056555105 0.0034532675 0.83001447 -0.1021412 0.018957183 0.29899627 -0.3386766
0.038273975 0.19418007 -0.08260973 0.08175394 -0.007981486 0.4499195 0.0542869 0.66065365
0.0199009 -0.05926938 0.13175917 0.70118433 -0.053611618 0.06375491 0.3749924 -0.28291336
-0.034339223 0.05053587 -0.10228878 0.12318675 0.16644749 0.17139222 -0.016057255 -0.03775669
0.06126654 0.09528667 0.20036124 -0.08090238 -0.07088769 0.09240792 0.07302479 0.07110614
0.03800418 0.032092124 0.04588907 -0.11241735 0.120994695 -0.06826185

bias f4 [3]
00000000: 69ba 6a3c 861e a1bb 55ee 5ebe
0.01432667 -0.0049169688 -0.21770604

weight f4 [50]
00000000: 3fa0 703f 05ea 8c3f 871d 873f 3baa 843f
00000010: b599 503f efc4 713f efc4 713f 3eb4 b63f
00000020: 3fa0 703f f6a8 853f 7706 f23f 35e1 853f
00000030: 3fa0 703f 48cf 5a3f 3fa0 703f 0851 873f
00000040: 3fa0 703f 250f d73e c24f 723f be2f c63f
00000050: 3fa0 703f 3fa0 703f a170 a23f 6a57 783f
00000060: 3fa0 703f efc4 713f b819 393f 505c 2f3f
00000070: e2af 873f 7e44 a43f 871d 873f 92f9 9d3f
00000080: c24f 723f 5f44 383f 3fa0 703f c942 a43f
00000090: efc4 713f 0930 4a3f d292 773f 3fa0 703f
000000a0: c24f 723f d055 ab3f 3fa0 703f 3fa0 703f
000000b0: 3fa0 703f 3fa0 703f cb07 593f eae1 6b3f
000000c0: 0d13 cd3e 3fa0 703f
0.93994516 1.1008917 1.0555886 1.036445 0.8148454 0.9444112 0.9444112 1.4273756
0.93994516 1.0442188 1.8908223 1.0459353 0.93994516 0.85472536 0.93994516 1.0571604
0.93994516 0.42003742 0.9465295 1.548332 0.93994516 0.93994516 1.2690622 0.97008383
0.93994516 0.9444112 0.7230487 0.6850023 1.060055 1.2833402 1.0555886 1.2341788
0.9465295 0.71979326 0.93994516 1.2832881 0.9444112 0.78979546 0.96708405 0.93994516
0.9465295 1.3385563 0.93994516 0.93994516 0.93994516 0.93994516 0.84777516 0.9214159
0.40053597 0.93994516

bias f4 [50]
00000000: 43fc 75bd 8d42 18be 35b1 63bd 4016 33bd
00000010: 9990 6dbd 33b1 63bd 35b1 63bd 5469 b6bc
00000020: 45fc 75bd ffea 18be 2bdc 553f 46b3 18be
00000030: 44fc 75bd 028c 18be 43fc 75bd c0e7 18be
00000040: 47fc 75bd 3b5f 943e e403 5bbd 9fe9 0fbe
00000050: 42fc 75bd 43fc 75bd ea86 19be 25af febd
00000060: 44fc 75bd 34b1 63bd 5fbd cc3e bb5a 1dbe
00000070: 43fc 75bd fcf6 18be 33b1 63bd f77e d3bd
00000080: e403 5bbd 9ff1 5d3e 44fc 75bd a2d0 02be
00000090: 34b1 63bd 8c6e 80bd a523 f8bd 46fc 75bd
000000a0: e603 5bbd d9ca e7bc 42fc 75bd 43fc 75bd
000000b0: 44fc 75bd 44fc 75bd 42b7 18be 4092 353e
000000c0: 063c 71bd 44fc 75bd
-0.06005503 -0.14869137 -0.05558892 -0.04372239 -0.057999227 -0.055588912 -0.05558892 -0.022267021
-0.060055036 -0.14933394 0.83539075 -0.14912137 -0.060055032 -0.14897159 -0.06005503 -0.14932156
-0.060055044 0.28978905 -0.053470507 -0.14053963 -0.060055025 -0.06005503 -0.14992872 -0.1243575
-0.060055032 -0.055588916 0.3998823 -0.15366642 -0.06005503 -0.14937967 -0.055588912 -0.10326951
-0.053470507 0.21674202 -0.060055032 -0.127749 -0.055588916 -0.06271085 -0.12116174 -0.06005504
-0.053470515 -0.028294967 -0.060055025 -0.06005503 -0.060055032 -0.060055032 -0.14913657 0.17731571
-0.058895133 -0.060055032

running_mean f4 [50]
00000000: daae ba3e 6e4d f7be fcc4 80be b4db 743e
00000010: 4af5 213f 1cf4 753e ed47 213e 72bd 323f
00000020: 1b74 4ebf 246d b73e d469 d03e da8c 0ebf
00000030: c320 34bf b619 353e c42b 0ebe 9be4 2abf
00000040: 9542 27bd cc6e 5c3f 3660 483f a5d3 77be
00000050: 1f29 533e 5cd4 0b3e faed a7bc d89d 783f
00000060: 1256 363f 8294 193f f16e 963f 34df 18bf
00000070: 0ef8 ce3e a602 83bf ea19 e83e 2669 c9bf
00000080: 66a8 acbe acf6 e53d 5078 b0be 40ab c5be
00000090: 7a1b 133e 5674 8cbc 58b2 febe d5a4 5c3e
000000a0: fef6 c93e beb2 90be 1670 cc3e 10f5 5abf
000000b0: 249e 903c c4df 023e 96b3 37bf 2274 2940
000000c0: 9ec8 a43f 1249 e93d
0.36461526 -0.48301262 -0.25150287 0.23911935 0.63264906 0.24018902 0.15750094 0.6982032
-0.8064591 0.35825455 0.4070574 -0.5568367 -0.7036249 0.17685589 -0.13883883 -0.66755074
-0.040834982 0.8610656 0.78271806 -0.2420183 0.20621155 0.13655227 -0.020499218 0.9711585
0.7122508 0.5999223 1.1752607 -0.5971558 0.40423626 -1.0235183 0.4533227 -1.5735214
-0.33722228 0.112286896 -0.3446679 -0.38607216 0.1436595 -0.017145317 -0.4974544 0.21547253
0.39446253 -0.2826137 0.39929265 -0.85530186 0.017653532 0.12780672 -0.717584 2.6477132
1.2873724 0.1139089

running_var f4 [50]
00000000: 0400 0027 c0dd 0e28 d4e7 f327 3ea1 d027
00000010: 4922 9127 5bab d526 4922 1126 4022 9128
00000020: 8cc3 e127 3ea1 5028 a4cf a727 502a 1529
00000030: ca62 b127 2b93 c925 e574 1a27 0400 0000
00000040: bd60 f027 d4e7 f327 0902 8125 0902 8127
00000050: 5aaf 5727 47a1 5026 4826 fb27 ba5a 2d29
00000060: 0685 8228 0902 8127 0902 8128 83c3 e127
00000070: bbdf 0f28 ca62 b128 9bcf a728 6836 1b2a
00000080: 4922 1125 2b93 c925 813e 9f26 f3fb 7d27
00000090: d4e7 f325 381e 0f26 f3fb 7d28 4424 7228
000000a0: 210e 8726 9d50 0828 0400 0027 4022 1129
000000b0: 4922 1122 6c38 cc27 210e 8727 4922 1128
000000c0: 0902 8128 4922 9126
1.7763577e-15 7.930668e-15 6.7697397e-15 5.7906416e-15 4.0282757e-15 1.482629e-15 5.0353446e-16 1.6113087e-14
6.2662057e-15 1.1581283e-14 4.6576936e-15 3.3121346e-14 4.9234476e-15 3.4967667e-16 2.1435162e-15 6e-45
6.6718265e-15 6.7697397e-15 2.2379312e-16 3.58069e-15 2.9932302e-15 7.238307e-16 6.9708e-15 3.849241e-14
1.4490589e-14 3.58069e-15 1.432276e-14 6.266202e-15 7.9866084e-15 1.969379e-14 1.8630759e-14 1.3785641e-13
1.2588361e-16 3.4967667e-16 1.1049783e-15 3.5247385e-15 4.2310873e-16 4.9654045e-16 1.4098954e-14 1.34415625e-14
9.371336e-16 7.566997e-15 1.7763577e-15 3.2226175e-14 1.9669315e-18 5.6682547e-15 3.7485346e-15 8.056551e-15
1.432276e-14 1.0070689e-15

weight f4 [50, 4]
00000000: bc6f 81be d174 c03c cd96 d03e ec34 f1be
00000010: feb0 adbe 89c9 963e fa67 09be e650 5e3e
00000020: 3032 75be 1532 ee3e 5c3b 623e 47d0 05bf
00000030: a1ff 74be 72aa c9bd ae6a a13d 4622 7d3e
00000040: 6b9e a33d 67c1 c63e b678 c6be 8da9 593e
00000050: 8115 7cbe 7f08 f6bd f134 ee3d 2dcf ad3e
00000060: da0a 7ebe 6657 d9be 2744 8dbe d9f7 d6be
00000070: 0b6f b83d 9f12 d73d abf0 e23c 12f7 1bbe
00000080: dd8d 393f 3f80 1dbf 574b e33e fdcd 62bf
00000090: d7ee fb3e f739 3b3e de04 dd3e def2 813f
000000a0: 7d08 fd3d 6d0a b8be 2bf2 4dbf e9bd c83e
000000b0: 28b9 ae3e 0b45 e73d 1898 283f f087 08be
000000c0: 0bcc e5be 277c c8be 0cf6 7fbe 8f6d 653e
000000d0: 2f02 66be 5c3e 943e b9bc 023f 13f8 2a3f
000000e0: 79a9 133f 9b38 1b3f d3ab 243f 066d a03d
000000f0: fdcf 00be a5ae d6be 3fb7 f03e 0d0a 193e
00000100: 373d e53e d73d 4abc 5603 593f a5fb a3be
00000110: 2b54 28bf c761 8a3e d7be 363e 6968 c33e
00000120: 106b 87be a976 9ebd f44b 633f 66cb 5abd
00000130: 3565 50bf 75cb 8cbf 3635 be3d d7f7 f33e
00000140: 3cf4 dbbe 1c78 b13d 26d6 bfbe b8b7 9f3e
00000150: 63bc 99be 0fc6 193e ef8c c03d 3038 573f
00000160: 6e1a 573e 0a48 70bf fe3c 0c3f 2256 413f
00000170: 6875 c4be a1b8 d83e f8cb 00bf f22a da3e
00000180: 7722 0f3f 9d43 563e 65fe 8e3d b13b e4be
00000190: 0fa8 133e 8009 1ebf 2cd5 433f f695 a6be
000001a0: 2d3b 9dbe 9ca1 0cbf 7b5a f43d 4488 3abe
000001b0: 2a12 27bd d86e 103e bbbd d0bd bfd8 0d3e
000001c0: 12a2 843e 2711 75be 2965 93be db0e e1be
000001d0: 05ab 513e 92ee 04be 64f6 c73d dd34 f9be
000001e0: 1bd3 0f3f 89d9 f6bc 072a a83d b1fa 1abf
000001f0: 9070 d8bb 1aa5 27bf 1b88 6f3e 133e 65bf
00000200: d42b 0bbe 345e 3ebd e0e3 bdbc 80c5 59be
00000210: 9570 df3e 83c7 3ebf bd08 3f3e f192 2b3f
00000220: 629c 94be ad5e 1fbe c2bb fe3d dc95 083f
00000230: baf3 0f3e 75af 09bf c894 a0bd 4298 6f3e
00000240: 4889 3c3f e31d 0dbd fe1f eb3e fec7 ed3e
00000250: f7e9 c2bd a27b cfbd 98c9 db3e 2595 163e
00000260: 9976 d23d 3b8d 643e 819a 983d 41a0 aa3e
00000270: efad d83d d714 3a3d d12e 953e d1b0 78be
00000280: 0d4f 27bf eb1d b13e 39cf a23e 7caf c13d
00000290: e36e a13e 9536 5b3d de34 903e 4991 94be
000002a0: f0a3 983e 201a 1fbf 9183 c63c ae39 ad3e
000002b0: 7c74 ca3e 85d5 613e 52b3 133f 0326 083e
000002c0: 603d 18bf 2680 68bf 311d d3be 3723 fbbe
000002d0: ff6c bb3e 3483 97be 8b95 32bf 71d3 f43e
000002e0: 69db bf3e 1380 7fbe 40e0 6a3e bea3 233d
000002f0: e40d 033d 840d c0be 9756 003f 3d8e 71be
00000300: 326e a33c fddd a43e 5c91 b3be 2cf8 84be
00000310: cfec 053f 3313 d63d 9b0b af3e 2779 8fbe
-0.2528056 0.023493202 0.40740052 -0.4711069 -0.33924097 0.29450634 -0.1341857 0.21710548
-0.23944926 0.46522585 0.22092956 -0.5227093 -0.2392564 -0.09846963 0.07881676 0.24720106
0.079892 0.3881943 -0.3876397 0.21256085 -0.24617578 -0.12013339 0.116311915 0.33947125
-0.24808827 -0.42449492 -0.2759106 -0.41985968 0.09005555 0.105015986 0.02770265 -0.15230969
0.7248209 -0.61523813 0.44393417 -0.88595563 0.49205658 0.1828383 0.43167776 1.0152242
0.12355135 -0.35945454 -0.80447644 0.3920739 0.34125638 0.11292466 0.65857077 -0.13333106
-0.44882235 -0.3915722 -0.24996203 0.22405075 -0.2246177 0.28953826 0.5106922 0.6678478
0.5768047 0.6063325 0.6432468 0.078332946 -0.12579341 -0.41930118 0.47014806 0.1494524
0.44773266 -0.012343845 0.84770715 -0.32027927 -0.6575343 0.27027723 0.17846237 0.38165596
-0.2644887 -0.077374764 0.8878777 -0.053416632 -0.8140443 -1.099959 0.09287493 0.47650024
-0.42959774 0.08665487 -0.3746807 0.31194854 -0.3002654 0.1501696 0.09401881 0.8407011
0.21006176 -0.9385992 0.54780567 0.75522053 -0.38370824 0.4232836 -0.5031123 0.4261089
0.55911964 0.2092423 0.06982116 -0.4457679 0.14419578 -0.61733246 0.7649715 -0.32536286
-0.3070921 -0.54934096 0.1193132 -0.18216044 -0.040788807 0.14104784 -0.10192438 0.13852213
0.259049 -0.23932324 -0.28788117 -0.43956646 0.20475395 -0.12981632 0.09763792 -0.48673144
0.56181496 -0.030133026 0.08211141 -0.60538775 -0.0066052154 -0.654863 0.23391764 -0.8954784
-0.13590938 -0.046476558 -0.023179948 -0.21266747 0.4364058 -0.7452318 0.18655677 0.6702109
-0.2902556 -0.1556346 0.12438156 0.5335367 0.14057818 -0.5378335 -0.07840878 0.23397925
0.73646975 -0.03445233 0.45922846 0.46441644 -0.095172815 -0.10131003 0.4292724 0.14705332
0.10276527 0.223195 0.07451344 0.3332539 0.1058005 0.04543003 0.2913728 -0.242862
-0.65354997 0.34593138 0.31798723 0.09457299 0.31529912 0.05351885 0.28165334 -0.29017094
0.29812574 -0.6214924 0.024232658 0.3383307 0.39541996 0.22054107 0.57695496 0.1329575
-0.5946865 -0.9082054 -0.4123321 -0.49050304 0.36606595 -0.29592288 -0.69759434 0.47817567
0.37472084 -0.249512 0.22937107 0.03995108 0.03199567 -0.37510312 0.50132126 -0.23589416
0.019950006 0.32200614 -0.35071838 -0.2597059 0.52314466 0.10452881 0.34188542 -0.2802212

bias f4 [50]
00000000: 8494 4b3e 00dd 85bd 8b70 953e 0594 70be
00000010: d82b d5bd e871 b43e 0c0c e73d 4553 dabe
00000020: f4df 28bf 86f1 07be 4591 103d d813 223f
00000030: ef46 d4be 46de ed3e 490a ba3e f232 58be
00000040: 06d2 b13e c9e7 263f c631 79be b036 66be
00000050: 6a70 44be 5707 523e 2ede 4fbd 03ff 023f
00000060: 01e6 fd3d 5967 5bbd 2fbe 71bc 623e 3e3e
00000070: 0030 89be a08a c0be a474 96be d7ea 003e
00000080: eeb5 b33e c2af 303f b526 a7be 16bf f7bd
00000090: 1273 af3e 4957 33be a166 4cbe 8a8c dfbe
000000a0: 5266 84bb 67ee b13e 11c8 913e c623 c83e
000000b0: 2d3e 64bf f802 8abd d613 bd3e 0a95 913e
000000c0: c5be b0be eec0 843e
0.19880873 -0.06536293 0.29187426 -0.23493965 -0.10408753 0.35243154 0.11281595 -0.42641655
-0.65966725 -0.13275728 0.03529479 0.6331153 -0.41460368 0.46458644 0.36335972 -0.21113184
0.34730548 0.65197426 -0.24335393 -0.22481799 -0.19183508 0.20510612 -0.050748996 0.51170367
0.123973854 -0.053565357 -0.014754816 0.18578485 -0.26794434 -0.37605762 -0.29385865 0.12589584
0.3509974 0.69018185 -0.3264672 -0.120969936 0.3426748 -0.17513765 -0.19961025 -0.4366191
-0.004040518 0.347522 0.2847295 0.39089793 -0.8915737 -0.067388475 0.36929196 0.2843402
-0.34520546 0.25928444
