Models/fbsde_discretized_feedforward__2022-04-07-09-32-48.pt (torch, 693685 bytes, 800 tensors)

weight f4 [50, 4]
0.4079104 0.045257032 0.25669444 0.034292042 -0.01711905 0.07052016 -0.25159597 0.49302983
-0.13882744 -0.3169341 0.2599426 -0.21519572 0.40792722 0.3941815 0.35869998 0.24494618
0.04689008 -0.26114577 0.17889404 -0.077058494 -0.117751 0.42958313 0.18016052 0.46967006
-0.12566179 0.31065547 0.20249194 -0.3096674 -0.31219327 -0.15244305 -0.33845043 0.13644671
-0.46082032 0.34464282 0.2576967 -0.17322189 0.2481041 -0.25313562 -0.21928364 0.21133983
0.010701656 -0.009862959 0.4958307 -0.26439762 0.06731737 -0.16841155 0.4122076 -0.30758083
0.19839895 -0.04353285 0.39546967 0.4226622 -0.2478013 -0.39245808 -0.1863342 -0.0819267
0.3658806 0.11175758 0.058047056 -0.069224656 -0.14842904 0.23002225 0.46981996 -0.22295493
-0.009169996 -0.4554453 0.42078483 -0.038865447 0.4820677 -0.28322154 0.39946932 -0.37000865
-0.42606056 0.33239824 0.017075717 -0.14595985 -0.26564866 -0.25397205 0.08205593 0.4355834
-0.1876092 0.0006483793 0.28585142 -0.16033697 0.39173955 -0.32895064 -0.12813574 0.20947713
-0.20409721 -0.27139664 0.18791729 -0.41246313 -0.41036606 0.40271991 0.44298494 -0.26714742
-0.31435496 -0.081927836 0.058657587 0.43247253 -0.38611197 -0.33398962 0.054837704 -0.23864591
-0.44732773 0.45075715 0.4743715 0.35599208 0.22468239 0.20067704 -0.3675074 0.12475419
0.36608464 0.27429205 -0.49837166 0.2315396 0.47192734 0.34659833 0.035190105 -0.04246211
0.34550887 0.24457711 -0.082357585 0.18873847 -0.21155024 -0.21920037 0.15852505 -0.25608176
-0.13749379 0.39775002 0.05528921 0.47110474 0.056810677 -0.43543887 0.008268237 -0.044712603
-0.094379365 -0.07487404 -0.300604 0.25984728 -0.25161892 -0.16503286 -0.39672446 -0.46211672
0.47429782 -0.3705387 0.089827955 0.48501235 0.21390897 0.27538598 -0.2274456 0.08825219
0.15319449 -0.46701616 0.12118137 -0.28227085 0.05412209 0.28074247 0.3184567 -0.10416287
0.16509849 0.12530077 0.23546576 -0.15151733 0.15989888 -0.3656376 -0.20605612 0.1325208
0.0093945265 0.4063813 -0.38623738 -0.31004417 0.21789765 0.31677657 -0.3522852 -0.46733063
0.10613835 -0.009397626 -0.09189981 -0.43914986 -0.09856397 -0.42348945 -0.28216994 -0.14911234
-0.16644531 0.2753697 0.31333417 0.051148474 0.45665288 -0.4538294 0.48230916 -0.3447041
-0.07151258 0.11445302 0.2124471 0.28152984 0.07833457 0.046659946 -0.43411767 -0.36471748
00000000: a2d9 d03e 705f 393d 746d 833e d075 0c3d
00000010: 403d 8cbc e06c 903d 30d1 80be 686e fc3e
00000020: c828 0ebe 3045 a2be 3217 853e 445c 5cbe
00000030: d6db d03e 28d2 c93e 86a7 b73e 2cd3 7a3e
00000040: d00f 403d e6b4 85be 0030 373e d8d0 9dbd
00000050: 7027 f1bd 52f2 db3e 007c 383e 9878 f03e
00000060: 7cad 00be 3c0e 9f3e 0c5a 4f3e ba8c 9ebe
00000070: ccd7 9fbe 081a 1cbe 6049 adbe b0b8 0b3e
00000080: a4f0 ebbe 0675 b03e d2f0 833e 1461 31be
00000090: 000f 7e3e fe9a 81be e48b 60be 7869 583e
000000a0: 0056 2f3c 4098 21bc 86dd fd3e 205f 87be
000000b0: b0dd 893d 1474 2cbe e00c d33e 3c7b 9dbe
000000c0: 1829 4b3e 804f 32bd 007b ca3e 2e67 d83e
000000d0: a0bf 7dbe 44f0 c8be 64ce 3ebe 30c9 a7bd
000000e0: b454 bb3e 28e1 e43d c0c2 6d3d a8c5 8dbd
000000f0: c8fd 17be f48a 6b3e 3e8c f03e 4c4e 64be
00000100: c03d 16bc 2030 e9be 1c71 d73e 6031 1fbd
00000110: 94d1 f63e 6a02 91be 3e87 cc3e c671 bdbe
00000120: 9c24 dabe 1a30 aa3e 60e2 8b3c 8076 15be
00000130: 1a03 88be a008 82be f00c a83d ca04 df3e
00000140: a01c 40be 00f8 293a 1e5b 923e 602f 24be
00000150: 1692 c83e 386c a8be 0436 03be 2c81 563e
00000160: dcfe 50be 80f4 8abe 646d 403e 5e2e d3be
00000170: 801b d2be 4e31 ce3e ecce e23e 8cc7 88be
00000180: 22f3 a0be c8c9 a7bd f042 703d 0a6d dd3e
00000190: 78b0 c5be b000 abbe 809d 603d 985f 74be
000001a0: 2408 e5be a4c9 e63e d2e0 f23e 9844 b63e
000001b0: 2413 663e 487e 4d3e ee29 bcbe 207f ff3d
000001c0: 726f bb3e 0270 8c3e 922a ffbe b818 6d3e
000001d0: 76a0 f13e 5675 b13e 8023 103d c0ec 2dbd
000001e0: 8ae6 b03e 6c72 7a3e 18ab a8bd a844 413e
000001f0: a0a0 58be 1076 60be 6454 223e 261d 83be
00000200: 2ccb 0cbe e4a5 cb3e f076 623d a434 f13e
00000210: 50b2 683d d8f1 debe 8077 073c 9024 37bd
00000220: f849 c1bd 9057 99bd c4e8 99be b40a 853e
00000230: 32d4 80be 60fe 28be 781f cbbe 909a ecbe
00000240: 2ad7 f23e 40b7 bdbe b8f7 b73d 8a53 f83e
00000250: f40a 5b3e 64ff 8c3e 80e7 68be 90bd b43d
00000260: 04df 1c3e be1c efbe f02d f83d ce85 90be
00000270: 20af 5d3d 7abd 8f3e c20c a33e 5853 d5bd
00000280: 940f 293e d84e 003e f01d 713e 5c27 1bbe
00000290: 88bc 233e da34 bbbe 6000 53be 88b3 073e
000002a0: 80eb 193c 3611 d03e e8c0 c5be 1cbe 9ebe
000002b0: 9020 5f3e 8a30 a23e ba5e b4be f645 efbe
000002c0: 105f d93d 80f8 19bc f835 bcbd 40d8 e0be
000002d0: e8db c9bd 9cd3 d8be 9478 90be e8b0 18be
000002e0: a470 2abe 42fd 8c3e 566d a03e 1081 513d
000002f0: 68ce e93e 545c e8be 3af1 f63e 0e7d b0be
00000300: 3075 92bd 5866 ea3d bc8b 593e ae24 903e
00000310: e06d a03d 801e 3f3d ac44 debe 40bc babe

bias f4 [50]
0.037200212 0.110134244 0.023032725 -0.010066152 0.43837053 -0.20761591 0.38485038 -0.4352969
0.32109725 -0.30849963 0.013892829 0.21779722 0.24672437 -0.2270565 -0.46327943 0.496386
-0.2540331 -0.4235754 0.549664 -0.31140977 0.20614338 -0.2345152 -0.53183806 -0.124633856
-0.019831002 0.11270273 0.15156992 0.31258672 -0.24567705 0.10540098 0.38810045 0.3987506
-0.1786768 -0.22321248 -0.47801906 0.1902895 0.23396462 -0.121772885 -0.10900712 0.101056874
0.23613518 -0.47334158 0.10721493 -0.47693658 -0.4056256 -0.32072926 0.26537254 0.3897723
0.38169223 0.222853
00000000: 405f 183d 108e e13d 20af bc3c 80ec 24bc
00000010: 1a72 e03e 4499 54be 1c0b c53e 3cdf debe
00000020: dc66 a43e aaf3 9dbe c09e 633c 3c06 5f3e
00000030: 50a5 7c3e 8081 68be f632 edbe 4e26 fe3e
00000040: a010 82be e0de d8be c8b6 0c3f 1a71 9fbe
00000050: 4017 533e c124 70be 8a26 08bf 0940 ffbd
00000060: a074 a2bc b0d0 e63d 2535 1b3e 5e0b a03e
00000070: c492 7bbe 78dc d73d 1ab5 c63e 0a29 cc3e
00000080: 0df7 36be d091 64be eabe f4be 40db 423e
00000090: 6c94 6f3e 1064 f9bd 203f dfbd e8f6 ce3d
000000a0: 6ccd 713e d459 f2be 8093 db3d 0831 f4be
000000b0: 29ae cfbe a036 a4be e9de 873e 3c90 c73e
000000c0: 2a6d c33e 9433 643e

weight f4 [9, 50]
-0.08998759 0.044207107 0.11276793 -0.10790781 -0.021967545 -0.11181945 -0.005237943 0.018681789
-0.13590628 -0.044392113 0.07327532 -0.031987082 0.0914384 0.10872029 0.024411878 -0.019461764
-0.0341477 -0.11693901 -0.12522735 -0.016189065 -0.040273372 0.14052783 0.013218595 0.0859503
0.021678839 -0.12119573 -0.048986897 0.118016765 -0.061158974 -0.0352157 0.13726366 0.021359064
0.013746791 -0.03836279 -0.06739375 0.012235518 -0.1093472 -0.060908522 0.049120568 -0.07071597
0.076754875 0.1298371 0.13251485 -0.06277827 -0.08009412 -0.05669687 -0.02515682 -0.009213374
0.099356465 0.060263664 0.037341315 -0.021140153 -0.12924296 0.08558476 -0.020582633 0.09681084
0.053997263 -0.08527677 -0.10481507 0.09151236 0.027097458 0.11077612 0.10671822 -0.1344676
-0.10820907 -0.13338743 -0.04774112 -0.10057567 -0.07819106 0.014797612 -0.010088169 -0.15524693
-0.16914453 0.05234843 -0.029180894 0.05902626 -0.10823038 -0.054335214 0.12835895 0.009478624
-0.038424607 -0.020122204 -0.18095723 0.12269174 -0.16347025 0.1069784 0.08010507 -0.021038646
0.019791588 -0.16960746 0.0956325 0.09146307 -0.052932415 -0.028850496 0.023531513 -0.04284792
-0.073234014 0.044207253 0.016902573 -0.076214105 0.06341287 -0.041679848 -0.07647034 -0.07200486
-0.06634674 0.11247005 0.06967277 0.0025375057 0.10323266 0.06640945 0.11420269 -0.10327835
-0.12657037 0.0114575755 0.064787686 -0.053184267 0.12069154 -0.08850908 0.07250428 0.13048409
0.06374752 0.12148159 -0.072496936 -0.039040256 0.0416289 0.033450555 0.06879994 0.02529273
-0.029528841 -0.04697892 0.121221825 -0.08579096 0.006967095 0.10223759 0.043562923 0.04845593
0.022394037 0.041259624 0.10992615 -0.07204319 0.018531954 0.087452926 -0.11801454 0.20122963
0.034885675 -0.07122489 0.05322062 -0.03495561 -0.06318162 -0.10206887 0.020371495 -0.027490165
0.024944646 -0.11834908 0.0022426846 -0.024260923 0.06949974 -0.0997275 0.09485931 0.068255395
-0.013173891 0.09318696 0.0022257415 -0.005839665 -0.11845174 -0.02916085 -0.042278316 -0.025648126
-0.0036651217 -0.04668507 0.08937973 -0.06987233 -0.101073906 0.17426406 -0.0044540623 -0.0036073995
-0.107284576 0.13528353 -0.060359634 0.040451333 -0.11078468 0.013555219 -0.031398807 -0.05802615
0.1540423 0.12204064 -0.13176784 0.11754221 -0.11301258 0.036761723 -0.11221632 0.08771734
-0.0655032 0.00971938 -0.0035884425 -0.10891137 -0.009080114 0.033529066 -0.051048722 -0.19861612
0.07844969 0.07431808 -0.0859498 0.07884988 -0.13563743 0.11862139 0.12192544 -0.014900887
0.024850862 -0.10085548 0.10273128 -0.13184619 -0.13938104 0.029376583 -0.074226946 0.06014514
-0.11981424 -0.08529506 -0.21609311 -0.08283881 0.07745234 -0.13139345 0.031620033 -0.09716232
0.11541713 -0.1092988 -0.15245216 -0.13179834 0.009006799 -0.12740348 0.11801518 -0.0610384
-0.049306944 -0.01942555 0.041679014 0.059664026 -0.044584744 0.13428594 0.09231818 -0.12619755
-0.071086645 0.07837645 0.13229902 -0.18186112 -0.16611388 0.13645202 0.049867887 -0.023883086
-0.017070182 0.0143408375 -0.11675854 0.07876193 0.04948116 -0.09256249 0.05654794 0.11436212
00000000: 6a4b b8bd 8312 353d dff2 e63d c5fe dcbd
00000010: 48f5 b3bc 9901 e5bd 0da3 abbb 8d0a 993c
00000020: 042b 0bbe 81d4 35bd 5f11 963d e304 03bd
00000030: 0e44 bb3d bea8 de3d 6bfb c73c 476e 9fbc
00000040: 75de 0bbd b87d efbd 993b 00be ee9e 84bc
00000050: b1f5 24bd 87e6 0f3e ce92 583c b606 b03d
00000060: d297 b13c 7835 f8bd 7ca6 48bd c6b2 f13d
00000070: d581 7abd 563e 10bd d88e 0c3e 34f9 ae3c
00000080: 383a 613c 4d22 1dbd bc05 8abd 7b77 483c
00000090: 6df1 dfbd 377b 79bd a632 493d 89d3 90bd
000000a0: a931 9d3d 04f4 043e f9b1 073e e591 80bd
000000b0: 6308 a4bd fa3a 68bd ad15 cebc b1f3 16bc
000000c0: 677b cb3d 08d7 763d 35f3 183d 1d2e adbc
000000d0: 4458 04be 1047 af3d e99c a8bc c344 c63d
000000e0: 3c2c 5d3d 96a5 aebd 49a9 d6bd d56a bb3d
000000f0: 7dfb dd3c 97de e23d 158f da3d e0b1 09be
00000100: b89c ddbd b796 08be 318c 43bd 9efa cdbd
00000110: a222 a0bd af71 723c d948 25bc 0df9 1ebe
00000120: 3934 2dbe 4f6b 563d c50c efbc 85c5 713d
00000130: e4a7 ddbd 9a8e 5ebd 8770 033e 3b4c 1b3c
00000140: 1f63 1dbd 52d7 a4bc da4c 39be cf45 fb3d
00000150: bf64 27be 7e17 db3d 200e a43d 3d59 acbc
00000160: f821 a23c 94ad 2dbe f9da c33d fd50 bb3d
00000170: a9cf 58bd e057 ecbc 29c5 c03c 4d81 2fbd
00000180: b7fb 95bd aa12 353d 4477 8a3c 2416 9cbd
00000190: 9bde 813d 7db8 2abd 7b9c 9cbd 4977 93bd
000001a0: cde0 87bd b356 e63d 99b0 8e3d 484c 263b
000001b0: a56b d33d ad01 883d 1ae3 e93d 9983 d3bd
000001c0: aa9b 01be 8eb8 3b3c 68af 843d bfd7 59bd
000001d0: 202d f73d 4044 b5bd 207d 943d 9f9d 053e
000001e0: 0f8e 823d 57cb f83d 4679 94bd ade8 1fbd
000001f0: 1183 2a3d 7303 093d fce6 8c3d b332 cf3c
00000200: 78e6 f1bc f86c 40bd 2643 f83d 2cb3 afbd
00000210: 3b4c e43b f161 d13d 096f 323d ba79 463d
00000220: b373 b73c daff 283d f620 e13d 618b 93bd
00000230: 53d0 973c 851a b33d 9bb1 f1bd 240f 4e3e
00000240: 48e4 0e3d 5bde 91bd ddfd 593d 9d2d 0fbd
00000250: 5d65 81bd 7c09 d1bd 1fe2 a63c 0e33 e1bc
00000260: b758 cc3c 0161 f2bd 01fa 123b d8be c6bc
00000270: e155 8e3d ee3d ccbd 9945 c23d 7cc9 8b3d
00000280: 4ed7 57bc ced8 be3d bfdd 113b a95a bfbb
00000290: d396 f2bd bce2 eebc 072c 2dbd 051c d2bc
000002a0: 8a32 70bb d838 3fbd b80c b73d 3919 8fbd
000002b0: d6ff cebd 4772 323e 62f3 91bb 1f6a 6cbb
000002c0: 04b8 dbbd c487 0a3e aa3b 77bd 4cb0 253d
000002d0: 14e3 e2bd b616 5e3c 099c 00bd d4ac 6dbd
000002e0: 44bd 1d3e 71f0 f93d 26ee 06be f8b9 f03d
000002f0: 2473 e7bd 7693 163d acd1 e5bd 26a5 b33d
00000300: 8b26 86bd 093e 1f3c 132c 6bbb ed0c dfbd
00000310: c2c4 14bc c655 093d 7718 51bd 0662 4bbe
00000320: 3baa a03d 1434 983d 7306 b0bd 0c7c a13d
00000330: 8ae4 0abe c5ef f23d 0cb4 f93d da22 74bc
00000340: 0994 cb3c 518d cebd c764 d23d b002 07be
00000350: e7b9 0ebe 29a7 f03c 4c04 98bd c05a 763d
00000360: 2b61 f5bd 2daf aebd 8347 5dbe 65a7 a9bd
00000370: 559f 9e3d 018c 06be 0284 013d 0afd c6bd
00000380: d15f ec3d 0dd8 dfbd 6b1c 1cbe 25f6 06be
00000390: 4191 133c 0f76 02be f1b1 f13d 6703 7abd
000003a0: 14f6 49bd 5522 9fbc 9db7 2a3d 4462 743d
000003b0: 7e9e 36bd 4182 093e 5011 bd3d ee39 01be
000003c0: e095 91bd d583 a03d 6579 073e cd39 3abe
000003d0: c219 2abe 14ba 0b3e 4542 4c3d 76a6 c3bc
000003e0: c4d6 8bbc d5f5 6a3c 1a1f efbd ef4d a13d
000003f0: c2ac 4a3d 6791 bdbd d09e 673d b036 ea3d

bias f4 [9]
0.00019010293 -0.0001403744 -0.00013167858 -0.00014837211 0.0001295053 6.222052e-05 -3.6775335e-05 -6.7989536e-06
8.9381596e-05
00000000: 5e56 4739 7731 13b9 3313 0ab9 5694 1bb9
00000010: d0cb 0739 637c 8238 373f 1ab8 9122 e4b6
00000020: 6172 bb38

weight f4 [50]
1.0 1.0 1.0 1.0 1.0 1.0 1.0 1.0816419
1.0 1.0 1.0 1.0 1.0 0.94007456 1.0 1.0
1.0 0.95666844 0.8426708 0.9400092 1.0 0.94085467 1.0707753 0.9400812
1.0 1.0 1.0364618 1.0 1.0 1.0 1.0 1.0
1.0620744 1.0 0.9400668 1.0 1.0 1.0 1.0 0.93999845
1.0 1.0 1.0 0.94001204 0.93996227 1.0 1.0588568 0.93995976
1.0 0.9000566
00000000: 0000 803f 0000 803f 0000 803f 0000 803f
00000010: 0000 803f 0000 803f 0000 803f 3e73 8a3f
00000020: 0000 803f 0000 803f 0000 803f 0000 803f
00000030: 0000 803f baa8 703f 0000 803f 0000 803f
00000040: 0000 803f 39e8 743f 46b9 573f 71a4 703f
00000050: 0000 803f dadb 703f 2a0f 893f 29a9 703f
00000060: 0000 803f 0000 803f c8aa 843f 0000 803f
00000070: 0000 803f 0000 803f 0000 803f 0000 803f
00000080: 0ef2 873f 0000 803f 38a8 703f 0000 803f
00000090: 0000 803f 0000 803f 0000 803f bda3 703f
000000a0: 0000 803f 0000 803f 0000 803f a1a4 703f
000000b0: 5ea1 703f 0000 803f 9f88 873f 34a1 703f
000000c0: 0000 803f 1c6a 663f

bias f4 [50]
0.0 0.0 0.0 0.0 0.0 0.0 0.0 -0.041621964
0.0 0.0 0.0 0.0 0.0 -0.06005503 0.0 0.0
0.0 -0.016820924 -0.028735952 -0.060055032 0.0 -0.06005503 -0.02021056 -0.060055025
0.0 0.0 -0.022544071 0.0 0.0 0.0 0.0 0.0
-0.014661423 0.0 -0.06005503 0.0 0.0 0.0 0.0 -0.060055032
0.0 0.0 0.0 -0.060055032 -0.060055032 0.0 -0.025437927 -0.060055036
0.0 -0.011884718
00000000: 0000 0000 0000 0000 0000 0000 0000 0000
00000010: 0000 0000 0000 0000 0000 0000 cb7b 2abd
00000020: 0000 0000 0000 0000 0000 0000 0000 0000
00000030: 0000 0000 43fc 75bd 0000 0000 0000 0000
00000040: 0000 0000 09cc 89bc a967 ebbc 44fc 75bd
00000050: 0000 0000 43fc 75bd 9e90 a5bc 42fc 75bd
00000060: 0000 0000 0000 0000 58ae b8bc 0000 0000
00000070: 0000 0000 0000 0000 0000 0000 0000 0000
00000080: 7736 70bc 0000 0000 43fc 75bd 0000 0000
00000090: 0000 0000 0000 0000 0000 0000 44fc 75bd
000000a0: 0000 0000 0000 0000 0000 0000 44fc 75bd
000000b0: 44fc 75bd 0000 0000 3363 d0bc 45fc 75bd
000000c0: 0000 0000 1fb8 42bc

running_mean f4 [50]
0.037200198 0.110134214 0.023032717 -0.010066148 0.43837053 -0.2076158 0.38485032 -0.43529686
0.3210972 -0.30849946 0.013892826 0.21779719 0.24672431 -0.22705644 -0.4632792 0.49638587
-0.25403297 -0.42357528 0.5496638 -0.3114099 0.20614332 -0.23451528 -0.5318383 -0.12463393
-0.019830994 0.1127027 0.15156999 0.3125866 -0.24567693 0.10540095 0.38810033 0.39875048
-0.1786769 -0.22321242 -0.478019 0.19028944 0.2339646 -0.121772856 -0.10900709 0.10105689
0.23613515 -0.47334135 0.1072149 -0.47693634 -0.40562582 -0.32072914 0.2653727 0.38977247
0.3816921 0.22285289
00000000: 3c5f 183d 0c8e e13d 1caf bc3c 7cec 24bc
00000010: 1a72 e03e 3c99 54be 1a0b c53e 3bdf debe
00000020: da66 a43e a4f3 9dbe bc9e 633c 3a06 5f3e
00000030: 4ca5 7c3e 7c81 68be ee32 edbe 4a26 fe3e
00000040: 9c10 82be dcde d8be c4b6 0c3f 1e71 9fbe
00000050: 3c17 533e c624 70be 8e26 08bf 1340 ffbd
00000060: 9c74 a2bc acd0 e63d 2a35 1b3e 5a0b a03e
00000070: bc92 7bbe 74dc d73d 16b5 c63e 0629 cc3e
00000080: 14f7 36be cc91 64be e8be f4be 3cdb 423e
00000090: 6b94 6f3e 0c64 f9bd 1c3f dfbd eaf6 ce3d
000000a0: 6acd 713e cc59 f2be 7c93 db3d 0031 f4be
000000b0: 30ae cfbe 9c36 a4be eede 873e 4290 c73e
000000c0: 266d c33e 8c33 643e

running_var f4 [50]
6e-45 6e-45 6e-45 6e-45 1.432276e-14 2.0141378e-15 8.056551e-15 8.056551e-15
8.056551e-15 8.951725e-16 6e-45 2.0141378e-15 6e-45 6e-45 1.432276e-14 8.951725e-16
6e-45 6e-45 6e-45 8.951725e-16 6e-45 6e-45 3.58069e-15 1.3987067e-15
6e-45 6e-45 6e-45 8.951725e-16 2.0141378e-15 5.594828e-17 6e-45 6e-45
8.951725e-16 6e-45 3.58069e-15 6e-45 2.0141378e-15 6e-45 6e-45 2.2379312e-16
2.0141378e-15 8.056551e-15 6e-45 1.432276e-14 8.056551e-15 6e-45 6e-45 3.58069e-15
8.951725e-16 2.0141378e-15
00000000: 0400 0000 0400 0000 0400 0000 0400 0000
00000010: 0902 8128 4922 1127 4922 1128 4922 1128
00000020: 4922 1128 0902 8126 0400 0000 4922 1127
00000030: 0400 0000 0400 0000 0902 8128 0902 8126
00000040: 0400 0000 0400 0000 0400 0000 0902 8126
00000050: 0400 0000 0400 0000 0902 8127 2b93 c926
00000060: 0400 0000 0400 0000 0400 0000 0902 8126
00000070: 4922 1127 0902 8124 0400 0000 0400 0000
00000080: 0902 8126 0400 0000 0902 8127 0400 0000
00000090: 4922 1127 0400 0000 0400 0000 0902 8125
000000a0: 4922 1127 4922 1128 0400 0000 0902 8128
000000b0: 4922 1128 0400 0000 0400 0000 0902 8127
000000c0: 0902 8126 4922 1127

weight f4 [50, 4]
-0.17877395 0.22538614 -0.47710305 -0.03742117 0.31832466 0.21775669 0.465298 -0.031622685
0.0017184922 0.6399372 0.6262386 -0.5261639 0.31570846 0.55176693 0.10477429 0.37715688
-0.19513233 0.49076235 0.040471435 0.39110425 -0.76633084 0.1755872 0.026956435 -0.025696209
0.07047114 0.5196847 0.05183563 0.042279016 0.50786763 0.3755479 0.39569023 0.464488
-0.34036967 0.32229418 0.3620291 -0.14402351 0.1731513 0.009962388 -0.3942348 0.22132392
0.44324014 -0.08424021 0.17703192 0.10077437 -0.31446773 0.39565113 0.020756127 0.21777642
-0.43972862 0.44904062 0.27700052 0.100863956 0.3261037 0.105909705 0.1450541 0.48448974
-0.623644 0.05926345 -0.1609238 0.48719037 0.14443356 -0.31115973 0.12491718 0.14666015
0.112778604 0.11965933 -0.6513878 0.10739019 0.11015468 0.009586912 0.5769226 -0.2801579
-0.31815958 -0.2530527 -0.03848788 -0.39694604 0.3172187 -0.12666355 -0.2386233 -0.2297495
-0.083754 0.08688993 0.19185328 0.32062548 0.013954115 -0.42503586 0.31193733 0.16894387
-0.1929673 0.2197353 0.26432893 -0.39901263 -0.41017526 -0.041040838 -0.35542896 0.3067899
0.22044554 0.1412793 -0.46733004 0.27110943 0.38440832 0.048484452 0.40075997 0.2993722
-0.61451685 -0.38043308 -0.47853655 -0.3077881 -0.3907236 -0.40304044 -0.10934503 -0.36114347
-0.01936049 -0.15293998 0.58368725 0.028429002 0.66415715 0.26598272 0.12591895 -0.12836802
0.019758457 -0.05665212 0.5661393 0.2218447 0.48534548 -0.21810488 -0.27725333 -0.3568587
0.32643753 0.015571558 -1.1478682 0.29666856 -0.15909208 0.15764098 0.1576962 -0.31145382
0.48726898 -0.21329656 -0.45424652 -0.02398512 0.1377155 -0.44014227 -0.7642588 0.1140468
-0.04719452 -0.042696528 -0.60714513 0.38948256 -0.33171043 0.30995038 0.5128036 0.0094133355
-0.06081087 0.044041317 0.25698632 0.44121853 0.1380169 0.21045941 0.17727229 0.3461255
0.0398402 -0.10367493 0.6518366 -0.3868197 -0.2372808 -0.20917805 -0.03606841 0.21656096
0.56777924 -0.16071829 -0.4293446 -0.08945287 0.42786282 0.051605936 0.24032378 -0.18837145
-0.28597793 0.15410024 -0.14050573 0.14883882 0.57126814 0.2458562 -0.3996783 0.06950046
0.332834 0.39428446 -0.19054176 0.4805857 -0.32880616 0.08600478 -0.16054942 -0.32024443
0.27758196 -0.422704 0.28044915 -0.22978196 0.27463982 -0.6685141 0.2002293 0.4358444
00000000: 8510 37be a0cb 663e da46 f4be f146 19bd
00000010: 73fb a23e 9cfb 5e3e 8a3b ee3e ca86 01bd
00000020: 083f e13a edd2 233f 2c51 203f adb2 06bf
00000030: 8aa4 a13e 9940 0d3f e793 d63d b51a c13e
00000040: c5d0 47be 3445 fb3e 60c5 253d d13e c83e
00000050: 422e 44bf 22cd 333e bed3 dc3c db80 d2bc
00000060: 2c53 903d 0e0a 053f 9951 543d c32c 2d3d
00000070: 9d03 023f d047 c03e e997 ca3e 5fd1 ed3e
00000080: ef44 aebe be03 a53e e15b b93e e67a 13be
00000090: 934e 313e 4939 233c 25d9 c9be bda2 623e
000000a0: 5ff0 e23e 2286 acbd db47 353e cb62 ce3d
000000b0: ea01 a1be c992 ca3e c108 aa3c c800 5f3e
000000c0: 1c24 e1be a7e8 e53e 03d3 8d3e c391 ce3d
000000d0: 10f7 a63e 30e7 d83d 1089 143e 0a0f f83e
000000e0: 22a7 1fbf 3bbe 723d 35c9 24be 0471 f93e
000000f0: 64e6 133e 5450 9fbe 94d4 ff3d 142e 163e
00000100: 78f8 e63d f30f f53d 5ac1 26bf 63ef db3d
00000110: c798 e13d 6c12 1d3c 33b1 133f db70 8fbe
00000120: d0e5 a2be 2090 81be 78a5 1dbd 833c cbbe
00000130: 7d6a a23e 17b4 01be ab59 74be 7443 6bbe
00000140: 3887 abbd 59f3 b13d 3075 443e 0629 a43e
00000150: cd9f 643c 4d9e d9be 40b6 9f3e 9fff 2c3e
00000160: 3899 45be 4a02 613e 1f56 873e 624b ccbe
00000170: 7e02 d2be 701a 28bd c9fa b5be 9113 9d3e
00000180: 7abc 613e 85ab 103e e245 efbe dbce 8a3e
00000190: 2bd1 c43e a297 463d 6930 cd3e 5047 993e
000001a0: fa50 1dbf 20c8 c2be be02 f5be 6796 9dbe
000001b0: ec0c c8be 515b cebe 49f0 dfbd cce7 b8be
000001c0: e499 9ebc 4c9c 1cbe 876c 153f f0e3 e83c
000001d0: 3406 2a3f e32e 883e e6f0 003e e872 03be
000001e0: 7ddc a13c 0e0c 68bd 81ee 103f 422b 633e
000001f0: 347f f83e e356 5fbe 26f4 8dbe 2fb6 b6be
00000200: d222 a73e d91f 7f3c 58ed 92bf f1e4 973e
00000210: 09e9 22be a36c 213e 1d7b 213e e076 9fbe
00000220: 527b f93e 6a6a 5abe 0093 e8be 717c c4bc
00000230: 4b05 0d3e 545a e1be 77a6 43bf 5e91 e93d
00000240: 0a4f 41bd 8ee2 2ebd dd6d 1bbf 426a c73e
00000250: f3d5 a9be d1b1 9e3e 1947 033f 643a 1a3c
00000260: d214 79bd ab64 343d b693 833e 65e7 e13e
00000270: 4d54 0d3e ac82 573e de86 353e 5d37 b13e
00000280: 7a2f 233d 8653 d4bd c3de 263f 3b0d c6be
00000290: bdf9 72be c532 56be 78bc 13bd 28c2 5d3e
000002a0: fb59 113f 5693 24be 0ed3 dbbe 1133 b7bd
000002b0: d610 db3e bf60 533d 7017 763e 72e4 40be
000002c0: b36b 92be 74cc 1d3e bce0 0fbe 3469 183e
000002d0: a13e 123f bac1 7b3e a2a2 ccbe 4256 8e3d
000002e0: 3869 aa3e a7df c93e 611d 43be 540f f63e
000002f0: 4859 a8be 4623 b03d 1167 24be 14f7 a3be
00000300: 391f 8e3e a96c d8be 0897 8f3e f64b 6bbe
00000310: 979d 8c3e bd23 2bbf e908 4d3e ff26 df3e

bias f4 [50]
0.14918698 0.19266468 -0.3409406 0.13358961 0.24303688 0.24788508 0.22762567 -0.06974939
0.52573866 0.20050691 0.3483085 -0.07825545 0.024306381 0.23356707 -0.07592344 0.52879035
-0.10067513 -0.089341216 0.4491917 -0.46560198 -0.20680425 -0.25404906 -0.12586871 0.20041135
-0.39231366 -0.057625152 -0.40190786 -0.29062322 0.02777957 -0.12482972 0.35777733 -0.40052232
0.4075204 0.32084507 0.15233028 -0.3955043 -0.19651206 0.23700213 -0.16024116 -0.044597045
-0.27076587 0.25094974 -0.3337553 -0.54509807 -0.228143 0.076819204 0.2566572 0.029724909
0.2319376 -0.26562247
00000000: 79c4 183e e449 453e c48f aebe b7cb 083e
00000010: a9de 783e 96d5 7d3e b416 693e c5d8 8ebd
00000020: cf96 063f af51 4d3e 7e55 b23e 6544 a0bd
00000030: 2d1e c73c 352c 6f3e c07d 9bbd ce5e 073f
00000040: c32e cebd 87f8 b6bd 74fc e53e 6263 eebe
00000050: 7ec4 53be b812 82be bae3 00be a238 4d3e
00000060: 56dd c8be 5a08 6cbd dec6 cdbe 91cc 94be
00000070: fb91 e33c b9a6 ffbd 972e b73e 4311 cdbe
00000080: 84a6 d03e ce45 a43e 78fc 1b3e 8a7f cabe
00000090: 753a 49be b0b0 723e 4216 24be 64ab 36bd
000000a0: d3a1 8abe 7c7c 803e fae1 aabe 8c8b 0bbf
000000b0: 529e 69be 6353 9d3d 9368 833e a781 f33c
000000c0: 0d81 6d3e abff 87be

weight f4 [9, 50]
0.025683414 0.05181649 0.10551356 -0.1264323 0.015026689 0.054335967 -0.08198546 0.045965552
-0.06490481 -0.07735879 0.11920064 0.030755328 0.11127574 -0.062156323 0.1228282 -0.03434254
-0.18262877 0.10227283 0.06547242 -0.029293219 0.07453887 0.021060174 -0.09731738 0.18385248
0.065265685 -0.068467125 0.079170935 -0.04490476 -0.025452623 -0.39572394 -0.36122778 -0.024795968
0.1485622 -0.0016110432 -0.069393724 0.15020886 0.03146136 -0.05525038 0.09006568 0.05302424
-0.2702966 -0.066566914 0.069043525 0.039721247 0.0003052343 0.043124493 -0.026550675 0.04925441
0.015969407 0.25890312 0.022954045 0.009554773 0.020330325 -0.03985257 -0.040009715 0.119546615
0.060931094 0.0036569205 0.047428034 -0.12306749 -0.028750991 -0.028506534 -0.05212936 0.061280377
0.29202434 0.07698512 0.12556174 0.116485834 -0.07097002 -0.02197214 -0.057869405 0.107966766
-0.0037250938 -0.47728482 -0.069615185 0.14349554 0.08494452 0.083004184 0.017061101 -0.30520338
-0.22308795 -0.016784286 0.0681427 0.075483665 -0.00024440256 0.17959298 0.11322434 0.06826913
-0.055630732 -0.06628409 -0.3512743 0.006722281 0.05160956 -0.0052390625 0.031254444 0.2354148
0.055379253 0.012877963 0.03203292 0.09108374 0.09328329 -0.00064429396 -0.62068945 0.13459189
0.051812783 -0.057595827 -0.07048237 0.010497059 0.09182253 -0.023455681 -0.0075593167 -0.025418438
-0.010386472 0.012262658 0.30181018 -0.057300165 -0.056202326 0.49915823 -0.0887852 0.08218012
-0.0050444785 0.022207567 -0.0062839077 0.24637906 -0.15736447 0.0020188505 0.11263861 -0.0039827246
0.12802558 0.0128913205 0.18952729 0.06394962 0.04553386 -0.017422736 -0.12231999 0.16305588
0.023412568 -0.0028157746 -0.075725466 -0.04677586 -0.12025324 0.045623392 0.0493382 -0.027113454
0.017387463 -0.12535538 -0.02003672 0.05848544 0.019592494 0.25713912 0.019843489 -0.011515282
-0.089369655 0.0990126 -0.032260217 0.07256369 0.043074984 -0.12422432 0.07664106 -0.0035922548
-0.060034245 0.06252852 -0.11443462 0.018789314 0.17549877 0.07739401 -0.08605841 0.048529547
0.022110043 0.065972075 -0.088473566 -0.063103385 0.12534222 0.1688792 0.1446221 0.09181131
0.061654516 0.06907505 0.029699879 -0.21804899 -0.23095275 -0.0057184957 0.012356491 0.005765196
0.0011415865 0.2629326 -0.08614932 -0.012319286 -0.065060996 0.06100185 -0.2957411 -0.07705646
0.00027241776 -0.09336005 0.060052875 0.09720419 -0.042286206 -0.024579205 -0.044965748 0.24423014
0.007535817 -0.0096211275 -0.046060555 0.1476559 0.054518834 0.15617964 -0.055988044 -0.007849778
-0.06703579 0.068563394 0.06226505 -0.019061787 -0.0028466007 -0.021734461 0.3922305 -0.020613665
0.08905437 0.25673008 0.022504553 0.041948594 0.061098237 -0.028299628 0.02643323 -0.45905623
-0.0033331767 -0.07135865 0.14148286 -0.016278302 0.011823457 -0.14245781 -0.15948242 -0.03142069
-0.020511515 -0.025833525 -0.0014284054 0.36306107 -0.05570755 -0.04536758 0.060384393 0.003700868
-0.20412418 -0.0037096953 -0.029538637 -0.13455088 0.004266115 0.33032385 -0.04516566 -0.04597919
0.01782137 0.0464744 -0.11801566 -0.04504642 -0.5574918 -0.06720385 -0.07214864 0.1257619
00000000: 0666 d23c 873d 543d 7e17 d83d 7877 01be
00000010: 8032 763c 648f 5e3d fee7 a7bd 6046 3c3d
00000020: d0ec 84bd 496e 9ebd 771f f43d 99f2 fb3c
00000030: 89e4 e33d a197 7ebd 5a8d fb3d c3aa 0cbd
00000040: 0903 3bbe 6b74 d13d 6716 863d 55f8 efbc
00000050: d6a7 983d 6386 ac3c 564e c7bd d343 3c3e
00000060: 04aa 853d 7e38 8cbd 5f24 a23d 0eee 37bd
00000070: 0582 d0bc 549c cabe d9f2 b8be ea20 cbbc
00000080: b020 183e a429 d3ba 4c1e 8ebd 5ad0 193e
00000090: a1dd 003d 394e 62bd 5b74 b83d f22f 593d
000000a0: 5164 8abe 3c54 88bd b166 8d3d bfb2 223d
000000b0: db07 a039 4fa3 303d cd80 d9bc febe 493d
000000c0: 46d2 823c f38e 843e 1f0a bc3c 9f8b 1c3c
000000d0: c88b a63c 733c 23bd 3ae1 23bd dbd4 f43d
000000e0: e292 793d f2a8 6f3b e643 423d cf0a fcbd
000000f0: 3387 ebbc 8986 e9bc 9985 55bd 2201 7b3d
00000100: 3784 953e 60aa 9d3d 4293 003e 2090 ee3d
00000110: bb58 91bd ebfe b3bc 7808 6dbd ae1d dd3d
00000120: b420 74bb ad5e f4be 6892 8ebd 7ff0 123e
00000130: 64f7 ad3d 19fe a93d b9c3 8b3c 9e43 9cbe
00000140: 2b71 64be 337f 89bc 668e 8b3d 2e97 9a3d
00000150: 2823 80b9 39e7 373e 2ae2 e73d b0d0 8b3d
00000160: 0ddd 63bd f4bf 87bd 3ada b3be 9546 dc3b
00000170: 8c64 533d 71ac abbb a904 003d 9410 713e
00000180: 5bd5 623d 17fe 523c f334 033d 1d8a ba3d
00000190: 4f0b bf3d d6e5 28ba 81e5 1ebf 75d2 093e
000001a0: a439 543d 9ae9 6bbd 1059 90bd dbfb 2b3c
000001b0: 730d bc3d 2126 c0bc 25b4 f7bb 543a d0bc
000001c0: 052c 2abc 51e9 483c dd86 9a3e 94b3 6abd
000001d0: 6934 66bd ab91 ff3e 04d5 b5bd 0d4e a83d
000001e0: 274c a5bb a5ec b53c 3de9 cdbb cb4a 7c3e
000001f0: 2724 21be b14e 043b 12af e63d 8481 82bb
00000200: 2319 033e 1e36 533c 7113 423e 05f8 823d
00000210: b681 3a3d 20ba 8ebc e782 fabd 1ff8 263e
00000220: b7cb bf3c dc88 38bb f415 9bbd 0b98 3fbd
00000230: 5547 f6bd 98df 3a3d da16 4a3d 091d debc
00000240: 2770 8e3c 295d 00be 0c24 a4bc 6e8e 6f3d
00000250: 7080 a03c bda7 833e d08e a23c 98aa 3cbc
00000260: 7007 b7bd 1ec7 ca3d 4a23 04bd 469c 943d
00000270: 656f 303d 5269 febd fdf5 9c3d 096c 6bbb
00000280: 78e6 75bd f40e 803d b35c eabd 0cec 993c
00000290: f3b5 333e c080 9e3d 643f b0bd ebc6 463d
000002a0: 1f20 b53c 5e1c 873d a131 b5bd 593c 81bd
000002b0: b659 003e abee 2c3e d117 143e 9107 bc3d
000002c0: 7289 7c3d 3877 8d3d 294d f33c 3c48 5fbe
000002d0: e17e 6cbe 3862 bbbb e172 4a3c f8e9 bc3b
000002e0: 49a1 953a 1a9f 863e 0e6f b0bd d5d6 49bc
000002f0: b33e 85bd 13dd 793d 616b 97be c7cf 9dbd
00000300: 4bd3 8e39 8e33 bfbd 01fa 753d fe12 c73d
00000310: 4d34 2dbd 545a c9bc 012e 38bd 7717 7a3e
00000320: 04ef f63b efa1 1dbc fea9 3cbd 1c33 173e
00000330: 244f 5f3d 8eed 1f3e b853 65bd 5b9c 00bc
00000340: 0f4a 89bd f76a 8c3d a309 7f3d 7727 9cbc
00000350: 098e 3abb 780c b2bc 70d2 c83e fddd a8bc
00000360: 2362 b63d 2072 833e 785b b83c 4ad2 2b3d
00000370: 2542 7a3d 9fd4 e7bc 808a d83c 6b09 ebbe
00000380: 6d71 5abb 7c24 92bd e2e0 103e 135a 85bc
00000390: 2cb7 413c 76e0 11be 5c4f 23be fbb2 00bd
000003a0: c407 a8bc d4a0 d3bc 5539 bbba 24e3 b93e
000003b0: 9a2d 64bd 5bd3 39bd a055 773d 438a 723b
000003c0: ee05 51be 5c1e 73bb 03fb f1bc b5c7 09be
000003d0: c4ca 8b3b 3520 a93e a1ff 38bd ad54 3cbd
000003e0: 1ffe 913c f15b 3e3d 32b2 f1bd 9882 38bd
000003f0: c8b7 0ebf 2ca2 89bd abc2 93bd bac7 003e

bias f4 [9]
0.00022194063 -0.0002350536 -4.3232427e-05 -0.00015215533 0.00014971747 4.0497136e-05 -7.534878e-05 0.000105463194
-9.998837e-06
00000000: bcb8 6839 b878 76b9 7754 35b8 e38b 1fb9
00000010: 7afd 1c39 78db 2938 9104 9eb8 1f2c dd38
00000020: aec0 27b7

weight f4 [50]
0.08873408 0.053265944 0.073499836 0.06912404 0.06848044 -0.013331352 0.108611405 0.09667539
0.12581255 -0.052726667 0.10722243 0.09723127 0.08856908 0.09931093 -0.12551449 0.08300599
-0.04422893 -0.097144514 0.08215573 -0.06621083 0.099728666 0.09099678 0.09605575 -0.018080162
0.07155744 0.098246 -0.021522835 0.07250886 0.12413274 -0.07729629 0.004572543 0.08834216
0.02377907 0.096962675 0.1002505 -0.14820687 0.11040239 0.11054083 -0.011261345 -0.08469951
-0.036543038 -0.14382282 0.111204036 0.11625574 0.096306935 -0.07954261 0.097048596 0.10485871
0.096265554 -0.14376013
00000000: 37ba b53d 642d 5a3d 1587 963d e890 8d3d
00000010: 793f 8c3d be6b 5abc a86f de3d bffd c53d
00000020: 01d5 003e ebf7 57bd 6f97 db3d 3021 c73d
00000030: b563 b53d 8763 cb3d df86 00be 0bff a93d
00000040: 6529 35bd b4f3 c6bd 4341 a83d 8b99 87bd
00000050: 8b3e cc3d 855c ba3d e1b8 c43d d91c 94bc
00000060: b58c 923d 3335 c93d a850 b0bc 867f 943d
00000070: 4e39 fe3d 844d 9ebd 45d5 953b bcec b43d
00000080: 53cc c23c 5e94 c63d 2250 cd3d 8bc3 17be
00000090: a61a e23d 3b63 e23d 8181 38bc f076 adbd
000000a0: 27ae 15bd 4a46 13be f1be e33d 7d17 ee3d
000000b0: 923c c53d 3ce7 a2bd 6ac1 c63d 2ac0 d63d
000000c0: e026 c53d db35 13be

bias f4 [50]
-0.5427965 -0.68900317 -1.1200231 -0.55494803 -0.53465813 -0.6950583 -0.51549894 -0.60613215
-0.58809865 -0.60688555 -0.55005103 -0.61347884 -0.49711385 -0.5507857 -0.73158413 -0.51462024
-0.81830174 -0.72838646 -0.5214682 -0.8387317 -0.48402405 -0.5458442 -0.4855045 -0.656746
-0.67387885 -0.50653446 -0.6808307 -0.56686616 -0.60527974 -0.74294674 -0.7309722 -0.527998
-1.0994232 -0.54612535 -0.53755206 -0.9094019 -0.6671003 -0.5320535 -0.72548944 -0.6081675
-0.8429734 -0.76988333 -0.5983666 -0.5685921 -0.51818734 -0.77274877 -0.46440282 -0.54024076
-0.5143002 -0.8221536
00000000: b6f4 0abf 8362 30bf eb5c 8fbf 1311 0ebf
00000010: 5bdf 08bf 57ef 31bf bdf7 03bf 7a2b 1bbf
00000020: a28d 16bf da5c 1bbf 25d0 0cbf f30c 1dbf
00000030: b585 febe 4b00 0dbf 1949 3bbf 27be 03bf
00000040: 397c 51bf 8977 3abf f17e 05bf 1fb7 56bf
00000050: 00d2 f7be 72bc 0bbf 0c94 f8be 8120 28bf
00000060: 5383 2cbf 3eac 01bf ec4a 2ebf 241e 11bf
00000070: 9df3 1abf c231 3ebf fe20 3bbf e02a 07bf
00000080: e6b9 8cbf dfce 0bbf 039d 09bf 90ce 68bf
00000090: 16c7 2abf a834 08bf adb9 39bf deb0 1bbf
000000a0: 1bcd 57bf 1317 45bf 8e2e 19bf 408f 11bf
000000b0: eda7 04bf ddd2 45bf 35c6 edbe 384d 0abf
000000c0: 2ea9 03bf a978 52bf

running_mean f4 [50]
0.1669473 0.17725486 -0.39901918 0.17797242 0.29335868 0.25422126 0.24133746 -0.03124627
0.50970185 0.23401585 0.34753156 -0.04587041 0.03904522 0.2773282 -0.016049812 0.5314286
-0.067507595 -0.13622396 0.40745342 -0.4862807 -0.17822394 -0.25666088 -0.16773476 0.24452505
-0.34892774 -0.042193636 -0.4214207 -0.329354 0.008879044 -0.14072528 0.36063635 -0.43601835
0.4713598 0.289457 0.15581241 -0.37084916 -0.13896191 0.23119792 -0.12279687 -0.011917549
-0.33269092 0.27085575 -0.33703938 -0.573627 -0.2031869 0.09758667 0.31705955 0.0072041904
0.18849938 -0.24545306
00000000: 3cf4 2a3e 4c82 353e 3e4c ccbe 673e 363e
00000010: 1c33 963e 4a29 823e 2b21 773e 2df8 ffbc
00000020: d27b 023f daa1 6f3e a8ef b13e 9ce2 3bbd
00000030: e1ed 1f3d f6fd 8d3e e57a 83bc b40b 083f
00000040: 6c41 8abd 4b7e 0bbe bc9d d03e c9f9 f8be
00000050: 5680 36be 0e69 83be a9c2 2bbe c664 7a3e
00000060: a8a6 b2be 3cd3 2cbd 74c4 d7be 16a1 a8be
00000070: 6979 113c 4a1a 10be 54a5 b83e cc3d dfbe
00000080: 1256 f13e b533 943e 4a8d 1f3e f1df bdbe
00000090: 084c 0ebe 26bf 6c3e ed7c fbbd d341 43bc
000000a0: 7756 aabe 9bad 8a3e 6d90 acbe 38d9 12bf
000000b0: 3a10 50be 85db c73d a155 a23e 2111 ec3b
000000c0: fb05 413e 0c58 7bbe

running_var f4 [50]
0.304288 0.36205003 0.8068061 0.42479703 0.28114977 0.57944936 0.28629807 0.5529122
0.33795655 0.17889367 0.2228784 0.24947342 0.45494604 0.1345203 0.39546174 0.13273276
0.4399641 0.33830357 0.16579469 0.16396137 0.049849413 0.2798051 0.15068556 0.2872631
0.27833876 0.30246904 0.7438984 0.3292497 0.35672474 0.5117597 0.3169884 0.33930072
1.381045 0.07235915 0.46404636 0.7857102 0.3652049 0.45300716 0.06969388 0.09598532
0.42785114 0.10127335 0.5020801 0.23446949 0.11965694 0.52520186 0.30248943 0.13444431
0.3292711 0.5624511
00000000: a3cb 9b3e 9f5e b93e d88a 4e3f ff7e d93e
00000010: ddf2 8f3e cb56 143f a995 923e a78b 0d3f
00000020: a408 ad3e e72f 373e 3c3a 643e f675 7f3e
00000030: b0ee e83e b1bf 093e f679 ca3e 19eb 073e
00000040: f942 e13e 2036 ad3e 15c6 293e 7de5 273e
00000050: e62e 4c3d 9d42 8f3e 514d 1a3e 2614 933e
00000060: 6b82 8e3e 39dd 9a3e 2070 3e3f 6b93 a83e
00000070: a0a4 b63e af02 033f 4e4c a23e d3b8 ad3e
00000080: 15c6 b03f 0931 943d 7c97 ed3e 4e24 493f
00000090: 23fc ba3e 8ef0 e73e aabb 8e3d f493 c43d
000000a0: 4e0f db3e 6768 cf3d 5288 003f c518 703e
000000b0: b30e f53d a173 063f e5df 9a3e c5ab 093e
000000c0: 3996 a83e ccfc 0f3f

weight f4 [50, 4]
0.14024517 -0.15407671 0.36440012 -0.26595733 0.12000276 0.28853998 -0.21136461 0.39531618
0.40238538 -0.59772843 0.10298707 -0.08054398 0.25820932 -0.5405753 -0.038830962 0.18204592
0.39884388 0.59762996 0.38193002 -0.2081577 -0.08286503 -0.3170369 -0.054584965 0.21577083
0.33966005 -0.27723628 -0.35713094 0.24368997 -0.40240106 -0.30063832 0.14414154 -0.062233455
0.44053218 -0.1307558 0.06620076 -0.39755288 0.21137223 0.4722218 0.17360215 -0.051401574
0.22183895 -0.52389693 -0.25802687 -0.34222832 -0.6648982 -0.0014806323 -0.17646568 -0.5207734
-0.4523846 -0.08977019 0.05574571 -0.38140446 0.19763182 0.31466258 -0.0025243931 0.21135423
0.20524867 -0.41809583 0.2038962 0.44136125 0.36705974 -0.13704214 0.08306639 -0.38284627
0.15104286 0.40342218 0.594735 0.08929932 0.22219008 -0.4798546 -0.27795956 -0.12329471
-0.57464075 -0.21240024 0.06492495 0.054622356 0.12997064 -0.29090562 -0.6215758 -0.46541265
0.23495296 -0.08144437 -0.14177842 -0.4499023 -0.5454133 0.21990359 -0.61433524 0.30017257
-0.23540318 0.47457096 -0.31927928 -0.50080836 -0.3437481 0.064895764 -0.4308402 -0.42440897
0.43584356 -0.49879104 0.36418155 -0.29899317 0.15941718 0.28298104 0.06690472 -0.4321984
0.5160434 0.8017846 -0.3127355 0.035631377 0.22174518 0.55883944 -0.0145380795 -0.1653204
-0.07351783 0.37438872 0.0049414407 0.41868612 -0.52801466 -0.36233002 0.12760094 0.26240963
0.16869624 -0.3721247 0.3896629 0.045624577 -0.46993545 0.17858486 -0.28061348 0.2161296
0.57570666 -0.5995239 -0.14858481 0.074824035 0.25293157 0.4757753 0.141628 0.42933056
-0.19769713 -0.51283413 -0.272978 0.23090096 -0.26671138 0.07656035 0.8169243 0.19894736
0.043722685 -0.14432207 -0.6004313 -0.355438 -0.67416114 -0.17118163 -0.18282048 0.43121383
0.08450865 -0.38353235 -0.15482888 0.087176666 0.4287936 0.5318552 -0.01336746 0.6182753
0.072007835 0.76686025 -0.570213 0.11873105 -0.13286696 -0.198849 -0.17752883 -0.30567765
0.14301722 0.44984505 -0.32585046 0.036798988 -0.0070223226 -0.08608647 -0.2336836 0.36092862
-0.29910985 0.54475176 -0.22223294 -0.52137965 -0.42158502 0.04505679 0.0047652707 -0.5207674
0.05831804 0.28170377 -0.17348702 0.030223815 0.5509217 -0.31513017 0.1660826 -0.36836562
-0.19721214 -0.22230129 -0.7553735 -0.33839387 0.27755964 0.34467936 -0.027004931 0.44788972
00000000: 6e9c 0f3e 49c6 1dbe a792 ba3e 8f2b 88be
00000010: 02c4 f53d 83bb 933e f76f 58be e266 ca3e
00000020: 7505 ce3e bb04 19bf e3ea d23d 3ef4 a4bd
00000030: 0334 843e 2563 0abf 370d 1fbd 3f6a 3a3e
00000040: 4435 cc3e 47fe 183f 558c c33e 4b27 55be
00000050: 24b5 a9bd a952 a2be 7c94 5fbd 07f3 5c3e
00000060: ece7 ad3e eaf1 8dbe ded9 b6be dd89 793e
00000070: 8307 cebe 44ed 99be d799 133e 82e8 7ebd
00000080: 6f8d e13e d9e4 05be 4494 873d 0d8c cbbe
00000090: f671 583e 0ec7 f13e c3c4 313e 758a 52bd
000000a0: c029 633e 1c1e 06bf 191c 84be 8d38 afbe
000000b0: c536 2abf c711 c2ba 6bb3 34be 6851 05bf
000000c0: f49e e7be 6fd9 b7bd 9d55 643d 7247 c3be
000000d0: ff5f 4a3e 741b a13e 4a70 25bb 3e6d 583e
000000e0: b52c 523e a810 d6be 2aca 503e 1afa e13e
000000f0: 41ef bb3e c654 0cbe b61e aa3d 6d04 c4be
00000100: fbaa 1a3e 5a8d ce3e 8e40 183f 90e2 b63d
00000110: cc85 633e 81af f5be b750 8ebe f081 fcbd
00000120: a81b 13bf 737f 59be 5ff7 843d b1bb 5f3d
00000130: 0617 053e 95f1 94be 971f 1fbf 914a eebe
00000140: 8297 703e 4ecc a6bd 5d2e 11be 9859 e6be
00000150: 35a0 0bbf 682e 613e 1345 1dbf 38b0 993e
00000160: 880d 71be f7fa f23e 9378 a3be fa34 00bf
00000170: c0ff afbe 12e8 843d 1697 dcbe 224c d9be
00000180: e326 df3e 8a61 ffbe 0176 ba3e a215 99be
00000190: 423e 233e e4e2 903e 5805 893d 1c49 ddbe
000001a0: 6c1b 043f c141 4d3f de1e a0be 35f2 113d
000001b0: 2b11 633e 1a10 0f3f 2031 6ebc c049 29be
000001c0: 8490 96bd e1af bf3e cfeb a13b 075e d63e
000001d0: f82b 07bf 5283 b9be d2a9 023e 8e5a 863e
000001e0: b5be 2c3e 2187 bebe e581 c73e d6e0 3a3d
000001f0: 619b f0be f3de 363e 92ac 8fbe 1451 5d3e
00000200: 8361 133f 667a 19bf 9e26 18be 583d 993d
00000210: 3f80 813e d298 f33e ee06 113e 37d1 db3e
00000220: 1e71 4abe 1949 03bf c6c3 8bbe 4d71 6c3e
00000230: 658e 88be accb 9c3d f321 513f dbb8 4b3e
00000240: 8f16 333d 2ac9 13be deb5 19bf f8fb b5be
00000250: d395 2cbf 3d4a 2fbe 4b35 3bbe 0fc8 dc3e
00000260: df12 ad3d 5a5e c4be 768b 1ebe ae89 b23d
00000270: d68a db3e aa27 083f 3103 5bbc 4a47 1e3f
00000280: d878 933d f450 443f 7bf9 11bf 4429 f33d
00000290: 470e 08be 129f 4bbe 1eca 35be c881 9cbe
000002a0: 1b73 123e 1752 e63e dfd5 a6be 89ba 163d
000002b0: 831b e6bb 1a4e b0bd c14a 6fbe a3cb b83e
000002c0: ed24 99be da74 0b3f 0891 63be 2379 05bf
000002d0: fed9 d7be 788d 383d fd25 9c3b 0351 05bf
000002e0: e6de 6e3d 7a3b 903e 95a6 31be ef97 f73c
000002f0: 3409 0d3f be58 a1be 8f11 2a3e 6b9a bcbe
00000300: fbf1 49be f3a2 63be 2860 41bf f641 adbe
00000310: 4c1c 8e3e d079 b03e 7239 ddbc cd51 e53e

bias f4 [50]
0.0493228 0.622437 0.33887905 0.28550494 -0.17194745 0.034046985 -0.24553642 -0.20702358
-0.040255737 -0.47143748 -0.1184297 0.20815751 0.17581639 -0.20665479 -0.3597887 0.34261617
0.35085228 0.34314433 -0.33705267 -0.4096417 -0.2891863 0.19777618 -0.4098657 -0.22585331
-0.12645328 -0.17369261 -0.18560885 -0.30746892 -0.10901976 0.16870634 0.4044893 -0.11308695
0.07866182 0.040115163 0.046606515 -0.17271732 0.06552875 0.17843957 0.058387227 0.18791278
0.28642794 0.056518316 0.077704325 -0.015227383 -0.342644 0.045443326 0.2076521 -0.027641794
-0.11097537 -0.45539322
00000000: b406 4a3d 0858 1f3f 8e81 ad3e b42d 923e
00000010: fe12 30be da74 0b3d e66d 7bbe fdfd 53be
00000020: 33e3 24bd 4160 f1be 458b f2bd 3e27 553e
00000030: 3609 343e 509d 53be 3936 b8be 636b af3e
00000040: e9a2 b33e 9db0 af3e 2b92 acbe 8fbc d1be
00000050: 3a10 94be d785 4a3e ebd9 d1be 1746 67be
00000060: f87c 01be 7adc 31be 3f10 3ebe 916c 9dbe
00000070: c045 dfbd 5bc1 2c3e 3919 cf3e 219a e7bd
00000080: 7319 a13d cc4f 243d 79e6 3e3d cfdc 30be
00000090: f033 863d ddb8 363e 7227 6f3d 356c 403e
000000a0: afa6 923e c07f 673d 7223 9f3d 467c 79bc
000000b0: 096f afbe c822 3a3d c1a2 543e 0b71 e2bc
000000c0: 0e47 e3bd 4d29 e9be

weight f4 [9, 50]
-0.021948012 -0.001716539 -0.039429925 -0.068455614 0.50744635 0.000495284 0.037233897 -0.01704278
-0.031734377 0.038231038 0.037366033 -0.29335865 -0.0804333 0.05277917 0.04193712 0.0020892876
-0.20427625 -0.06439837 0.006381479 0.060404517 0.055477146 0.23834503 -0.1015989 0.06304878
0.0019921947 -0.030479362 0.0684758 -0.18977275 -0.00011966671 0.043786805 0.10621935 -0.0710718
0.1270591 -0.042501394 -0.080065675 0.03724318 -0.043669578 0.05111771 0.067890234 0.03792688
0.23864365 -0.041802987 -0.019875815 0.008469812 0.025583262 0.07611667 0.06290615 0.06027701
-0.288322 -0.026673377 0.013766979 -0.06420962 -0.057502992 -0.062849715 0.11927415 0.017710261
-0.06361045 -0.04570099 -0.018355036 -0.04700923 -0.04607591 0.09014805 0.0742343 0.16023806
0.06702293 0.008009296 -0.29946834 0.04940694 -0.030270664 -0.15136544 -0.06734006 -0.16858952
-0.04989973 0.07070269 -0.009217223 0.035055835 0.1587236 0.073298074 -0.044924997 -0.00025177453
0.010375295 -0.032318015 0.05127341 0.0011444547 0.089025564 0.3813616 0.13991793 0.016135849
0.077616446 -0.06615551 0.25110942 -0.024650374 0.012983101 -0.07796935 0.0025524371 0.009357561
0.052257873 0.052621987 -0.16646193 -0.059760027 -0.026050331 -0.027927572 0.0566814 0.0149530675
-0.12211098 -0.0058289133 0.033550173 0.019893836 -0.06988702 0.00490612 -0.065759204 -0.32196435
-0.028050924 -0.07414674 0.073198326 0.020892277 0.12338764 0.051908694 0.040846888 0.04863402
-0.1392535 -0.18566336 -0.005395792 0.026411517 -0.014961368 -0.061264634 0.17714792 -0.023405885
-0.05417313 -0.029992785 0.1400276 -0.019423492 -0.13741963 0.08579382 -0.06954503 -0.098458625
-0.026317995 -0.05630797 -0.019829322 -0.0056270496 0.31862897 0.049283233 0.011466367 -0.014088167
0.007303468 -0.09628761 0.020651324 0.05684772 0.2417144 0.08173464 0.03268027 0.05981298
-0.004837911 0.18596414 0.4583306 0.03137629 -0.092921145 -0.04381728 0.017544797 0.0067245425
-0.030916201 -0.43042585 0.073343985 0.013919439 0.023580058 0.016302094 -0.31764242 0.01509151
0.029059036 0.17736892 -0.038692605 0.21024145 0.042119533 -0.03480562 -0.010848327 -0.022594808
0.03898924 0.078909665 -0.011505649 -0.028898304 -0.11486531 -0.015423695 0.16749816 0.005235778
0.029479846 0.2088287 0.03604623 -0.014880016 0.05603765 -0.019783715 0.17012902 -0.10809053
-0.026262688 -0.007038381 -0.011360339 -0.0015940168 -0.019775374 -0.004394345 -0.17349216 -0.06894509
-0.026156304 0.04686483 0.07601217 0.03955054 0.25774506 -0.03225843 0.0062248427 0.0747343
0.06411393 0.015054553 0.03245988 0.1246065 -0.040104955 -0.0796295 -0.058117017 0.016979143
-0.22655551 -0.057686444 0.040382456 -0.22791357 0.012765613 -0.1745205 0.015953306 -1.6387381e-05
0.027200067 -0.036343135 0.17127511 -0.04580459 0.035555776 -0.09620278 0.0044130646 0.00792184
0.106058665 0.027287064 0.022996552 0.51394 -0.11664974 0.1541003 0.08553775 -0.0128312325
0.17900264 -0.01696764 -0.0009155729 0.06984294 -0.043953426 -0.014095613 -0.09157467 -0.040883906
-0.24698696 0.00034702223 0.008363868 -0.019622745 -0.09945562 0.037208408 -0.33030465 -0.08677158
00000000: 51cc b3bc 7efd e0ba 4681 21bd 7532 8cbd
00000010: 01e8 013f f2d5 013a 9282 183d 4d9d 8bbc
00000020: e8fb 01bd 2698 1c3d 200d 193d 1b33 96be
00000030: 37ba a4bd f92e 583d 42c6 2b3d 6eec 083b
00000040: cb2d 51be 4be3 83bd ba1b d13b ba6a 773d
00000050: 013c 633d b810 743e 1613 d0bd b81f 813d
00000060: 7b8f 023b dbaf f9bc 0a3d 8c3d ca53 42be
00000070: 93f5 fab8 cb59 333d 8889 d93d 188e 91bd
00000080: c81b 023e f115 2ebd 79f9 a3bd 4e8c 183d
00000090: dfde 32bd ce60 513d 090a 8b3d 3759 1b3d
000000a0: 005f 743e 9c39 2bbd 9bd2 a2bc f7c4 0a3c
000000b0: fd93 d13c 0fe3 9b3d f1d4 803d 07e5 763d
000000c0: f19e 93be 2082 dabc e58e 613c 5580 83bd
000000d0: 4288 6bbd 5ab7 80bd 0146 f43d 1c15 913c
000000e0: 3246 82bd f630 3bbd 4d5d 96bc c08c 40bd
000000f0: 18ba 3cbd 8a9f b83d 2708 983d 7215 243e
00000100: 5143 893d 6c39 033c ea53 99be ee5e 4a3d
00000110: 2ffa f7bc 8bff 1abe 96e9 89bd bba2 2cbe
00000120: a963 4cbd 92cc 903d d603 17bc b596 0f3d
00000130: 7088 223e 4d1d 963d 4603 38bd 9b00 84b9
00000140: 24fd 293c e55f 04bd 1104 523d 8701 963a
00000150: 0953 b63d d441 c33e a546 0f3e 542f 843c
00000160: 5ff5 9e3d 8a7c 87bd 6a91 803e 95ef c9bc
00000170: 13b7 543c 65ae 9fbd ca46 273b 7550 193c
00000180: 5a0c 563d 278a 573d ff74 2abe eec6 74bd
00000190: 8167 d5bc 5dc8 e4bc c12a 683d b6fd 743c
000001a0: 5215 fabd 7800 bfbb e86b 093d 66f8 a23c
000001b0: ed20 8fbd 84c3 a03b c3ac 86bd 83d8 a4be
000001c0: 0dcb e5bc 3fda 97bd 01e9 953d 4826 ab3c
000001d0: a9b2 fc3d 369e 543d 114f 273d 7734 473d
000001e0: 7898 0ebe 891e 3ebe 2fcf b0bb f75c d83c
000001f0: 8720 75bc a0f0 7abd 4466 353e b3bd bfbc
00000200: a5e4 5dbd 6eb3 f5bc 6563 0f3e 041e 9fbc
00000210: bbb7 0cbe acb4 af3d a06d 8ebd ada4 c9bd
00000220: d698 d7bc 30a3 66bd 1a71 a2bc 1d63 b8bb
00000230: 5623 a33e 37dd 493d 6edd 3b3c 0ed2 66bc
00000240: ee51 ef3b 7032 c5bd f72c a93c 28d9 683d
00000250: fb83 773e 7e64 a73d bfdb 053d 75fe 743d
00000260: 5787 9ebb 626d 3e3e 4faa ea3e 6d84 003d
00000270: 714d bebd c079 33bd 1bba 8f3c 8d59 dc3b
00000280: f943 fdbc c760 dcbe 5f35 963d 5c0e 643c
00000290: f72a c13c f88b 853c 07a2 a2be 6142 773c
000002a0: 370d ee3c 33a0 353e 237c 1ebd 8949 573e
000002b0: 8885 2c3d 5690 0ebd 2ebd 31bc bf18 b9bc
000002c0: 2eb3 1f3d 649b a13d 3182 3cbc 23bc ecbc
000002d0: 813e ebbd aab3 7cbc a384 2b3e e490 ab3b
000002e0: b87f f13c 31d7 553e 36a5 133d 50cb 73bc
000002f0: bc87 653d 7511 a2bc 4d36 2e3e 915e ddbd
00000300: d924 d7bc 38a2 e6bb b720 3abc 54ee d0ba
00000310: f7ff a1bc 70fe 8fbb eea7 31be 1533 8dbd
00000320: bf45 d6bc 56f5 3f3d 45ac 9b3d bfff 213d
00000330: 29f7 833e 6a21 04bd c4f9 cb3b 4c0e 993d
00000340: 2a4e 833d 5fa7 763c a7f4 043d b131 ff3d
00000350: 1845 24bd cb14 a3bd 1c0c 6ebd d817 8b3c
00000360: 2bfe 67be 9f48 6cbd 1368 253d 2d62 69be
00000370: dd26 513c 80b5 32be 82b0 823c a277 89b7
00000380: add2 de3c 8adc 14bd be62 2f3e 989d 3bbd
00000390: efa2 113d f705 c5bd 789b 903b 9bca 013c
000003a0: 4935 d93d 1f89 df3c 4463 bc3c 9291 033f
000003b0: 0fe6 eebd 78cc 1d3e 6a2e af3d 173a 52bc
000003c0: 784c 373e b8ff 8abc 0f03 70ba d109 8f3d
000003d0: 8208 34bd 49f1 66bc 808b bbbd e275 27bd
000003e0: 26ea 7cbe 89f0 b539 9b08 093c e1bf a0bc
000003f0: 63af cbbd d867 183d b11d a9be 4cb5 b1bd

bias f4 [9]
0.00018761583 -0.00016789454 -8.126829e-05 -0.00014560936 0.00013266192 4.9319824e-05 -3.6869038e-05 2.8074941e-05
4.0263654e-05
00000000: beba 4439 d90c 30b9 956e aab8 b7ae 18b9
00000010: 2a1b 0b39 c2dc 4e38 d4a3 1ab8 7a82 eb37
00000020: c5e0 2838

weight f4 [50]
0.100324295 0.11993685 0.07868583 -0.09521059 -0.007801886 0.049526516 0.002719144 0.029510913
0.104958326 0.11047889 0.0061582136 -0.05407344 0.025563885 -0.01247434 0.09654536 0.09902633
-0.043521564 0.09772444 0.121090285 0.032422327 0.10381711 -0.0903905 0.01940196 0.09245451
0.069689535 0.00028510625 0.0781225 -0.14242557 0.09706242 0.121752456 0.11630652 0.10983035
0.01621633 0.118702695 0.041200086 -0.07378899 0.050796986 -0.1916541 0.11020134 0.11954427
0.07036771 0.121374436 0.09266885 0.10915749 0.07857035 0.04645696 0.09267107 0.033671644
-0.026098154 -0.043772124
00000000: d376 cd3d 74a1 f53d 0926 a13d c5fd c2bd
00000010: f7a6 ffbb 51dc 4a3d ab33 323b dfc0 f13c
00000020: 64f4 d63d c242 e23d d7ca c93b 1d7c 5dbd
00000030: 5a6b d13c 2d61 4cbc 93b9 c53d 51ce ca3d
00000040: ab43 32bd c023 c83d 2ffe f73d 46cd 043d
00000050: 119e d43d a81e b9bd dcf0 9e3c ca58 bd3d
00000060: 63b9 8e3d 507a 9539 b0fe 9f3d 02d8 11be
00000070: a9c8 c63d 5a59 f93d 1d32 ee3d bcee e03d
00000080: 1cd8 843c 661a f33d 6cc1 283d af1e 97bd
00000090: 8010 503d f940 44be 3db1 e13d a0d3 f43d
000000a0: f21c 903d 2993 f83d 2bc9 bd3d f68d df3d
000000b0: 7ee9 a03d a749 3e3d 54ca bd3d 47eb 093d
000000c0: cccb d5bc 664a 33bd

bias f4 [50]
-0.59805816 -0.5697622 -0.4742931 -0.7832895 -0.5813645 -0.53271073 -0.506123 -0.5155298
-0.53991175 -0.57324606 -0.60473377 -0.7525663 -0.6465472 -0.59585655 -0.4591892 -0.57665664
-0.798617 -0.57662314 -0.58778644 -0.7257195 -0.5159235 -0.8649455 -0.5851796 -0.67411226
-0.49179232 -0.64463264 -0.89065117 -0.74334466 -0.49456114 -0.55619216 -0.5831324 -0.56965303
-0.6371145 -0.6250009 -0.6564412 -1.0158033 -0.84829503 -0.88780236 -0.6261329 -0.59298253
-0.7277984 -0.5798623 -0.6048171 -0.6212628 -0.54119235 -0.5185512 -0.44419992 -0.5678236
-0.72936183 -0.7316083
00000000: 571a 19bf efdb 11bf 8cd6 f2be a985 48bf
00000010: 4ed4 14bf bb5f 08bf 4791 01bf c3f9 03bf
00000020: a837 0abf 41c0 12bf d5cf 1abf 2fa8 40bf
00000030: 1e84 25bf 0e8a 18bf d91a ebbe c59f 13bf
00000040: 2a72 4cbf 939d 13bf 2c79 16bf c1c8 39bf
00000050: 9013 04bf 116d 5dbf 55ce 15bf 9f92 2cbf
00000060: 34cc fbbe a506 25bf b701 64bf d64b 3ebf
00000070: 1e37 fdbe 9c62 0ebf 2a48 15bf c8d4 11bf
00000080: f019 23bf 0f00 20bf 880c 28bf d805 82bf
00000090: dd29 59bf 0447 63bf 3f4a 20bf b4cd 17bf
000000a0: ff50 3abf db71 14bf 4bd5 1abf 140b 1fbf
000000b0: 958b 0abf c5bf 04bf 2c6e e3be e35c 11bf
000000c0: 75b7 3abf ae4a 3bbf
